models/ppo_agent_ep80.pt (torch, 364210 bytes, 45 tensors)

network.0.weight f4 [128, 30]
000000 71 00 cf bd 49 70 1c 3e d1 5c fb 3d 2c b0 d2 bd
       -0.10107506 0.15277208 0.12273563 -0.10287508
000010 fd 49 8f be 46 c3 b3 bd 77 6b 4d bd 69 53 0d be
       -0.27986136 -0.0877748 -0.050151315 -0.1380135
000020 2e ac 40 3c ec f8 b3 3d 6f b5 d1 bd 95 db 0c bd
       0.011759801 0.087877125 -0.10239684 -0.034389097
000030 5c 14 20 3e ad 9f 64 3e 03 8f 10 3e f8 1a 33 bd
       0.15632766 0.22326536 0.14117055 -0.04372689
000040 35 7d 3d bc 29 30 ec 3c e1 6e d3 bc c5 b2 fe bc
       -0.011565496 0.028831558 -0.025809707 -0.031091103
000050 ab 14 4b bd 7c 1b 04 3e 63 b5 39 3e 6b 8c 00 bd
       -0.049580257 0.1290111 0.181356 -0.031383913
000060 08 3d e5 3d ff 03 18 be 68 02 35 be 40 07 45 3d
       0.111932814 -0.14845274 -0.17676699 0.048102617
000070 08 f8 4c bd 49 fc c9 bd c6 af ac 3d 59 f0 b3 bd
       -0.05004123 -0.09862573 0.084319636 -0.08786077
000080 76 17 ca bd 55 8a d0 3d 6a 36 50 be 81 fd 03 3e
       -0.09867756 0.10182635 -0.20333257 0.12889673
000090 1e b0 68 3e e4 3f f4 3d 30 1c 98 bd f7 bc 09 3e
       0.22723433 0.11926249 -0.07427251 0.1345099
0000a0 55 29 f5 bc 2a 63 2b 3d 0b ef 90 3d bc b3 40 3e
       -0.029926935 0.041842617 0.07076844 0.18818563
0000b0 b5 18 c8 3d 23 3f f2 bd bb b9 34 3e 17 bd c2 bd
       0.097703375 -0.118284486 0.17648976 -0.09508722
0000c0 a3 bb 80 bb 26 85 8e 3d cf 82 01 3e 53 8d 1f 3e
       -0.003928618 0.0695899 0.12647556 0.15581255
0000d0 10 ac 21 bb d6 ca 1a 3e bb a2 94 bd 80 af ab 3c
       -0.0024669208 0.15116438 -0.07257601 0.020957708
0000e0 40 37 3c bc 60 6e ae 3b 76 eb b7 bd 90 f4 32 bd
       -0.011487782 0.0053232163 -0.089804575 -0.043690264
0000f0 53 a8 f6 bd 87 bf 70 bd a7 53 13 3e d4 86 af bc
       -0.12043824 -0.058776405 0.1438738 -0.021426596
000100 b4 6e b5 bd db 91 b4 3d 96 e6 40 3d 00 9a 09 3d
       -0.088590056 0.08816882 0.047094904 0.03359413
000110 5e 81 15 3e 4a ac 0b 3d 36 00 f9 3b 9a 76 72 3d
       0.14600131 0.034099855 0.007598902 0.05919514
000120 c2 f0 55 bc 5b 16 36 be 87 38 b7 3d b5 3d 17 bd
       -0.013057889 -0.17781965 0.089463286 -0.036924083
000130 70 47 02 3e 6f e0 ac 3d 1e 94 0f be 5b 58 34 be
       0.12722564 0.08441245 -0.14021346 -0.1761183
000140 0d c7 d2 3d 90 1e 1c 3e fb 39 28 be 73 3c 14 3e
       0.10291872 0.15246034 -0.16428368 0.14476185
000150 3e 4d 12 3e cc 2d 37 3e 57 53 92 bd b8 3d c8 3d
       0.14287278 0.17888564 -0.07144802 0.09777397
000160 01 6a e1 bd 9a be b9 bd 0f 37 b4 bd 30 33 c3 bd
       -0.11006547 -0.090695575 -0.08799564 -0.095312476
000170 f5 9a 0f 3d b8 7d ee 3b 82 07 8d be 57 60 4c bd
       0.035059888 0.0072781704 -0.2754479 -0.049896564
000180 59 48 66 bd c3 4b 37 be d7 56 29 3e e4 69 56 bd
       -0.05622134 -0.17899995 0.16537033 -0.05234708
000190 ab fe 13 bd fd 9c 33 3d b9 07 8e bd 24 27 78 3d
       -0.036131542 0.043850888 -0.06935067 0.060584202
0001a0 3f 92 06 be 69 f7 3f 3e 2b 01 e1 3d 08 89 0b 3d
       -0.13141726 0.18746723 0.10986551 0.03406623
0001b0 df cc 85 bd fc 51 3a 3d 7d 34 f6 3c 27 d6 5b bc
       -0.06533217 0.045488343 0.030054325 -0.013417757
0001c0 8f 1a 68 be 77 d6 59 3e 86 93 09 be 44 43 32 3e
       -0.22666381 0.21273218 -0.13435182 0.17408472
0001d0 84 de e1 3d 30 db de 3d e0 a0 42 3c 3a 13 a5 bd
       0.110287696 0.108816504 0.011879176 -0.08060308
0001e0 d7 ec 14 3e 5a 13 45 bd cf 83 2e 3c 46 c8 30 3e
       0.14543472 -0.04811416 0.010651543 0.17263898
0001f0 67 81 aa 3b 08 17 25 be 22 34 42 be b7 5e d3 3d
       0.0052034142 -0.16122067 -0.189652 0.103208
000200 74 1e 4c 3e b3 03 26 bd ec 00 62 3e e4 79 63 3d
       0.19933492 -0.04053087 0.22070664 0.055536166
000210 47 43 12 3e 33 81 d0 bd e0 3c 93 3d f1 d3 84 3e
       0.14283477 -0.10180893 0.07189345 0.25942948
000220 00 52 7f bd 12 7b 09 bd 0f 68 0b be 3b 25 7e 3d
       -0.06233406 -0.033564635 -0.13613914 0.062047224
000230 4a 04 1d 3e ab 0b aa bd 32 34 63 bb 5f 04 a3 bd
       0.15333667 -0.08303007 -0.0034668562 -0.07959818
000240 d0 b7 23 3c 7e 05 84 3d e9 72 bf bd 30 61 28 bd
       0.009992555 0.0644636 -0.09348089 -0.04110831
000250 04 20 70 3d 00 20 5b bb bc 62 9b bd c2 93 89 3c
       0.058624282 -0.0033435822 -0.075871915 0.01679409
000260 b9 ea 26 be e2 00 8b bd 6b 6a 02 3e 46 b9 48 be
       -0.16300477 -0.06787278 0.12735908 -0.19601926
000270 39 e5 e4 bd 68 06 15 3d 62 ac 37 be 23 f9 8a 3d
       -0.11176533 0.036383063 -0.17936853 0.067858
000280 b7 1e d0 3d 1a b9 ed bd a9 a5 ce bd 34 50 33 be
       0.101621084 -0.11607571 -0.10090191 -0.17511064
000290 05 75 b1 3d fe d1 8c 3d 1b b6 65 3d 65 25 fc bd
       0.08664898 0.0687599 0.056081872 -0.1231182
0002a0 88 f3 15 3e b8 d5 0d bd ac 38 bb bd 6c bb b9 bd
       0.14643681 -0.034627646 -0.09141669 -0.09068951
0002b0 be 1d ec bd be c0 fc 3d 14 f3 54 3d b4 cf 17 3d
       -0.1152911 0.1234145 0.05198963 0.037063316
0002c0 0e 22 09 be f8 d0 d5 bc 78 a3 e9 3d 7b 20 92 bd
       -0.13391897 -0.02610062 0.11408132 -0.071351014
0002d0 04 21 1f 3e c5 1d d0 bc 56 c8 40 3e c5 2d 36 3e
       0.15539938 -0.02540482 0.18826422 0.17790897
0002e0 86 ec 3f be 80 69 0f be a9 1b 29 be d7 c4 4a 3e
       -0.1874257 -0.14005089 -0.16514458 0.19801651
0002f0 65 fc 14 bc 9d 2a 74 3c aa b9 4f 3e 69 e2 a7 3b
       -0.009093379 0.014902738 0.20285669 0.0051234257
000300 4b 61 d1 bd 4f d6 34 3e dd c6 3c 3d dc ed 84 bb
       -0.10223635 0.17659877 0.04608809 -0.0040566754
000310 f7 17 d8 3d ba 92 d6 3c ca a5 39 3e 2a 81 6c bd
       0.10551446 0.026193012 0.1812965 -0.057740368
000320 e2 59 dc bb 36 dd e9 bd 4b d2 c9 3d d9 0a 7b 3e
       -0.006724582 -0.11419146 0.09854563 0.24515857
000330 88 bb 54 3d 78 fc 2a 3e 5c 23 38 3e 3b ae 28 be
       0.051936656 0.16697872 0.17982239 -0.16472714
000340 3a 70 e5 bd f0 cb 35 be 2c 86 18 3e ec 78 2a be
       -0.11203046 -0.17753577 0.14894933 -0.1664769
000350 b6 f1 de bd 4e 0d 09 3e 1d 23 03 be 49 61 46 bd
       -0.108859465 0.13383982 -0.12806363 -0.048432622
000360 3d 28 70 bd 2f 5e c2 bc 7e fc 36 3e 9e 3e 0a 3d
       -0.058632124 -0.02372655 0.17869756 0.033751123
000370 47 23 3c 3e 81 78 d0 3b 1a 70 38 3e 72 cb d4 3d
       0.18372832 0.0063620214 0.18011513 0.103903666
000380 c9 0a ca 3b f8 44 2c be 8d 68 00 3e a0 85 04 3e
       0.0061658365 -0.16823184 0.12539883 0.12941599
000390 d6 5b 95 bd e4 00 30 3a c4 65 c7 bd 62 3a 30 3e
       -0.07292907 0.0006714 -0.09736207 0.17209771
0003a0 b5 f6 09 be f7 f0 46 3d df 71 1d be a0 f0 c1 3d
       -0.13473018 0.048569646 -0.1537547 0.09469724
0003b0 00 a7 63 ba e4 64 1b bd d0 5b 41 3c 7e 4a 12 3e
       -0.0008684248 -0.037938014 0.011801675 0.14286229
0003c0 77 64 5d be e6 0c 83 bb c0 11 82 3b 56 a0 8d 3d
       -0.21620356 -0.0039993403 0.003969401 0.06915347
0003d0 b2 18 31 bd 69 3a 75 bd 40 e4 d6 bd e8 8d 7e 3c
       -0.043236442 -0.059870157 -0.10492754 0.015536763
0003e0 a2 fd b9 bd c4 47 d1 3d 77 97 78 3e da d4 a9 3d
       -0.0908158 0.10218766 0.24276529 0.08292551
0003f0 e3 9e e7 bd 96 a5 11 be 30 71 bd 3d 9f ad 1a 3d
       -0.11309602 -0.14223322 0.092501044 0.037763234

network.0.bias f4 [128]
000000 26 81 54 bd d8 d1 6c 3d b2 f7 36 3e 0f 39 18 be
       -0.051880978 0.05781731 0.17867926 -0.14865516
000010 1b e1 09 3e 66 46 f5 bd 97 38 f8 3c 89 f2 cf bd
       0.13464777 -0.11976318 0.030300422 -0.10153682
000020 63 23 93 bd dd f0 86 3d 9e c3 24 3e 0b 44 03 3e
       -0.07184484 0.0658891 0.16090247 0.12818925
000030 0f f5 c9 bd e9 a4 46 bc 22 46 3d 3d f7 ee 27 3e
       -0.09861194 -0.012124279 0.046209462 0.16399752
000040 a4 6e 2d be 6f 37 44 3e dd 62 88 3e ac af ca bd
       -0.16936737 0.19161771 0.26637927 -0.09896788
000050 f2 92 ce 3d 00 28 97 bd b0 d1 41 bc eb 6f 90 3d
       0.10086621 -0.07380676 -0.011829779 0.07052597
000060 46 60 bf bd 92 4d 6c bb b6 d0 12 3e 92 d4 28 3e
       -0.093445346 -0.0036056978 0.1433743 0.16487339
000070 b9 89 b7 3d c3 28 2e be 35 da fc bd 1e a4 15 3e
       0.089618154 -0.17007737 -0.12346307 0.14613387
000080 79 77 96 bd 86 df 81 3d 31 98 76 3d 12 c1 0b bc
       -0.07347006 0.06341462 0.060203735 -0.008529918
000090 86 f3 33 3d 92 98 33 3d 51 04 f6 3c 95 91 91 3d
       0.043933414 0.043846674 0.030031355 0.07107846
0000a0 a0 83 86 bc 2d e4 0a 3e c5 6d a9 ba cd 54 0d 3e
       -0.016420186 0.13563605 -0.0012926391 0.1380188
0000b0 01 19 d3 bc 43 58 ee bd 68 b1 2c 3e bf f0 cb 3d
       -0.025768759 -0.11637928 0.1686455 0.09958028
0000c0 4b bd 09 bd 2a 5d 48 3e cb d4 1e be 33 22 ea bd
       -0.03362779 0.1956679 -0.15510862 -0.11432304
0000d0 b3 e6 a4 3d 2d 00 c3 bd c4 7b 44 3e ff ef 33 3c
       0.08051815 -0.09521518 0.19187838 0.0109825125
0000e0 f0 ea 13 3d 2f 99 b6 ba cb 3f 21 be 9e 52 12 bb
       0.036112726 -0.001393115 -0.15746991 -0.0022327076
0000f0 f9 bd e7 3d d4 2c eb bb 5c b3 25 3e 0f cc 27 3e
       0.11315531 -0.007176975 0.16181701 0.16386436
000100 76 7a 81 3d f5 25 1a be dc ab 9f 3d f0 53 c0 bd
       0.06322186 -0.15053542 0.077964514 -0.0939101
000110 54 fe 22 bd 56 ec 2d 3d a9 98 82 bd b9 f2 1e be
       -0.039793327 0.042461716 -0.06376774 -0.15522279
000120 c3 ec fa bc 1f ab 3e bc 5e ba 9f bb dd e2 90 3b
       -0.030630475 -0.011637478 -0.0048745116 0.0044215755
000130 85 79 47 3d 9b 5f f2 bd be 80 2a 3e fa 70 e0 bd
       0.048699874 -0.118346415 0.16650674 -0.109590486
000140 52 90 26 3e 2f c0 e0 3d 1f fa 1e 3d d2 29 9c 3d
       0.16265991 0.10974156 0.038812753 0.07625164
000150 e7 d8 57 3d c7 fc 0f 3e 69 ef 1a 3e fe 0f d3 bd
       0.05269709 0.1406127 0.1513039 -0.10305785
000160 ee d1 e4 bd dc 2e 1c 3e db 00 47 be 9f 86 31 bc
       -0.111728534 0.1525225 -0.1943392 -0.010835319
000170 a3 8d 6d 3e 43 21 37 3c e9 6a 16 be aa b5 a6 bd
       0.23198561 0.011177364 -0.1468922 -0.081401184
000180 b0 5b 46 ba b0 5a c2 bd 05 bf be 3d dd 75 4f bd
       -0.0007566763 -0.094899535 0.09313778 -0.050649513
000190 81 95 1e 3e ca d9 13 3e 85 b5 07 3e 7a 91 ad 3d
       0.15486719 0.14438549 0.13252838 0.08475013
0001a0 ba 6f 82 3d 7c 58 f7 3d c0 f5 e8 3d a9 14 ce 3d
       0.063689664 0.12077424 0.11374998 0.10062534
0001b0 27 11 2a bd 0d 51 d2 bc 00 97 2a 3c c0 46 78 bd
       -0.041520264 -0.025673414 0.010411978 -0.060614347
0001c0 c2 e0 a5 bc ce a5 c9 3c 47 03 f2 3d 4e 11 0d be
       -0.020248774 0.024615195 0.11817031 -0.13776132
0001d0 d8 13 01 3e 9c 7c 2f bd 02 af 0f 3e f7 07 8b 3d
       0.12605226 -0.042843446 0.14031604 0.067886285
0001e0 8e 0b 0e 3b 58 ce 6c 3e fc 74 c3 3d ff 89 2c 3e
       0.0021674368 0.23125589 0.095437974 0.16849516
0001f0 c2 e4 7f 3d 06 fe 69 3d 3d c8 06 be 52 bd 7e 3d
       0.06247402 0.05712702 -0.13162322 0.06219227

network.2.weight f4 [64, 128]
000000 3b 3d fd 3d 47 8b 8e 3d b8 e7 ed 3c c1 5c 93 3c
       0.123651944 0.06960159 0.029041156 0.017988564
000010 df 1c 33 3d b2 50 1c bd 4f 6b f6 bb 65 45 18 bc
       0.043728705 -0.038162895 -0.0075201164 -0.009293889
000020 31 54 24 3c 0d 74 30 3d 91 4b 98 bd c0 bd 79 3c
       0.010029838 0.043079425 -0.07436288 0.015242994
000030 31 8f 9a bd fc 1b dd 3c 95 e5 f0 bd 80 a2 a9 bd
       -0.07546843 0.026990883 -0.11762539 -0.082829475
000040 d9 4e 9e bb f4 34 03 3e f3 67 81 3c a3 c9 2a 3d
       -0.0048311767 0.12813169 0.015796637 0.041696202
000050 24 93 49 3b d4 5d 27 3d 7a ef 8d 3d be 37 c5 3c
       0.0030757869 0.040860966 0.06930442 0.024074432
000060 15 98 c7 3d b2 2a e4 3c 12 61 42 3d f8 b5 57 bd
       0.09745804 0.02785239 0.047455855 -0.052663773
000070 0c 47 d3 3d 1c 32 eb 3d d7 ce 10 3c 80 c9 c5 3c
       0.103162855 0.11484167 0.008838377 0.024143934
000080 51 5d 95 3d 5d 4a e8 3c 76 e6 b6 3d ad 5e 74 bd
       0.07293189 0.028355772 0.08930676 -0.059660602
000090 1f 8d 99 3d 48 92 00 3c 83 3f b3 3d 3b 83 93 3d
       0.0749762 0.007847376 0.08752348 0.072027646
0000a0 0e b3 9f 3d 2f 2e 8e 3d c1 1a 13 3c ac 37 c2 3c
       0.07797824 0.069424026 0.008978547 0.023708187
0000b0 a3 79 fe bc 1b a6 e2 3b 1d d9 aa 3d 42 d4 8e bd
       -0.03106386 0.006916774 0.08342192 -0.06974079
0000c0 25 5f a2 3d 3f 5c 9b bc e9 76 57 bd 93 88 ae 3d
       0.07928304 -0.018964885 -0.052603636 0.08522143
0000d0 bb 40 94 3d 11 0d 88 bd af 98 d0 3d 58 68 d9 bc
       0.07238909 -0.06643117 0.10185372 -0.026539013
0000e0 a8 ac a2 3d 69 6d e7 3b 43 56 43 3d 34 73 23 bd
       0.07943088 0.0070626033 0.047689687 -0.039904788
0000f0 0b dd 0d bd 97 ad 95 3d 5a 2e d3 3d 3c 75 ef bd
       -0.03463463 0.073085 0.10311575 -0.116922826
000100 db 1d a9 3c 89 8a 89 3d 57 9a 81 3d 10 e6 30 3c
       0.020644119 0.067158766 0.06328266 0.010797039
000110 59 79 cf bd 60 9b 76 bd d7 d5 25 bd 86 5a 8a 3c
       -0.10130567 -0.06020677 -0.040487137 0.016888868
000120 50 95 2b bd c5 3e c2 bd a8 5d 37 3c 84 eb f4 3d
       -0.041890442 -0.094846286 0.011191763 0.119589835
000130 1f 0e af 3d f2 5f 15 3d 67 e8 4b bc 1e 8a 13 3d
       0.08547615 0.036468454 -0.012445546 0.03602039
000140 2a d0 f1 3d 3d dc 89 3d 5a 85 47 bd 12 b1 89 bc
       0.11807282 0.0673146 -0.04871116 -0.016808067
000150 13 d4 40 3d 9b 55 40 bc 63 a8 b7 bc 2c 10 9f bd
       0.04707725 -0.01173916 -0.02241916 -0.077667564
000160 b1 a8 4b bc f9 9a 1f 3e 6c bf f3 3c e4 4d e4 bd
       -0.012430356 0.15586461 0.029754363 -0.11147669
000170 63 e7 0c 3e ed 09 82 3b b3 9f 14 bd 61 37 3a bd
       0.13760142 0.0039684684 -0.036285114 -0.04546297
000180 84 79 8e 3d 8a 62 bc 3d 82 5d 6b bd 6a 90 67 bc
       0.06956771 0.09198482 -0.057462223 -0.014133552
000190 64 ef 4c bd 2f 43 4e bd ee 2f a9 3c e4 07 05 bd
       -0.05003299 -0.05035704 0.020652737 -0.03247823
0001a0 c3 2d af 3d 05 a8 30 3c 44 9a 85 3d e1 e9 13 3e
       0.0855365 0.0107822465 0.065235645 0.14444686
0001b0 c2 af 67 3d bc fc 69 ba 0d be 8c 3d 3f 88 42 bd
       0.0565641 -0.0008925905 0.06872187 -0.047493216
0001c0 66 ad 3b bc 3e b5 ad 3c 5b a6 10 bd 13 39 7a bc
       -0.011454916 0.021204587 -0.0353149 -0.015272397
0001d0 30 36 20 3c dc a3 26 3d 24 d7 19 bd 4b 07 bb 3d
       0.009778544 0.040683612 -0.03755869 0.091322504
0001e0 93 05 66 3d 09 e1 bc 3d 3d f0 16 3d f9 c8 db 3b
       0.05615766 0.092226095 0.036850203 0.0067073074
0001f0 57 0f e0 3c 3a 4e 81 bc fa ee 99 3d e2 9d 1d 3e
       0.027351065 -0.015784372 0.07516284 0.15392259
000200 6e 33 8c 3d 9d cc 3c 3d e4 c1 be bb c0 54 1c 3d
       0.06845747 0.046093572 -0.0058214534 0.03816676
000210 5e ef 30 bd 68 07 2b 3c be 0e 4f 3b d9 fa 94 3d
       -0.04319703 0.0104387775 0.003159448 0.07274408
000220 d0 f0 a5 bd 0d 6f 90 3d ae 0c dc 3d 26 f8 18 3c
       -0.08102572 0.07052431 0.10744606 0.009336507
000230 de 7f 70 3d d1 04 c3 bb fe 48 e0 bb 86 84 1d 3d
       0.058715694 -0.005951502 -0.006844639 0.038456462
000240 b8 11 86 3c bb e0 a6 3d 0a 98 a3 3d 8b 34 44 bc
       0.01636587 0.08148333 0.079879835 -0.011975418
000250 6e da 03 bd d4 c0 3f bc 65 45 53 3c 24 99 67 bd
       -0.032190733 -0.011703689 0.012894963 -0.05654253
000260 56 45 a7 bd 6f f6 ba bc d0 05 c5 3d 7e 31 25 3d
       -0.08167522 -0.022822587 0.09620249 0.040330403
000270 bd c1 ec 3d 8b 18 9a bd b5 c5 2e 3d 22 47 b8 3d
       0.1156039 -0.075242124 0.042669017 0.089979425
000280 6e ef ce 3c 0a 92 55 3d 8b 4e a3 bc bc 57 33 bb
       0.025260653 0.052141227 -0.019934913 -0.0027365526
000290 43 3c 9a bd 82 da d3 3d 6f 7f a8 3d 20 4e 57 3d
       -0.07531025 0.103444114 0.08227431 0.05256474
0002a0 28 43 8a 3d 58 37 d4 bc 7b 46 c3 3d 7a 5c b4 bd
       0.0675109 -0.025905296 0.095349275 -0.08806701
0002b0 ad 55 1f bc e0 84 49 3d 41 72 9e 3c b7 69 27 bd
       -0.009725017 0.049198985 0.01934159 -0.040872302
0002c0 a3 25 51 3d 15 17 46 3a db 88 a8 bc e4 eb c9 bc
       0.051061284 0.000755654 -0.02057307 -0.024648614
0002d0 3a 1a 9d 3d c8 5c 08 bd ad eb a1 3d 62 fb 8b bd
       0.07671018 -0.033291608 0.0790628 -0.06835057
0002e0 27 a2 af 3c 4c 42 b1 3d dc 1f 20 bd e7 85 77 3c
       0.021439625 0.08655223 -0.039092883 0.015107608
0002f0 78 92 f0 bc ea 4a 80 3d cb 14 a3 3d b7 29 86 3d
       -0.029366717 0.06264289 0.0796295 0.06550925
000300 5b 63 30 3d a6 a7 3b 3d 18 ba 02 3d b3 17 d4 3d
       0.043063503 0.04581418 0.031915754 0.10356083
000310 8f 17 5f 3c 13 fd ca bb 12 db ea bd bb 1b 8a bb
       0.013616457 -0.0061947196 -0.114675656 -0.0042147315
000320 49 22 6d 3d 5e 28 90 3d b4 0e 84 bd 04 10 0a 3d
       0.057894025 0.070389494 -0.06448117 0.03370668
000330 5c 0b 8e 3d eb 60 bc 3d 50 b8 49 bb 65 ce 20 3e
       0.069357604 0.09198173 -0.0030780025 0.15703733
000340 ce 9e c4 bb fe e3 ff 3d eb eb 51 3d 6c a5 c3 3d
       -0.0060003763 0.12494658 0.05125038 0.09553036
000350 c4 05 6c ba 99 ab ff 3d f5 df b3 bc 2f 6d 54 bd
       -0.00090035447 0.124839015 -0.021957377 -0.051861938
000360 d8 f4 c3 3d 2b 7b 67 3d da 8b 9f bd 4a 14 54 bd
       0.095681846 0.056513947 -0.077903464 -0.05177716
000370 5a 4d 22 3e e8 f1 40 be eb e6 04 be e8 ff 34 bd
       0.1584982 -0.1884228 -0.12978713 -0.044189364
000380 f0 b4 b2 3d d3 60 a3 bc a3 dc 95 bb 02 89 3f 3d
       0.08725917 -0.01994363 -0.004573421 0.04676152
000390 94 70 46 3d 92 ba ba 3d 62 9c e8 3d 1d 29 81 bd
       0.048447207 0.09117617 0.11357953 -0.0630667
0003a0 af 9d 4d bd 2e fb d0 bd 4c cf 15 bd c5 4b b7 3d
       -0.050199207 -0.10204159 -0.036574647 0.08949999
0003b0 41 10 4b 3d 03 75 9d 3d ff 5e cf 3c 99 26 29 bd
       0.049576048 0.07688334 0.025313852 -0.041296575
0003c0 f5 0d 4b bb 58 18 86 bd 90 49 96 3d 5d 3d 8e 3d
       -0.003098366 -0.06547612 0.0733825 0.06945298
0003d0 bf ae 7b 3d f9 2f ff 3c 98 ec b9 3c 28 21 a5 3c
       0.061445948 0.031150805 0.022695825 0.020157412
0003e0 2d e1 f6 3c 2a 01 59 3c 6b da 37 bd 67 1f 53 3d
       0.030136669 0.013244906 -0.044886034 0.05154362
0003f0 0d 47 2c 3d fc f9 3a bd 15 60 bd 3d 8b 3a 29 3d
       0.042059947 -0.04564856 0.09246842 0.041315597

network.2.bias f4 [64]
000000 8e a5 02 3c a2 22 e1 bc 5a 5e 55 3d 82 67 19 3d
       0.007974042 -0.027482335 0.052091934 0.03745223
000010 b7 60 ca bb 47 1e 88 3b 1f f6 d8 bb 20 d4 b2 3d
       -0.00617608 0.004154 -0.006621137 0.08731866
000020 c0 1e c8 bc 2a 3e 85 3d 80 54 75 3d f7 56 d0 3d
       -0.024428725 0.065059975 0.05989504 0.10172837
000030 7d 09 2e bd 9b 14 b4 bc 2a 09 32 3d ad ee 8a bc
       -0.042489517 -0.021982482 0.04346577 -0.016959513
000040 2f e5 17 bc 69 68 12 3c bf 0f 1f bd 11 6b 18 bc
       -0.00927095 0.008936026 -0.038833376 -0.00930287
000050 8e 12 5a bd 21 7b b6 bc de 2d 74 bd 28 66 28 bd
       -0.05324035 -0.02227551 -0.059614055 -0.04111305
000060 29 f0 dc 3c 49 10 5f 3d 7f 03 8f bd 2a 0c 66 bd
       0.026969986 0.05445889 -0.06983089 -0.056163944
000070 2f 54 4c bd 63 ca bc bd 9f e4 fb bc 5e a7 8a bb
       -0.04988497 -0.0921829 -0.030748663 -0.0042313775
000080 c5 1c 8a bd ad 92 36 3d b0 fc 84 3c 9f 04 04 3d
       -0.067437686 0.044573475 0.016233772 0.03223097
000090 75 29 3f 3d c6 28 8d 3d 01 f1 c2 3b 95 3c da 3c
       0.046670396 0.068925425 0.00594914 0.026640216
0000a0 73 fb fa 3c b3 b6 66 3d e3 a5 ba 3d e4 a8 9c bd
       0.030637478 0.05632658 0.09113672 -0.07649401
0000b0 86 50 2f bd 7e d2 e4 bc b5 42 a4 3d ce f6 7b 3d
       -0.042801403 -0.027932402 0.08020536 0.06151467
0000c0 c7 c2 13 bd fb d0 6a 3d 76 ed 08 3d d0 33 cc 3d
       -0.036074426 0.057328206 0.033429585 0.0997082
0000d0 71 36 10 bd f5 4d 0b 3d 13 54 58 3b a6 f1 63 bc
       -0.03520817 0.034009892 0.0033009097 -0.013912594
0000e0 91 bb a7 bc a1 ad 0f 3d ac f8 46 bc 74 dd 05 3c
       -0.02047518 0.035077695 -0.012144249 0.008170474
0000f0 5a 77 90 3d e8 dd 10 bc 3a 2f b0 3d b6 db 6b 3b
       0.070540145 -0.008841969 0.08602758 0.0035989112

network.4.weight f4 [32, 64]
000000 60 f1 b6 bd 8f eb 5b 3d 01 85 cc 3d 2d a2 b1 bd
       -0.089327574 0.053691443 0.09986306 -0.08673511
000010 47 ba ca bc 74 aa c8 3d 88 32 8e 3c b0 5e 11 3e
       -0.024747027 0.09798136 0.01735808 0.14196277
000020 5e 2e 03 be 96 cb c4 bc 88 49 3e 3d 29 81 fc 3c
       -0.12810656 -0.024022859 0.046456844 0.030823307
000030 2a 6d 0d be 39 01 97 bd 5e 1e 53 bc b4 1a e5 3d
       -0.13811174 -0.0737328 -0.012885658 0.11186734
000040 51 73 2a be 2c d2 22 3e f1 aa 0a bd 65 2c ce bd
       -0.16645552 0.15900487 -0.03385443 -0.10067061
000050 43 3b fb 3d 24 d6 5e 3d d1 16 c7 bb ea 92 25 3b
       0.12267163 0.05440344 -0.006075718 0.002526457
000060 19 60 07 3e 29 af e8 bb 2f ae 55 bd ae 6c 23 bd
       0.13220252 -0.007100959 -0.052168068 -0.039898567
000070 d6 72 2c 3e 6d 13 2f 3e 8a ec ec bd 5b 71 96 bd
       0.16840681 0.17097254 -0.11568554 -0.073458396
000080 e0 f1 db bd c8 f2 ee 3c 9a f8 11 3e f0 80 3e bd
       -0.10739493 0.029168501 0.1425499 -0.046509683
000090 64 4c 18 3e cd 35 72 3d d4 1f 6b bd de d3 1b 3e
       0.1487289 0.05913334 -0.0574034 0.1521754
0000a0 b1 d9 b1 3d 7f 17 58 3d d1 24 99 3d d4 8b a1 bd
       0.086840995 0.052756783 0.07477725 -0.07887998
0000b0 75 df 4e be 1d 4f 29 3e 2d 11 d1 bd ce 30 30 3d
       -0.2020243 0.16534086 -0.10208354 0.043015294
0000c0 a5 5a bb 3d 4d fa ab bd 67 9d 5c 3e 08 e2 11 3e
       0.091481484 -0.083973505 0.21544419 0.1424638
0000d0 b2 81 b1 3d c2 ab 50 bd e9 84 2f 3e 5a 5b 88 3b
       0.086673155 -0.05094505 0.17140545 0.0041612806
0000e0 72 67 39 3c f5 9e 62 3e d4 17 89 bd 55 5b 4c be
       0.011316167 0.2213095 -0.06693998 -0.19956715
0000f0 fb 12 31 be 8b 99 21 3e a0 1b c4 3d 2c d4 09 3d
       -0.17292397 0.15781228 0.095755816 0.03364961
000100 eb e7 d5 bd c6 98 46 3d 9d c2 c6 bc d2 33 75 3d
       -0.104446255 0.04848554 -0.02426272 0.059863873
000110 a4 39 df bd 35 8a 12 3e 5e 89 da 3d 6f 82 02 3e
       -0.10899666 0.14310534 0.10670732 0.12745069
000120 58 c1 ae 3d 2c d2 39 3c 3c 1b d6 3d ac 6f 61 bd
       0.08532971 0.011341613 0.10454413 -0.05503814
000130 9a 29 c2 3c bb ee a3 bd df 4d 54 3d 5d 6a 28 bc
       0.023701478 -0.080045186 0.051832076 -0.010279265
000140 0c 43 1d be bd b6 ce 3a 2c 24 9d 3d 29 95 15 3c
       -0.15357608 0.0015771013 0.07672915 0.009129801
000150 ee c7 a5 bc b6 ba de bc d3 03 9c bd 99 ac 37 3e
       -0.020236935 -0.02718864 -0.07617917 0.17936935
000160 3f 28 d8 bd 7a 54 91 3d 60 22 aa 3d 7d b6 f5 3c
       -0.10554551 0.07096191 0.08307338 0.029994244
000170 b0 50 f4 3d 7e cd da bb a8 61 71 3d 41 37 8a 3d
       0.119294524 -0.0066773286 0.058931023 0.0674882
000180 e0 5b cd 3d 55 2a fb bc ca 59 59 bc ca e2 a0 bd
       0.100272894 -0.030659834 -0.013266036 -0.078557566
000190 5d 24 85 bd 94 b8 30 3c 48 ba 22 bd fa 1a 5b 3c
       -0.06501076 0.010786194 -0.039728433 0.013373131
0001a0 e3 af c5 bd 26 39 cd 3c 42 dc 89 bd 15 a8 1c bd
       -0.09652688 0.025051665 -0.06731464 -0.038246233
0001b0 aa a6 f0 bc b9 1c ab 3d 2d b2 64 3c cf 8c 43 3d
       -0.029376347 0.08355088 0.013958496 0.047741707
0001c0 bc b8 74 bb dc 16 7b 3d 0b cd 74 bd 5f 7d 16 be
       -0.0037341556 0.061301097 -0.059765857 -0.14696263
0001d0 fc 3c fc bc c9 91 22 be d4 bf 81 3d d8 06 23 be
       -0.030790798 -0.15875925 0.063354164 -0.1592058
0001e0 68 64 90 bd 7e 56 c1 3c 9d b9 06 3d 5a be 7b 3a
       -0.07050401 0.023600813 0.03289186 0.0009603255
0001f0 24 4e 17 3e 94 d5 29 bd de 5a c9 3d 52 26 a3 3c
       0.14775902 -0.04146345 0.09831785 0.019915733
000200 b6 7f 18 3d ee 99 0c 3d ba e4 a1 3d ea 3f d4 3d
       0.03723117 0.034326486 0.07904954 0.10363753
000210 ea 5b 40 3d ca 84 de 3d cc 4f bf 3d 15 2a 8e 3d
       0.046962656 0.10865171 0.09341392 0.0694162
000220 c1 e5 09 3e de 8d 03 3e 38 dc 05 3e 7b 3a f8 3c
       0.1346655 0.12847087 0.13072288 0.030301323
000230 67 49 0f 3d 6c 51 de bc 3c 06 26 bd 67 99 2f bc
       0.03498211 -0.027138434 -0.04053329 -0.010717726
000240 a0 05 9d bc c8 28 4b bd e9 ed bd bc f4 d5 19 3e
       -0.019167721 -0.04959944 -0.023184733 0.15023023
000250 ab 38 2e 3e bf a4 8a 3d 1d 4a 00 3d 2e 93 d4 bc
       0.17013805 0.06769704 0.03132068 -0.025949087
000260 6d 93 0d 3e 31 2a e3 bb 67 a0 dc 3d 5a 73 f5 3d
       0.1382577 -0.00693252 0.10772782 0.11984892
000270 4a e4 2f bd 4c ab 2a bd dc 5e b0 39 5b ec ac bc
       -0.042942323 -0.041667268 0.00033640012 -0.021108797
000280 51 07 be 3d d8 73 61 bd ba 05 c1 bd f4 21 5f 3b
       0.09278739 -0.055042118 -0.094249204 0.0034047337
000290 2a 9d aa 3c 55 a9 11 3e 89 69 89 bd c6 61 f2 3d
       0.020826895 0.14224751 -0.06709582 0.11835055
0002a0 59 10 ca bd 99 f6 9d 3d 4b e0 a3 3d 1e d4 bf bc
       -0.09866399 0.077130504 0.08001765 -0.023416575
0002b0 ae 89 27 bd 5f 18 18 be fa a8 b9 3c f9 a3 d1 3d
       -0.040902786 -0.14853047 0.022663582 0.102363534
0002c0 1d 6f 9a bd 58 1e 6f bd 52 90 19 3d 65 a0 55 3c
       -0.075407244 -0.058378547 0.03749115 0.013038729
0002d0 01 40 c2 3d bb ba 1f be 85 68 c1 3d 6e 42 0f 3b
       0.09484864 -0.15598576 0.09443764 0.0021859664
0002e0 72 09 c2 bb 82 7b bf bc 9c b8 53 3e 13 3c 83 3c
       -0.005921536 -0.023374323 0.20675892 0.016019857
0002f0 fc 78 71 3c 8d 96 f9 bd 99 ff d4 bd 94 2b 81 3d
       0.014738318 -0.121869184 -0.10400314 0.0630714
000300 c9 36 8c 3c 12 86 83 bd 36 7c aa bd 26 8c bc 3d
       0.017115967 -0.06422056 -0.083244726 0.09206419
000310 15 6f 04 3e 8e ef b6 3d 1e 5f c2 bd 34 a9 58 bd
       0.12933 0.0893241 -0.094907984 -0.05289574
000320 bf 60 80 3d d3 8e a1 bd 83 c4 7e 3c a1 c0 73 bd
       0.06268453 -0.0788857 0.015549782 -0.059509877
000330 71 d6 c4 3d 74 f1 11 3d 2f 8a 73 3a 2c bc 0e be
       0.09611214 0.03563066 0.00092903053 -0.1393897
000340 09 b7 35 bc ca d9 c9 bc f1 f5 c8 bc f2 7d 8d 3b
       -0.011091002 -0.024639983 -0.024531337 0.0043179924
000350 44 06 79 bd 9e 00 3c 3c b7 2e 50 bd 99 a2 43 bd
       -0.06079699 0.0114747565 -0.0508258 -0.047762487
000360 7f 57 e4 bd a1 92 18 3c 41 ed 27 be 9e a4 bd 3d
       -0.11149501 0.009312303 -0.16399099 0.09259914
000370 a7 75 96 3d 42 db 12 bc 73 29 78 bd 44 da 99 3d
       0.07346659 -0.008963408 -0.060586404 0.07512334
000380 33 9b b2 3d 4b a6 47 3d 9f 1a 3b bd f9 2e 6e bd
       0.08721008 0.048742574 -0.045679685 -0.058150265
000390 bb ac 60 bc 15 11 77 bc ed 54 02 3e a9 cb 03 3c
       -0.013713057 -0.015079756 0.12727709 0.008044162
0003a0 09 fe 18 3d d8 bb a5 3d d1 f7 ef 3d f0 b0 89 bd
       0.03735164 0.08092469 0.11717189 -0.06723201
0003b0 1b 28 dc 3d 84 92 d1 3d 83 83 bc 3d 83 27 34 bd
       0.10749837 0.10233024 0.09204771 -0.043982994
0003c0 c0 5d bb 3d db 12 c4 3d b2 a5 46 bd 85 b3 04 3e
       0.09148741 0.09573909 -0.048497863 0.12959106
0003d0 8e 6c b1 3d d0 40 26 3c c1 2a b4 bd 0f 4f 49 bd
       0.08663283 0.010147288 -0.08797217 -0.04914766
0003e0 92 ff b2 3c a0 ce 59 3d 51 a3 00 be 4c ef b6 3a
       0.021850381 0.05317557 -0.125623 0.0013956814
0003f0 66 b4 0c 3e e5 74 04 3c 03 56 94 3d 06 57 fe bd
       0.13740692 0.00808451 0.07242968 -0.12418942

network.4.bias f4 [32]
000000 11 d1 93 3d 29 a0 f2 bd 4b f9 09 3e e1 de 7c bd
       0.072176106 -0.118469544 0.13474004 -0.06173599
000010 f8 15 49 3d d1 5f 8d bd 7b 20 95 bd 63 c1 93 bd
       0.049093217 -0.06903041 -0.07281586 -0.0721462
000020 ef c2 94 3d 07 e2 00 3e 5b da cc 3d 78 15 1d 3e
       0.07263743 0.12586223 0.100025855 0.15340221
000030 83 f1 a5 bd 35 97 34 bd a1 a1 9d 3c f7 fc 94 bd
       -0.08102705 -0.044089515 0.01924211 -0.07274812
000040 c0 af 16 3e 9c 6e 9b 3d a5 74 95 bd 7f 16 42 bd
       0.14715481 0.075894564 -0.07297639 -0.047384735
000050 e9 e3 b1 3d 9e 6b 9b 3b 28 24 c0 bc 9f 2f 17 3d
       0.086860485 0.0047430536 -0.02345474 0.03691065
000060 10 24 c0 bd 7f 0b be 3d 8d ec 6b bc eb 29 15 3e
       -0.093818784 0.092795365 -0.01439966 0.14566772
000070 96 8c 05 3e 1a 15 53 bc 82 c2 4a 3d d4 a8 c9 3d
       0.1304191 -0.012883449 0.049501903 0.098466545

network.6.weight f4 [3, 32]
000000 98 a6 c8 3d 33 cb a7 bd cd 72 a5 bd 58 96 41 be
       0.097974 -0.08193054 -0.08078537 -0.18905008
000010 79 c0 ea 3d 3a 22 71 3e 42 eb d1 3d 5c 33 57 3e
       0.114624925 0.23548213 0.1024995 0.21015686
000020 58 6a 84 3e e5 4d 60 3e 94 12 59 3c 24 94 1a bd
       0.25862384 0.21904714 0.013249058 -0.037738934
000030 0f 0b f5 bd 96 76 8d be f9 06 6a bd 39 c1 db bc
       -0.11965 -0.27629536 -0.057135556 -0.026825534
000040 de 53 6c 3d ea 0f bf bd 46 4c 8b bd 27 a2 aa 3d
       0.05769717 -0.09329207 -0.068016574 0.08331709
000050 6b 14 2b be 6e 83 9f bd 6a d3 36 3e d1 36 fc 3d
       -0.16707008 -0.0778874 0.17854086 0.12315143
000060 00 22 0c bb 3c 64 eb 3d 48 90 7f 3e 4c 57 58 3e
       -0.002138257 0.114937276 0.24957383 0.21127051
000070 d2 ad 2f 3e 09 83 f7 bc 41 27 8e 3d ef fc 22 3e
       0.17156151 -0.03021385 0.06941081 0.15916799
000080 f9 d6 f4 bc b6 08 09 be f3 e5 1a be 13 27 f1 3d
       -0.029887663 -0.13382229 -0.15126781 0.11775031
000090 eb a8 2d be 55 d3 c8 3c d6 3a 35 3d db 2d f7 3c
       -0.16958968 0.024514833 0.044245563 0.030173233
0000a0 9b 30 6b 3d 7c 33 9c be 65 27 e8 bd 6e 61 85 3e
       0.0574194 -0.3050803 -0.11335639 0.26050895
0000b0 2e 72 6e 3e a4 f2 90 3d 85 86 3a be 7a 5b 0d be
       0.23285744 0.0707753 -0.18215378 -0.13804427
0000c0 c4 39 23 3e 83 90 6b 3e 88 45 12 3e 82 d6 61 be
       0.15940005 0.23004346 0.14284337 -0.22054484
0000d0 17 5a 09 3e 66 18 04 be 12 4e 2a be 03 17 32 3d
       0.13413273 -0.12899932 -0.16631344 0.043478977
0000e0 d0 e6 33 3c 4a 38 9f 3d ff 3f 84 be b5 75 8b bd
       0.010980323 0.07774408 -0.25830075 -0.0680956
0000f0 d6 f9 56 3e 6d 01 4f bd e6 73 d7 3d 45 54 44 3e
       0.20993742 -0.05053847 0.10520153 0.19172771
000100 df 4c 71 be f7 22 86 3d d9 bf 38 3e 63 c3 17 3c
       -0.2356448 0.06549638 0.18041934 0.009262892
000110 79 40 b8 3d 8a 1a fd bd f1 23 f4 39 2e bd a1 be
       0.08996672 -0.123585775 0.00046566085 -0.31589645
000120 2e 12 18 be c7 29 cb 3d 6c 0e 54 be 6d 37 09 3e
       -0.14850685 0.09920078 -0.20708627 0.1340005
000130 21 1a 1f 3e 09 f2 88 3e 2e a8 00 3e 18 bb 8c 3d
       0.15537311 0.26747158 0.12564155 0.06871623
000140 ad 5b 25 be 04 05 92 3d 26 ff 7f 3d 16 4e b5 bc
       -0.16148253 0.07129863 0.062499188 -0.02213196
000150 9a e4 ad bd 86 e0 2a 3e ac 73 1b be 08 8d 37 be
       -0.08490868 0.16687211 -0.15180844 -0.17924893
000160 aa 75 a5 3d c8 84 3b be 8b 21 a5 bc cc 50 3c be
       0.08079083 -0.18312371 -0.020157596 -0.18390197
000170 de 55 07 be 7e c3 e5 3d 9a 72 31 be 90 82 95 be
       -0.1321635 0.11218928 -0.17328873 -0.29201174

network.6.bias f4 [3]
000000 04 b2 2b 3e f4 0a cb bd 66 64 29 3c
       0.16767126 -0.099141985 0.010338878

network.0.weight f4 [128, 30]
000000 9d 64 c2 bd 72 eb c5 bd 40 d2 b7 bc e5 69 ff bc
       -0.09491847 -0.09664048 -0.022439122 -0.031178424
000010 a0 74 64 3c 84 92 7b bd d5 05 f2 3d 24 10 ab bd
       0.013943821 -0.061419025 0.118175186 -0.08352688
000020 28 03 55 3d fe ef 45 bc c0 bd 8e 3d 60 7d 65 bd
       0.052004963 -0.012081144 0.06969786 -0.05602777
000030 c3 f3 3e be c8 e1 ec bb 46 50 c6 3d 2a fe e4 bd
       -0.18647675 -0.0072290637 0.0968328 -0.111812904
000040 1b 04 4a bd 21 a9 58 be b7 96 89 3e ed 42 e0 be
       -0.04932032 -0.21158268 0.268728 -0.4380106
000050 42 8e 81 3e 83 f1 f2 3e ca 22 0b be 46 9b 78 be
       0.25303847 0.47449884 -0.1358749 -0.24277982
000060 d2 5f 20 3e 00 30 52 bc 5f 48 f8 bd cc 04 00 bd
       0.15661553 -0.012828827 -0.12123179 -0.031254575
000070 0f e2 1e be 84 ef 0f bd e5 e9 7f 3b fb c9 ec bb
       -0.15515922 -0.03514053 0.0039049324 -0.0072262264
000080 85 74 df 3d 54 cf bd 3c d3 6d d2 3c 6e 0b 36 bd
       0.10910896 0.02317015 0.025687134 -0.044444494
000090 96 aa 3e 3e 6d d4 1a 3e 4c a8 0a be 2f 02 81 bd
       0.18619761 0.15120097 -0.13540763 -0.062992446
0000a0 24 7c 3a 3e 5c 7b 03 3e 9d a2 96 bd 22 64 bd 3e
       0.18211418 0.12840027 -0.07355235 0.36990458
0000b0 15 9a 87 be eb 58 cf 3e e3 49 a9 3e e9 e0 10 be
       -0.26484743 0.40497527 0.33064184 -0.14148296
0000c0 b3 6d 1a be 06 1c d7 be 25 ae 01 bd db 13 53 3d
       -0.1508091 -0.42013568 -0.031660218 0.051532608
0000d0 c9 c3 83 bd 11 01 c1 bd 4a f7 c0 bd 3a 4f f7 bd
       -0.064338274 -0.094240315 -0.09422167 -0.12075658
0000e0 47 c4 c9 bd 00 fa 9d 3b bc 44 96 3d e0 7f b7 bc
       -0.0985189 0.004821062 0.07337329 -0.022399843
0000f0 93 10 f4 3d 9e 8a d7 bd 64 97 e3 3c b3 b9 9e 3d
       0.11917224 -0.10524486 0.02778215 0.07750263
000100 5f 0e fc bc 61 de 2a 3e d3 ec 42 3e 50 b1 63 be
       -0.030768571 0.16686393 0.19035654 -0.22235608
000110 eb 3d 24 3e e8 eb 1f bd ed a7 82 3e 79 b1 28 be
       0.16039245 -0.039043337 0.25518742 -0.1647395
000120 3f 08 43 bd 14 e4 96 3d a2 5c 11 3e 20 a4 7a be
       -0.047615286 0.07367721 0.14195493 -0.24476671
000130 b7 fa ca bd c9 98 da bd 17 fd fc 3d 6f 8f 69 be
       -0.09911101 -0.10673673 0.123529606 -0.22808622
000140 e7 9e 09 3b a1 a1 64 bd b5 fd 76 3e a5 67 eb be
       0.0020999254 -0.055818204 0.24120219 -0.45977512
000150 a0 ec 07 be d8 a5 01 3e 63 dc d6 bd ec c9 3c 3d
       -0.13273859 0.1266092 -0.10491254 0.046091005
000160 10 e5 07 3e ee a0 2e 3e 77 ff a2 3b c5 d9 85 3e
       0.13270974 0.17053577 0.0049743014 0.26142707
000170 b6 1a 67 3d 92 e2 89 bd 85 1e 34 3e 5d 1f 85 3e
       0.056421958 -0.06732668 0.17589767 0.2600049
000180 bf 59 0d bc 14 b6 92 3d 3d ef 96 39 4b 1d 8a bb
       -0.008627354 0.07163635 0.00028788476 -0.004214918
000190 47 d1 1b 3e bb 6a ed bd e2 77 84 3e a4 33 01 bc
       0.15216552 -0.11592623 0.25872713 -0.007885847
0001a0 c0 d0 df bb cb 89 c9 bd d1 c5 d0 3d 1b 65 15 3e
       -0.006830305 -0.09840735 0.101939805 0.1458935
0001b0 34 38 8b bd b3 0b 82 3e cf c5 3c 3d 8b f8 fc 3d
       -0.06797829 0.2539955 0.046087082 0.12352093
0001c0 9d 43 ca 3d 29 42 23 3e 90 03 2c 3d 80 1c e1 3b
       0.098761775 0.15943207 0.041995585 0.0068698525
0001d0 00 cf 56 bb 72 d3 10 3e b9 30 a5 bd dc 2b e5 3d
       -0.003277719 0.1414316 -0.08065934 0.11190006
0001e0 33 ea 0f 3d f3 5e 2e 3d 7f 2d b6 3c 68 16 00 bd
       0.03513546 0.04257102 0.022238491 -0.03127137
0001f0 f2 5d f8 bc 8d 72 c5 3d 1a 15 6d 3e 13 2f d4 bd
       -0.030318234 0.096409895 0.23152581 -0.10360541
000200 30 e3 0e 3e 7b 5f d3 bc ff 7f b5 3d 15 3e e3 bd
       0.13953853 -0.025802365 0.08862304 -0.110958256
000210 9d 58 f7 bb e1 fa d6 3d 5c 33 59 3e 17 28 f9 bd
       -0.0075484053 0.1049707 0.21210998 -0.1216585
000220 52 93 7d bc ef b2 02 3d 8b dd 21 3d 06 ce 98 bd
       -0.015477018 0.031908926 0.03951792 -0.07461171
000230 d5 4f b3 3d ee 27 08 be 2c 09 ab 3c bd 66 5f be
       0.08755461 -0.13296482 0.020878397 -0.21816535
000240 f7 53 21 be 1c b0 bb 3d 92 81 3a 3e 82 46 89 bd
       -0.15754686 0.091644496 0.1821349 -0.067029014
000250 7e 30 10 3e d8 cc de 3c d3 59 3d 3b 76 43 19 3e
       0.14080998 0.027197286 0.002889265 0.1496714
000260 dc b0 e2 3d 22 9d 0d be 40 76 13 3e 59 26 4b be
       0.110688895 -0.13829473 0.14400578 -0.19838847
000270 3e 70 82 be 85 0e bc bd 63 3d 3b be 97 a7 4d bc
       -0.2547626 -0.09182457 -0.18285136 -0.012552164
000280 58 37 c5 bc 1a 66 9c bd f9 68 0a 3e 48 de e3 bd
       -0.024074242 -0.07636662 0.13516606 -0.11126381
000290 fe e6 2d be 53 04 40 3e 63 a8 70 3e d6 5d d6 3d
       -0.16982648 0.1875165 0.23501734 0.104671165
0002a0 1b d1 f3 bb 55 c4 9e bd b4 d8 b0 3d de c0 7d 3e
       -0.007440699 -0.07752291 0.08635083 0.24780604
0002b0 1c 9b 40 3e b7 64 a9 bd 1c 8e 11 3d f4 bd d6 3d
       0.1880917 -0.08271163 0.035535917 0.104854494
0002c0 80 22 02 3e ac ef 01 3d 92 e1 11 be 06 f1 29 3e
       0.12708473 0.03172271 -0.14246204 0.1659585
0002d0 54 12 56 bd 1a 07 19 be a4 44 1c be d7 87 bd bd
       -0.052263573 -0.14944115 -0.1526056 -0.09254425
0002e0 54 23 a7 3d 86 80 23 3e 0c 31 0e be 71 2f 5f 3d
       0.08161035 0.15966997 -0.13885897 0.054488603
0002f0 0d 96 b0 bc e9 04 95 bc 4f e8 e6 bd 16 95 c9 3d
       -0.021555925 -0.018190818 -0.11274778 0.09842889
000300 ab 9c cc 3d ae c4 4d bc 8c 75 01 be 36 ae ac 3c
       0.099908195 -0.012559099 -0.12642497 0.021079164
000310 c0 e4 32 be 45 8d b7 3c 0c 98 0e 3d 34 2c 08 3f
       -0.17470074 0.02240623 0.034812972 0.5319245
000320 25 60 42 bd 62 31 98 3e b3 bb 31 3d ff b7 77 3d
       -0.04745497 0.29725176 0.043391895 0.060478207
000330 e3 17 95 bd 8b ad eb bd 4c 26 03 3e 64 1a a3 3d
       -0.07279947 -0.1150771 0.12807578 0.07964018
000340 b0 3d 29 3e 32 b5 0d 3e fb 1e ec bd 21 51 00 be
       0.16527438 0.13838652 -0.115293466 -0.12530948
000350 db 45 b3 bd 9a cc 3f bb 96 29 19 3c 77 7b e6 3c
       -0.08753558 -0.002926624 0.009348294 0.028135045
000360 b5 02 da 3d 4b f6 4b 3e f0 58 15 bc 95 50 79 be
       0.106450476 0.19918172 -0.009115443 -0.24347146
000370 de 86 29 be d0 bf bc bc 3f e7 62 ba fb 1c 20 3e
       -0.16555354 -0.023040682 -0.0008655674 0.15636055
000380 0f 0e 5b 3e ca e1 0b 3e 0b 4e 6a 3e b0 05 f0 bc
       0.21392082 0.1366035 0.22881334 -0.029299587
000390 cd f4 1c 3d 95 a6 78 be fb 34 0f bc 95 ab 26 3e
       0.038319398 -0.24282296 -0.008740659 0.16276391
0003a0 e2 b1 15 bd 91 98 89 3d f4 45 d0 3d 68 a2 6a bd
       -0.036546595 0.06718553 0.101695925 -0.05728379
0003b0 74 a6 ae 3d 6a b5 19 be b0 98 15 bc e0 61 b0 3b
       0.08527842 -0.1501061 -0.009130642 0.0053827614
0003c0 dc 2e c2 3c d3 4d bc 3d 11 fa 54 be 37 68 4b bd
       0.023703985 0.09194531 -0.20798518 -0.049659934
0003d0 87 7e 00 be ae fe 03 bd 7a 32 97 be 24 06 90 3c
       -0.12548266 -0.032225303 -0.29530698 0.017581053
0003e0 33 28 20 bd 0f 46 60 3d 7f 56 58 be af 75 fc 3d
       -0.039100837 0.054754313 -0.21126746 0.12327134
0003f0 9d 2d 00 3d 44 79 8a 3c 2a bf 56 be fb a9 fa 3d
       0.0312935 0.016903527 -0.20971361 0.122394525

network.0.bias f4 [128]
000000 f8 a8 61 3e 92 01 28 be 3a b9 3e be 0c f1 45 be
       0.22037113 -0.16406849 -0.18625346 -0.19330233
000010 c4 b6 85 bc 51 8f 4e 3e cc a9 06 3e c4 3d d8 bd
       -0.016322501 0.20171858 0.1315071 -0.10558656
000020 9f 7d 3f 3d 7f 7c 48 3e c1 d4 3a 3b 6a 71 d0 bd
       0.04675066 0.19578741 0.002850816 -0.10177882
000030 d5 8f 3f 3e 1b 25 2c 3e 6e ff 42 3d 90 29 12 3e
       0.18707211 0.1681103 0.047606878 0.14273667
000040 ec 81 5f bc 2f 8e 80 3e 6a a4 80 3e cb 8e f6 3d
       -0.013641816 0.25108477 0.25125438 0.12038954
000050 7b 32 d6 3d a0 a3 26 3d 45 aa f0 bd a0 59 ae bd
       0.10458847 0.04068339 -0.11751226 -0.08513188
000060 ca 10 da bd 2b 07 82 be 08 db 3f 3d a4 9b 86 3d
       -0.106477335 -0.25396094 0.046839744 0.06572655
000070 b4 cb 5f 3e 00 56 1d 3c ec 9d 94 bd fb ec a6 3c
       0.2185505 0.0096030235 -0.07256684 0.020376673
000080 e1 03 b8 bd d9 4b 4f 3e 92 b2 7b 3e eb 6c fa bb
       -0.08985115 0.20243777 0.24579838 -0.0076423786
000090 ec 36 a2 3c 72 80 7e 3e c5 1c 45 3e e4 72 ee ba
       0.01980158 0.24853685 0.19249256 -0.0018192199
0000a0 b4 af 49 3e d0 84 8a bd d7 64 9b bd 9b 6e 3b 3e
       0.19695932 -0.06763613 -0.07587593 0.18303911
0000b0 95 c9 1a 3d 05 b5 58 be bb a8 25 bd fe 34 9d bd
       0.0377899 -0.21162803 -0.040444117 -0.07676123
0000c0 fe a3 1f be 3f 50 06 3e 3e ac 4e 3e 53 09 b8 3e
       -0.15589902 0.13116549 0.20182893 0.35944614
0000d0 a9 f0 f3 3d 20 4c 0b 3e 1f 99 25 3e 8c 3c ec bc
       0.11911137 0.13603258 0.16171692 -0.028837465
0000e0 a7 5d f8 3d fc a1 c4 3d 67 92 09 3e ea 1f bd 3d
       0.12127238 0.096012086 0.13434754 0.09234603
0000f0 6e 01 ee 3d cb a7 87 3e 23 21 54 3d 7c b7 6d 3d
       0.116213664 0.26495203 0.051789414 0.058036312
000100 94 f5 25 bc ab fc e1 bd d0 a8 84 bd f8 e1 cb 3c
       -0.010129351 -0.11034521 -0.06477511 0.024888024
000110 ab 77 03 3e 51 38 11 3e f3 a2 87 3d f7 88 1c 3e
       0.12838618 0.14181639 0.06622877 0.15286623
000120 f5 4b c8 3c af dd 25 3d 91 74 6f 3e ac 85 2a 3e
       0.024450282 0.040494617 0.2338431 0.16652554
000130 9a 05 6b be 39 94 b0 3c f2 b5 a6 bb 3b 7a 50 be
       -0.22951356 0.021555053 -0.0050876075 -0.20359127
000140 61 17 aa 3a 9b fd 0f be 36 6e 3f 3d 6f 4e 37 3e
       0.0012976938 -0.14061587 0.046735965 0.17901014
000150 06 6a 24 bd 45 e2 1d bb 64 60 25 3d c5 63 83 3e
       -0.040140174 -0.0024091166 0.04037513 0.25662056
000160 4d ad 62 3e f5 c9 8d 3d 09 1f 17 be 83 3c a8 bd
       0.22136422 0.06923286 -0.14757933 -0.08214667
000170 ae 94 1f 3e 60 41 7a 3e aa eb 41 3e 2c 7b c8 bc
       0.1558406 0.24439001 0.18937555 -0.024472795
000180 49 3c 06 3e 24 d9 fa 3d 1d c0 2e 3d 06 19 66 3e
       0.13108934 0.122484475 0.042663682 0.22470483
000190 16 8b df bd cd fd 13 3e 40 e0 00 be 10 17 f3 bd
       -0.109152004 0.14452286 -0.12585545 -0.11869633
0001a0 a1 75 67 3e 7c 37 7a 3d 8e 4a 30 be 41 42 bb 3d
       0.22603466 0.06108807 -0.1721594 0.09143496
0001b0 5b ed 92 3d d5 61 e6 bd cc 13 be bd 4a 60 45 bd
       0.07174178 -0.11249129 -0.0928112 -0.04818753
0001c0 1e 2f 8a 3e bf 92 e5 3d 96 8b f8 3d d7 3e 6c 3e
       0.26989073 0.1120963 0.12135999 0.23070846
0001d0 40 aa fa bd f1 54 92 3e 51 69 96 be 9d 2a 3b 3e
       -0.12239504 0.2858043 -0.29377225 0.18277974
0001e0 61 ad 62 3e c5 4c 33 be fc 69 c0 3d 26 ce 51 be
       0.22136451 -0.17509754 0.09395215 -0.20488796
0001f0 2e d8 25 3d e2 27 39 3e eb 7c 04 3d 11 17 94 3d
       0.04048937 0.1808162 0.032345694 0.07230962

network.2.weight f4 [64, 128]
000000 dd ed 92 3c 90 66 1e 3c 08 4e 06 bd 72 cd 51 bc
       0.017935688 0.0096680075 -0.03278926 -0.01280533
000010 39 61 a1 bd c2 c0 a2 3c 24 e6 82 bd c0 6a 19 be
       -0.07879872 0.019867305 -0.06391552 -0.14982128
000020 01 f6 2f 3b 25 9a 55 3d f6 fe 75 3d 00 70 8d 3d
       0.002684951 0.052148957 0.060057603 0.06906128
000030 34 4d d3 bd 73 19 36 be 2b 99 e0 bc 89 5a ad bc
       -0.1031746 -0.17783146 -0.027416786 -0.021161335
000040 9a 75 8b 3a 83 f2 13 3c 7d ba 3b 3c 52 e7 03 bd
       0.0010639906 0.009029987 0.0114580365 -0.032203026
000050 ff 12 8e bd 35 c8 41 3c df 66 6d bd fe 07 cb 3b
       -0.06937217 0.011827518 -0.057959434 0.006196021
000060 ec 14 a6 bd 2a 89 c4 bd 7b b9 79 bd 7f 87 ed bc
       -0.08109459 -0.095964745 -0.060967904 -0.028995274
000070 6e 4a e3 bc 56 7e 4a 3d 19 69 6d 3d 20 2d a2 bd
       -0.027745452 0.04943689 0.057961557 -0.07918763
000080 5a 41 21 3c 07 45 36 3b bc f3 68 3d e2 3e 02 be
       0.009842241 0.002781214 0.05687307 -0.127193
000090 98 4d e5 bd 3c 33 e9 3c 69 4b 11 be 2c bd 67 bd
       -0.111964405 0.028466813 -0.14188923 -0.056576893
0000a0 06 57 24 3d c4 c2 23 be 10 f2 68 3d 95 71 b7 3b
       0.040122055 -0.15992266 0.056871474 0.005598257
0000b0 af bf ff 3c c4 e0 bc bc 1e 83 e2 3c cd 60 f0 bd
       0.031219332 -0.023056395 0.027650412 -0.11737213
0000c0 a6 3c a0 bd 94 1f 3c 3d 68 ac 1b bc c2 fe 85 bd
       -0.07824068 0.045928553 -0.009501554 -0.06542732
0000d0 ed b8 fc 3b 3e 12 e0 3c cf a6 82 bd ef 7f 5f be
       0.0077124746 0.027352449 -0.063794725 -0.21826147
0000e0 26 7d 33 be 59 5f a7 bd 7b f2 9b 3d fa 69 c4 bd
       -0.17528209 -0.08172483 0.07614609 -0.09590526
0000f0 d6 a2 15 3d 20 0f d8 bd 75 d8 6a be b6 04 e3 bb
       0.036532246 -0.1054976 -0.22934134 -0.006928052
000100 12 8b 65 bc b0 5c 81 bd d0 fd da bd 06 80 09 bd
       -0.014010208 -0.06316507 -0.10692942 -0.03356936
000110 c9 26 6e 3d 1e a7 a1 bc 79 75 b0 bd c0 6e 83 3d
       0.058142457 -0.019733008 -0.08616156 0.06417608
000120 2a 3c 7f be 7c 20 98 3a 40 a9 07 bd ec 1a 84 3c
       -0.24925295 0.0011606361 -0.033120394 0.016126119
000130 3d bb 16 be 09 3b 04 be 6b e6 c7 bc f5 e3 32 bd
       -0.14719863 -0.12913145 -0.024401864 -0.043674428
000140 91 1e 63 bd 31 25 f1 3c 42 c3 a7 bd 39 11 52 bc
       -0.055449072 0.02943668 -0.08191539 -0.012821489
000150 aa 09 cf 3d 88 3f 2a be 3c f6 a4 bd d9 26 f0 bc
       0.10109265 -0.16625798 -0.08054778 -0.029315399
000160 48 8e df bd a0 df e2 3d d9 9c 8a 3d 50 c3 d6 3b
       -0.1091581 0.11077809 0.067681976 0.006554045
000170 c3 40 6a 3b af e5 b5 3a 1f 72 af 3c ad 5c 75 3d
       0.0035744167 0.0013877655 0.021416722 0.059902836
000180 3b 7c 36 be 05 55 1a 3d 10 5e 46 bd c0 e7 eb 3b
       -0.17820828 0.037678737 -0.04842955 0.0071992576
000190 e0 06 2f be 86 f9 09 3d da da 89 3c cb 3b e1 bd
       -0.17092466 0.03368523 0.01682799 -0.10997733
0001a0 55 87 6c bd 2d 3c 3e bd 56 6c de 3c cc 1b 8a bd
       -0.05774625 -0.046444107 0.027151268 -0.06743583
0001b0 b5 b5 4b be b1 c4 e8 3b cc 6c bf bd ec f4 9b ba
       -0.19893534 0.0071035256 -0.09346923 -0.0011898554
0001c0 f7 be 05 be 62 1a 9c 3d b8 d5 47 bb ab 9d 7c 3d
       -0.13061129 0.076222196 -0.0030492377 0.0616738
0001d0 7f 24 20 3d 39 66 72 bd a2 d3 98 3b b8 be b5 bc
       0.039097305 -0.05917952 0.0046639005 -0.022185668
0001e0 ce 69 41 bd d3 88 2a bd 89 ec 1c 3d 02 50 5b bd
       -0.047220044 -0.041634392 0.038311515 -0.0535431
0001f0 3d 25 87 3d aa ee 48 3c b3 0f 4e bd 71 b5 8e bd
       0.065988995 0.012263933 -0.05030794 -0.06968201
000200 27 bb eb 3d 69 d8 80 3d ec 5f 22 be fd ff 9f bd
       0.11510306 0.06291277 -0.15856904 -0.07812498
000210 d4 b4 77 be b2 55 3d 3e 84 d6 1d be 50 22 a2 3e
       -0.24190074 0.18489721 -0.15413862 0.31666803
000220 2e 76 6c bc f9 04 ee 3d 3f f9 6d 3c 5a 32 a1 3b
       -0.014432473 0.11622042 0.014524757 0.0049193325
000230 71 86 95 3c 16 77 e5 bd 9c 52 4f 3d c7 cf b0 3c
       0.018252583 -0.112043545 0.05061589 0.021583451
000240 4d b0 23 3e 59 e5 23 be 6c d0 3a 3e 45 9d cc 3d
       0.15985222 -0.16005458 0.18243569 0.09990934
000250 f9 9a ae be 63 44 45 3e 04 6d e5 3b e3 f1 79 3e
       -0.3410261 0.19264369 0.007001521 0.24408679
000260 b8 e3 b9 bd 01 29 8e bd 45 eb 6c bd 0a e8 52 be
       -0.09076637 -0.069414146 -0.057841558 -0.20596328
000270 e1 2d 65 3e f3 01 af 3d be 01 ba bd b1 5a a4 3c
       0.22380783 0.08545294 -0.090823635 0.020062776
000280 0b bd 36 3d 77 cc 0b be aa 3c 88 3c c0 d9 03 bd
       0.04461388 -0.13652216 0.01663049 -0.032190084
000290 ec 41 da bd de 9e 00 bc 0f 7f 43 3c c0 37 33 bc
       -0.10657105 -0.007850377 0.011932149 -0.010938585
0002a0 9e b9 a6 3d 7c a6 2f be 85 7a 18 3e 99 a1 67 3d
       0.081408724 -0.17153352 0.14890487 0.056550596
0002b0 5d 95 78 3c 3e c9 55 bd 35 4a 7a 3d 0c 0d dc bc
       0.01517233 -0.052193873 0.061105926 -0.02686169
0002c0 f1 ae c1 3d 04 9f a5 bc a5 ed f3 bb e4 8b 4f 3b
       0.094571956 -0.020217426 -0.007444101 0.0031669075
0002d0 ca 20 a7 3d 12 f5 dd 3d ef 98 a8 3c 70 ba 4e bc
       0.08160551 0.10837759 0.020580737 -0.012617692
0002e0 35 b5 23 be 30 c4 12 be de 88 0c 3e d0 81 01 3d
       -0.15987094 -0.14332652 0.13724086 0.03161794
0002f0 df d6 61 3d 5b 9d 06 be 4d ba a5 3d fe 7e 1a bd
       0.055136558 -0.13145964 0.08092175 -0.037718765
000300 72 99 f5 3d 3a 07 3c 3d f5 b5 4d 3d 80 5e 96 bd
       0.11992158 0.04590533 0.050222356 -0.07342243
000310 d2 ea cf 3d b7 d7 c1 3d 81 8d c2 bd 66 a1 4f be
       0.1015221 0.094649725 -0.09499646 -0.20276412
000320 c4 b0 11 3e e3 70 ef 3d 9e 3f 5d bd 6f 96 03 3e
       0.14227587 0.11691453 -0.05401575 0.12850355
000330 2d 4d 42 3e c4 96 62 be af 17 7f ba 0c 30 49 be
       0.18974753 -0.22127825 -0.0009731007 -0.19647235
000340 2a ab 03 be 66 e5 ff bd 5c 6a 27 bd 59 dc 85 3d
       -0.12858263 -0.12494926 -0.040872917 0.065361686
000350 89 74 12 3e b0 ad 10 3c 95 31 b3 3d ef 44 c8 3d
       0.14302267 0.008830473 0.087496914 0.09778773
000360 0e a7 a5 3e 74 db b3 3d 58 90 32 bd 9b 5d 36 be
       0.32354015 0.08782092 -0.04359469 -0.17809145
000370 9b 32 89 bd 31 24 a2 bc 41 e6 3a 3d 5b e9 23 be
       -0.06699105 -0.019792648 0.045629743 -0.16006987
000380 1b 0d 29 be 5a db 42 be b3 9b 88 3c 01 75 d4 bd
       -0.16508906 -0.19028988 0.016675806 -0.10373879
000390 e9 20 5a 3d e8 14 ec 3d 2d 70 03 be b5 51 6f bd
       0.05325404 0.11527425 -0.1283576 -0.05842753
0003a0 37 83 98 3d 27 35 8a 3d 6e 52 19 bc 0a 71 de 3d
       0.07446902 0.06748419 -0.009358032 0.10861404
0003b0 c4 52 53 be a2 4f bd 3c c6 06 fc bc d5 14 51 3e
       -0.20637041 0.023109261 -0.030764949 0.20418103
0003c0 1f 70 32 be e6 19 1c 3e 9d 01 36 3e 44 26 c6 3c
       -0.17425583 0.15244254 0.17774053 0.024188168
0003d0 7f e6 35 be f7 e4 08 3d 36 1d 46 3e 34 7d c9 3d
       -0.17763709 0.033421483 0.1934708 0.09838334
0003e0 13 06 0b be f8 0d a7 3d 87 0e 11 3e d5 c5 7d bd
       -0.13576536 0.08156961 0.14165698 -0.061956245
0003f0 88 a7 1c bd b0 61 f1 3d 71 59 b0 bc e3 42 43 3d
       -0.038245708 0.117862105 -0.021527024 0.04767121

network.2.bias f4 [64]
000000 4f 42 5f 3d b6 f8 04 bd 6a 24 7f bd 11 bc 09 3e
       0.054506596 -0.03246375 -0.062290587 0.13450648
000010 0f b9 9a 3c 31 18 2c 3e 51 c1 29 3e 4e 33 81 bd
       0.018887071 0.16806103 0.1657765 -0.06308614
000020 ec 42 d0 bd 42 5a 8c 3d 08 74 f4 3d 26 23 b1 3c
       -0.10169014 0.06853153 0.11936194 0.021623205
000030 f3 60 26 be 6a d7 93 bd c9 01 9a 3d 91 17 71 3d
       -0.1624792 -0.07218821 0.07519872 0.058860365
000040 77 c8 e3 3c 9a f7 1a be b0 94 e5 3c ad 3e 0e 3e
       0.02780555 -0.15133515 0.028025001 0.13891096
000050 34 7d 0d 3d e8 64 44 ba 04 b7 8c 3d 11 9f 0f 3e
       0.03454323 -0.0007491843 0.06870845 0.14025523
000060 ac 6e 80 bd d5 54 4b 3d ac 15 4c bd fd 45 2e 3d
       -0.06271109 0.04964145 -0.049825355 0.042547215
000070 c4 cf aa bd 92 11 82 bb 75 f1 8b bc 79 eb 0c bd
       -0.083404094 -0.0039693797 -0.01708291 -0.03440425
000080 8f 1a 49 bd a9 73 ca bc 51 e4 dc bc 74 19 45 3e
       -0.049097594 -0.024713354 -0.026964338 0.19247991
000090 2b 38 ea 3d 5d 46 7b 3d 33 c9 c3 3c 44 bb e7 3d
       0.114364944 0.0613464 0.02389965 0.11315015
0000a0 93 c1 35 be 80 b6 05 3d 7d 13 bf 3d c6 09 aa 3b
       -0.17749624 0.03264475 0.09329889 0.0051891534
0000b0 87 2d d6 bb af 32 9f bd 98 53 de bd 14 45 01 3e
       -0.006536189 -0.07773339 -0.10855788 0.12624007
0000c0 b4 b5 83 bc 93 20 cb bc 54 d5 5b 3e 43 34 78 bd
       -0.016077854 -0.024795806 0.21468097 -0.060596716
0000d0 f4 0d ad 3d 8c ef 97 3c 81 04 c5 3d 85 18 e9 3d
       0.08449927 0.018546842 0.0962 0.1138163
0000e0 64 48 82 bd 5f 3a c7 3d 35 48 46 3c 5e c2 86 3d
       -0.06361464 0.0972793 0.012102176 0.06580041
0000f0 7e cc 94 bd 12 a6 6a 3d 0e cd bb bd cb d0 1c bd
       -0.07265566 0.057287283 -0.091699705 -0.038285058
