models/ppo_agent_ep70.pt (torch, 364210 bytes, 45 tensors)

network.0.weight f4 [128, 30]
00000000: 707e bfbd 357e 233e dafe 063e 69ab c0bd
00000010: 7b2c 96be 5724 9abd 30e6 c8bc 2e75 0abe
00000020: 3852 e03c 97bd c03d c41e a4bd 7484 3ebd
00000030: 5f54 153e 3300 5e3e 8aae 273e 58ce d3bc
00000040: 6343 7dbc 22c3 aa3c ad17 29bd a986 2bbd
00000050: da68 3cbd fb8d df3d 672f 283e 6689 9cbc
00000060: 083d e53d ff03 18be 6802 35be 4007 453d
00000070: 08f8 4cbd 49fc c9bd 3134 9b3d 17b9 c5bd
00000080: abb0 ddbd baf8 bc3d c0f2 57be 72f5 ea3d
00000090: 391a 5b3e 5be1 e43d 75c7 b2bd 3b9b f63d
000000a0: cf3e eebc 846c 1a3d 859b 803d da56 4d3e
000000b0: 4534 973d ff46 0bbe dd55 373e 9702 cebd
000000c0: 71c0 fabc 9a35 543d f271 0d3e 28d2 113e
000000d0: 4b58 eabc 1806 123e bba2 94bd 80af ab3c
000000e0: 4037 3cbc 606e ae3b 76eb b7bd 90f4 32bd
000000f0: a909 edbd 6077 60bd 1e90 183e a0fb 8ebc
00000100: ac3b 4cbd 780a b33d 6d2d 043d c1cb 243d
00000110: 4873 163e 903a fd3c c5a4 103c e941 983d
00000120: ac39 343b 11a8 33be 0444 9f3d e885 36bd
00000130: 55c5 083e 47ff d03d 1e23 12be 46b2 40be
00000140: d76d 003e 7a83 293e f27e 3abe 330d 223e
00000150: 3e4d 123e cc2d 373e 5753 92bd b83d c83d
00000160: 016a e1bd 9abe b9bd 06fc acbd 4d38 bbbd
00000170: c915 1f3d 5872 393c bb13 90be fa27 16bd
00000180: dffa 31bd f68f 42be d411 373e 88aa 27bd
00000190: 8957 dbbc 0a60 1c3d ad6f 8ebd 8d2e 4e3d
000001a0: 78bb f9bd 5cd3 373e ce20 cb3d d813 f33c
000001b0: fe91 70bd e079 4a3d bd29 bf3c c267 66bc
000001c0: 41eb 5abe 2467 413e 8693 09be 4443 323e
000001d0: 84de e13d 30db de3d e0a0 423c 3a13 a5bd
000001e0: 8258 0f3e 7c2a 54bd 8365 ca3b d88b 2c3e
000001f0: c985 bb3b c20b 24be 2309 35be 8e09 c43d
00000200: f578 4b3e b428 16bd fc0c 5c3e 25cf 323d
00000210: 6bfc 063e 9f54 d5bd 23d4 bd3d 6171 823e
00000220: a10f 8cbd 7627 41bd 1267 13be 12ac 5f3d
00000230: 4cb0 1d3e 43ee b1bd ecce 12bc b42a 9bbd
00000240: d0b7 233c 7e05 843d e972 bfbd 3061 28bd
00000250: 0420 703d 0020 5bbb 4c35 81bd 9237 f43c
00000260: bdb7 1cbe d1d7 68bd 6ea2 093e 4f7a 3ebe
00000270: edea dfbd 3c8c e93c 625b 2ebe c0d4 a03d
00000280: 8ed5 d83d b5c4 c9bd 9e1f aabd fd32 38be
00000290: 1722 6d3d 3e00 623d cce0 6d3d 2479 e7bd
000002a0: 2a79 173e 104d 39bd 7e68 aebd db54 b0bd
000002b0: ef32 f2bd 84a8 e93d 14f3 543d b4cf 173d
000002c0: 0e22 09be f8d0 d5bc 78a3 e93d 7b20 92bd
000002d0: 9314 163e afc0 0dbd 442e 393e 4626 2e3e
000002e0: 9867 42be 4a82 11be 177b 18be a5cb 403e
000002f0: f025 15bc 07bf 243c 9206 593e 298b 9cbc
00000300: cbd9 ffbd 89e3 2b3e 74df 853d 27aa 733c
00000310: bda8 c03d 918f e23b 758d 323e 5ca3 68bd
00000320: 5a27 44bb 1970 f8bd b976 b43d b3fa 843e
00000330: 88bb 543d 78fc 2a3e 5c23 383e 3bae 28be
00000340: 3a70 e5bd f0cb 35be eeff 1b3e 92dc 25be
00000350: f515 d8bd 3643 0d3e dbed 08be 1da9 69bd
00000360: 8a86 6cbd 82a8 35bc 6c30 2c3e 2a44 f83c
00000370: aa67 323e 1d30 e93b 5cd3 303e a3d6 023e
00000380: a364 973c 3001 2abe 25ad 143e 977a 093e
00000390: 6bc0 9fbd fe49 8a3b dde2 dcbd 8ee2 293e
000003a0: 163a 03be e154 943d df71 1dbe a0f0 c13d
000003b0: 00a7 63ba e464 1bbd d05b 413c 7e4a 123e
000003c0: 1a7c 4dbe de96 463c 3cfc 9c3c b82c ac3d
000003d0: 1ed7 19bd 9310 4dbd 6d38 bdbd 7def ad3c
000003e0: 9ca4 abbd 5dd1 ed3d e34b 743e 2cfb b33d
000003f0: fa12 debd ef93 10be bbf0 a83d 29d0 233d
-0.09350288 0.15966113 0.13183156 -0.09407694 -0.2933081 -0.075264625 -0.024523824 -0.13521263
0.027382955 0.094111614 -0.080136806 -0.046513036 0.14582966 0.21679763 0.16375175 -0.025855228
-0.015457961 0.020845 -0.041282345 -0.04187647 -0.04599843 0.109157525 0.16424333 -0.019108485
0.111932814 -0.14845274 -0.17676699 0.048102617 -0.05004123 -0.09862573 0.07578314 -0.09654444
-0.10824712 0.09227128 -0.21088696 0.11472596 0.21396722 0.11175796 -0.0872945 0.120413266
-0.029082684 0.037701145 0.06279663 0.20052662 0.073830165 -0.13601302 0.17903848 -0.10059088
-0.030609341 0.05180893 0.13812998 0.14240324 -0.028606554 0.14260137 -0.07257601 0.020957708
-0.011487782 0.0053232163 -0.089804575 -0.043690264 -0.11574108 -0.054801345 0.14898726 -0.017453969
-0.049861595 0.08742231 0.032269884 0.040233377 0.14692414 0.030911714 0.008828347 0.07434446
0.0027500195 -0.17544581 0.07776645 -0.044561297 0.13356526 0.1020494 -0.14271209 -0.18818006
0.125419 0.1655406 -0.18212488 0.15825348 0.14287278 0.17888564 -0.07144802 0.09777397
-0.11006547 -0.090695575 -0.08446507 -0.09141598 0.038839135 0.011318766 -0.28140053 -0.03665922
-0.04345214 -0.19000229 0.17877895 -0.040934116 -0.026775138 0.038177527 -0.06954894 0.050337363
-0.1219396 0.17951721 0.099183664 0.029672548 -0.05873298 0.049432635 0.023335332 -0.014062824
-0.21378805 0.18887001 -0.13435182 0.17408472 0.110287696 0.108816504 0.011879176 -0.08060308
0.13998607 -0.05179833 0.006176652 0.16850221 0.0057227355 -0.1602011 -0.17679267 0.09572135
0.1987036 -0.03665991 0.21489328 0.04365458 0.13182227 -0.10416531 0.092689775 0.25477126
-0.068389185 -0.047156774 -0.14394787 0.05460746 0.15399283 -0.08688023 -0.008960467 -0.07576504
0.009992555 0.0644636 -0.09348089 -0.04110831 0.058624282 -0.0033435822 -0.06308994 0.029811654
-0.15304466 -0.056846444 0.13440868 -0.18601345 -0.109334804 0.028509252 -0.17027047 0.07853079
0.10587607 -0.09851972 -0.08306812 -0.179882 0.05789384 0.055176012 0.05807571 -0.113024026
0.14792314 -0.04523951 -0.08516024 -0.08609935 -0.11826121 0.11409095 0.05198963 0.037063316
-0.13391897 -0.02610062 0.11408132 -0.071351014 0.14656286 -0.034607586 0.18084055 0.17006788
-0.1898483 -0.14209858 -0.14890705 0.18827684 -0.009103283 0.01005531 0.21193913 -0.019109325
-0.124927126 0.16786017 0.06536761 0.01487211 0.09407184 0.006914087 0.17436774 -0.056796417
-0.0029930682 -0.12130756 0.08811707 0.25972518 0.051936656 0.16697872 0.17982239 -0.16472714
-0.11203046 -0.17753577 0.15234348 -0.16197422 -0.10551063 0.1379517 -0.13371985 -0.057046045
-0.057745494 -0.011087539 0.16815346 0.03030594 0.17422357 0.0071163313 0.17268127 0.1277719
0.018480605 -0.16602015 0.14519174 0.1342567 -0.07800373 0.0042202463 -0.10785458 0.1659033
-0.12815127 0.07242752 -0.1537547 0.09469724 -0.0008684248 -0.037938014 0.011801675 0.14286229
-0.20066872 0.0121209305 0.019163243 0.08406967 -0.037558667 -0.050064635 -0.09239278 0.021232361
-0.08381006 0.116121985 0.23857073 0.087881416 -0.10843463 -0.14118932 0.08249041 0.03999344

network.0.bias f4 [128]
00000000: f777 9bbd 0ad0 f53c c1ac 323e 1045 14be
00000010: 4f36 013e 3f07 f8bd e634 9d3c 3eab cdbd
00000020: a8f7 9ebd 3a5d 873d 7b45 193e ac52 023e
00000030: 91e4 dbbd 98a6 1cbd 077f 3c3d cf3d 243e
00000040: 0e4c 3ebe 526f 393e dcef 833e dc51 c7bd
00000050: 29d4 cc3d 490a c4bd 31f2 bdbc f24a b13d
00000060: c6dd b8bd 9de0 383c 5ff4 153e 4c51 273e
00000070: b7e7 9e3d ebd2 3ebe 873d 10be 2c26 113e
00000080: 969a 85bd b026 a13d a64e 423d f5ff 64bb
00000090: c12f ea3c 4796 113d 74de 093d cb28 3c3d
000000a0: 948e 9abc 8980 e33d dec0 68bc 25d0 113e
000000b0: 073f acbc 45c7 ffbd 865c 253e 8eef dc3d
000000c0: 9df1 1ebd e306 493e 489c 0fbe 277d efbd
000000d0: 0ca3 973d 6682 d8bd a51e 2d3e 3c1c 9f3c
000000e0: 56ac 1a3d c4cf 453a dd67 15be e302 fbbb
000000f0: 6c27 eb3d 1078 22bd 13c8 1c3e 4dc5 243e
00000100: 62a2 6f3d 6abb 32be 5741 b03d 2c70 ccbd
00000110: ab76 42bd 9165 943d 478e 76bd 9cd5 23be
00000120: 8943 06bd f4e7 1ebc e382 c039 178f 38bc
00000130: cbd1 603d 47be 04be 3e03 353e ce8d f9bd
00000140: 3865 1a3e 7796 ca3d 88fc 233d d440 763d
00000150: 3b52 163d 5de8 f53d decd 133e 9613 dabd
00000160: 4d95 f6bd 3c38 0d3e d026 39be 8ad4 983b
00000170: 4c73 5c3e af7f 4e3c 25d6 08be fb1d aebd
00000180: 2789 8abc acaf dabd 77b4 c33d 5293 2ebd
00000190: 2837 233e a184 173e 5873 e93d 1d94 b73d
000001a0: 1c9d 493d a1c0 fe3d ffcd d23d 233c b83d
000001b0: 2d4b 27bd 206a 02bd 3600 703c 6f41 60bd
000001c0: f5a2 d43b 1b94 803c cd1c d93d a6a8 0bbe
000001d0: 7caa 043e 0872 52bd 6b18 183e e6e1 953d
000001e0: fe9e 5a3c 652d 673e ef92 af3d 762c 233e
000001f0: 9f26 703d b926 7d3d 8140 f7bd f0db 403d
-0.07591241 0.030006427 0.17448713 -0.1447947 0.12618373 -0.12110757 0.019190263 -0.100424275
-0.077620804 0.066095784 0.14967911 0.1272685 -0.10736955 -0.038244814 0.04601958 0.16039203
-0.185837 0.18108872 0.25768936 -0.0973241 0.10001404 -0.09572274 -0.023186775 0.08656873
-0.09026675 0.011284021 0.14644001 0.16339606 0.0775904 -0.18635146 -0.14085971 0.14174718
-0.065236256 0.07868707 0.047438286 -0.0034942601 0.028587224 0.035543706 0.033659413 0.04593734
-0.018866815 0.111085005 -0.014206139 0.14239557 -0.021026148 -0.124891795 0.16148576 0.10787879
-0.03880464 0.19631533 -0.1402446 -0.11693793 0.074041456 -0.105717465 0.16906221 0.019422643
0.03776201 0.0007545913 -0.14590402 -0.0076602562 0.114821285 -0.03966528 0.15310697 0.1609089
0.05850447 -0.17454305 0.086062126 -0.099823326 -0.04747645 0.07245935 -0.06019428 -0.15999454
-0.03277925 -0.009698857 0.00036718612 -0.011264584 0.054887574 -0.1296321 0.17677018 -0.1218525
0.15077674 0.0989198 0.040035754 0.06012042 0.036699515 0.120072104 0.14434001 -0.10648267
-0.120401956 0.13790983 -0.18081212 0.0046640085 0.21528357 0.012603684 -0.1336294 -0.08501812
-0.016911102 -0.10678038 0.09555905 -0.042620964 0.15939009 0.14796688 0.11398953 0.08963797
0.049222097 0.12439085 0.10293197 0.08995845 -0.040843178 -0.03183949 0.014648488 -0.054749902
0.0064891526 0.015695622 0.106011964 -0.13638553 0.1295566 -0.05137828 0.14853065 0.07318477
0.013343571 0.2257591 0.08572947 0.15934929 0.058630582 0.061804507 -0.1207285 0.04708475

network.2.weight f4 [64, 128]
00000000: 2e33 e53d 824c 6b3d a395 dd3c e96b 8b3c
00000010: 8dcb 123d 7ba3 a0bc cc83 a4bc d97a 53bc
00000020: da4e 463c c9ac ee3c d00d a9bd f81f 203c
00000030: eb32 bebd 2a7e 8d3c bf7e fabd 4097 aebd
00000040: 2be3 51bc 47c9 f43d 119c b53c 6ff9 283d
00000050: 8a30 c4bb fc6c 383d 8c0c 6a3d 7b2d e63c
00000060: 0776 c23d 9828 fb3c 1a15 5e3d 5b62 6cbd
00000070: 2855 cc3d 5dac c43d a7f2 d4ba 89f3 023d
00000080: c728 8d3d 78ba e73c 9b7e ac3d c257 8bbd
00000090: b684 8c3d 321f 95ba 9e89 cd3d e8a4 4e3d
000000a0: 1c44 9e3d d9f2 7f3d b717 d3bb d070 f63a
000000b0: 0784 5dbd fd7e 903b 8e99 c73d eea9 93bd
000000c0: 6424 813d 9901 28bd ff74 85bd 6bf7 993d
000000d0: 2c31 913d cfbd 8dbd 841b bd3d 92bd 1cbd
000000e0: 8ffd 8a3d 455b 373c bd0e 253d db8c 00bd
000000f0: edbe 03bd 3687 813d 169f ce3d 63a8 f2bd
00000100: 8610 023c 1225 6e3d 995d 633d f5fa 8b3b
00000110: 00c7 c0bd 100a 4bbd 3f8b edbc 694d 0bbc
00000120: 5f44 6bbd e79b cebd c0ab 05bc c97e f33d
00000130: 834a 8e3d 9b8a 513d 94d7 24bc 0f71 4f3d
00000140: b195 df3d 2ea9 633d c738 54bd 9920 11bd
00000150: 8684 183d 5b77 953b 8332 13bd dc16 a2bd
00000160: ac49 f2bc 2922 163e 84de 1a3c d658 d3bd
00000170: 1d88 f83d da5b 123c 987c 14bd 0346 05bd
00000180: 5990 783d b686 b63d b8a3 7ebd 3b12 debc
00000190: 573e 92bd 307a 6bbd b033 d4ba 76e3 10bd
000001a0: bdde c33d 957b f93b f4e7 713d 957e fc3d
000001b0: 2489 6e3d 5046 d9ba e988 363d 4c46 35bd
000001c0: be2f e9ba a437 6c3b 4c1a e6bc 4def b9bc
000001d0: 36a1 6bbc 337b f23c b57c d9bc 67e6 8f3d
000001e0: 9398 643d b612 c93d c4f8 bd3c 22b0 d5ba
000001f0: dc26 043d b75e efbc c5fc 973d f092 133e
00000200: 69cc 7c3d 0c25 2e3d 39b8 d5bb bfb4 383d
00000210: feb4 41bd 8ce8 c73c 0a95 833b 213c 8d3d
00000220: 9eb6 91bd 911a aa3d 9731 d73d 2d12 953b
00000230: ebef 5c3d 37eb 6ebc a503 d9bb ee54 1f3d
00000240: 4f55 543c 46a3 9b3d 3998 a43d 32e4 38bc
00000250: f99b 34bd b42e 5fbc 19b8 073c 4400 69bd
00000260: 58b9 89bd 6d7e b8bc 330d d23d 3eeb 383d
00000270: 3b4e ea3d 59a7 86bd 46cb 2c3d 005f b83d
00000280: a6fd cc3c a225 4a3d 1ccb b6bc 39b1 fdba
00000290: 06b9 b2bd 59ef d93d 95e8 b23d 281b 3c3d
000002a0: 9f7f 753d 1993 e7bc 8872 bb3d 2cb6 ccbd
000002b0: b8de d3bc 809f 543d 3146 a73c 00be e9bc
000002c0: acaa 283d a9ff 1dbc dc25 91bc 8ff6 c6bc
000002d0: 45cf a53d 813f b3bc 220f 9f3d 4a5a 8cbd
000002e0: 047e c53c cb98 b03d 99c9 30bd 238c 333c
000002f0: 1c1c 01bd ab10 703d 18b0 ae3d 42b2 903d
00000300: 2dd7 2d3d 3031 413d 2652 8a3c af98 b73d
00000310: 6847 983c 572c 033b 8087 dcbd df2b 53bc
00000320: 5992 4e3d b9ea 8e3d 37a7 a4bd b57a e53c
00000330: d48c 803d 5097 bc3d 1fbd c53b da97 1d3e
00000340: ac85 c63b 47c6 023e 1a2d 5f3d d76c cd3d
00000350: f71f 893a 55d7 f93d 0577 b2bc 0e3c 34bd
00000360: e96e aa3d 0c0c 503d cdc0 bbbd dc3e 25bd
00000370: 34a2 213e 6a00 32be d99e 01be 9f52 38bd
00000380: c2e6 a93d 168e 90bc 1630 9fbb a2dc 583d
00000390: 615d 063d c936 d53d a18a d63d 39bb 87bd
000003a0: faed 4bbd f528 d7bd 1a0b fcbc 1ba3 a33d
000003b0: 8502 433d ca02 a33d ff3d 373c 13a3 3cbd
000003c0: efca ea3b cc11 9ebd fe93 a23d 8638 8e3d
000003d0: 8554 493d 0c05 e43c 18da b33c 7be5 363b
000003e0: 5af5 1d3d b025 4a3c 7587 3cbd b563 4b3d
000003f0: df56 2b3d ab38 4cbd 1987 b23d 976d 183d
0.111914024 0.05744601 0.027048891 0.017019229 0.035838652 -0.019609204 -0.020082377 -0.012907707
0.012103761 0.029135125 -0.08254588 0.009773247 -0.092870556 0.017272074 -0.12231206 -0.085249424
-0.012810509 0.11952453 0.022169145 0.041253503 -0.0059872316 0.04502581 0.057140872 0.028097859
0.09495168 0.030659005 0.054219343 -0.057710987 0.0997718 0.09603188 -0.0016246632 0.031970534
0.06892543 0.028287157 0.084225856 -0.06803848 0.0686125 -0.0011377095 0.10036014 0.050450236
0.077278346 0.062487457 -0.006442036 0.0018801931 -0.05408099 0.0044096694 0.09746085 -0.07210146
0.06305769 -0.04101715 -0.06516456 0.07517894 0.07089457 -0.06920969 0.09233764 -0.038266726
0.06786644 0.011191194 0.04029726 -0.03138433 -0.032164503 0.063246176 0.10088937 -0.118485235
0.00793851 0.05814082 0.055509184 0.00427186 -0.09412956 -0.049570143 -0.028997062 -0.008502343
-0.05743825 -0.1008833 -0.008158624 0.11889417 0.06947806 0.051157575 -0.010061163 0.05064493
0.10917223 0.055581264 -0.05181196 -0.03543148 0.03723576 0.0045613474 -0.035936844 -0.07914516
-0.029576145 0.14661469 0.009452466 -0.103196785 0.121353365 0.008933032 -0.036251634 -0.03253747
0.060684536 0.08912413 -0.062167853 -0.027108302 -0.07140797 -0.057489574 -0.001618972 -0.035373174
0.09563968 0.007613609 0.0590591 0.12328831 0.058236256 -0.0016576741 0.04456416 -0.044256493
-0.0017790718 0.0036043907 -0.028088711 -0.022697115 -0.014381697 0.029599762 -0.026548723 0.07026368
0.05580957 0.09818022 0.02318991 -0.0016303102 0.03226362 -0.029219968 0.07421259 0.14411521
0.06171838 0.0425158 -0.006522205 0.045094248 -0.04729175 0.02440288 0.0040155696 0.06896234
-0.071149096 0.083058484 0.105075054 0.004549286 0.05393974 -0.014582447 -0.006622749 0.038899355
0.012959792 0.07599501 0.08036847 -0.011284875 -0.04409406 -0.013621975 0.008283638 -0.05688502
-0.06724805 -0.022521222 0.10256424 0.04514622 0.114407025 -0.06574888 0.042186044 0.09002495
0.025023293 0.049352296 -0.022313647 -0.0019355185 -0.08726697 0.10641355 0.08735768 0.045924336
0.059936162 -0.028268384 0.091527045 -0.09995684 -0.025863037 0.051909924 0.020419212 -0.028532982
0.04117839 -0.009643474 -0.017718248 -0.02428749 0.08096174 -0.021880867 0.07766558 -0.06853159
0.02410794 0.08622893 -0.04316101 0.010958704 -0.031520948 0.058609646 0.08529681 0.0706525
0.042441536 0.04716605 0.016884875 0.08964669 0.018588737 0.0020015442 -0.10768032 -0.012888878
0.050432537 0.069783635 -0.08039706 0.028012613 0.06276861 0.09208548 0.006034508 0.15389958
0.0060584154 0.1277095 0.05448637 0.10030525 0.0010461797 0.121992745 -0.021785269 -0.044002585
0.08321936 0.05079274 -0.09167633 -0.04034315 0.15784532 -0.1738297 -0.12658252 -0.04500067
0.08295967 -0.017645877 -0.004858027 0.052944787 0.032803897 0.1041084 0.1047566 -0.06627507
-0.0497875 -0.10505859 -0.030767012 0.07990094 0.047609825 0.07959516 0.011184215 -0.046053957
0.007165305 -0.07718238 0.079383835 0.06944375 0.04915287 0.027834438 0.021954581 0.0027907777
0.038564064 0.012338087 -0.04602762 0.049655635 0.041830894 -0.04985873 0.08717174 0.037213888

network.2.bias f4 [64]
00000000: 1671 ceba 00f8 0abd 6147 3b3d 285d 4d3d
00000010: d58f a7ba ce95 0a3b 1ff6 d8bb 89f7 a43d
00000020: 5fd7 afbc 6bb5 893d 9ed2 253d 220e bd3d
00000030: 921f f8bc c53d 8dbc 8184 373d 4ed2 dbbc
00000040: f456 813b 1779 dcbb bf0f 1fbd 8791 a1bc
00000050: 7b72 8dbd 4bac b3bc 6a45 46bd 5775 dbbc
00000060: 3139 993c fc73 303d e684 5ebd 8096 4bbd
00000070: 1152 41bd ff06 c1bd 30d8 11bd 55e9 a2bc
00000080: c51c 8abd 9c70 1d3d 9879 7d3c 1744 d33c
00000090: e55f 013d b1af 633d ac3c 8b3b dd1f a23b
000000a0: f0e6 b83c 1b2d 703d fbab b23d cd47 aabd
000000b0: e821 11bd ff66 21bd 90cb a63d b821 513d
000000c0: 4b1a 38bd fbd0 6a3d 9775 c33c 13f7 c03d
000000d0: a137 3fbd fb3d a33c 7f1d adbb 906b e7bb
000000e0: 570d f8bc 9d2f c13c 676a b2bb 117e 7e3c
000000f0: 9294 963d e8dd 10bc 1704 9d3d 1db3 99b9
-0.0015750255 -0.033927917 0.04572237 0.05013767 -0.0012783954 0.002114642 -0.006621137 0.08055026
-0.021465002 0.06724056 0.040484063 0.09231211 -0.030288491 -0.017241368 0.0448041 -0.02683368
0.003947133 -0.006728302 -0.038833376 -0.019722713 -0.06906601 -0.021932742 -0.048406042 -0.02678935
0.018704029 0.04307936 -0.05432596 -0.049704075 -0.047197405 -0.094251625 -0.035606563 -0.019886652
-0.067437686 0.03843747 0.015470885 0.025789304 0.031585593 0.055587474 0.004249176 0.004947646
0.022571057 0.058636766 0.08724209 -0.08314476 -0.035432726 -0.039404865 0.08144295 0.051057547
-0.04494695 0.057328206 0.023859782 0.09422126 -0.04668391 0.019927016 -0.005283057 -0.007062383
-0.030279798 0.023582274 -0.005444813 0.015532986 0.07352556 -0.008841969 0.07666796 -0.00029315884

network.4.weight f4 [32, 64]
00000000: 965a b0bd 7d97 5e3d b020 cf3d c836 a8bd
00000010: 6c75 d4bc 7d2e db3d 8832 8e3c f8a0 123e
00000020: 5e65 01be 6d41 acbc b26b 433d 9d3e cf3c
00000030: d1ba 0bbe fc69 8cbd 7a32 89bc 4cf7 e13d
00000040: 2992 2cbe 80df 1e3e f1aa 0abd 7ee5 c9bd
00000050: 6c0d e33d 2135 573d 938e bebb 3c56 173c
00000060: c49a 083e c66d eabb 5c7b 59bd d6d2 18bd
00000070: 39ca 2f3e 8bb4 2c3e 6e4d e6bd cdd2 88bd
00000080: e0f1 dbbd fa60 743c 169b 103e 1f3b 3cbd
00000090: e384 183e b0ab 673d f819 61bd f713 1d3e
000000a0: 64db a33d 8995 5d3d e340 9d3d c042 9cbd
000000b0: ca27 48be bd37 1e3e 2f34 cabd 6aea 333d
000000c0: 4cfa b93d 4dfa abbd 9401 583e d6f2 093e
000000d0: c401 b63d 34e4 8dbd 3181 263e 52f7 513b
000000e0: d650 023c 36c5 5b3e a1d4 8fbd 1ce1 49be
000000f0: ba23 29be 8b99 213e d74c bf3d 10b6 1f3d
00000100: 11e8 dfbd d96d 2d3d 30da d1bc a217 7d3d
00000110: 8735 d3bd ba09 013e 5e89 da3d f550 ff3d
00000120: fd3e b43d 09bc ff3b be68 cb3d d12f 3fbd
00000130: 3517 b33c 9fb5 a0bd 108e f63c 8c0a 65bc
00000140: 7e38 11be 77d0 903b 2c24 9d3d 0ba7 b53b
00000150: 3042 aaba 5007 c0bc 7bf7 8ebd bb9d 2b3e
00000160: f664 d9bd 2a87 763d e952 af3d 9f07 e93c
00000170: 972b ce3d cdd7 f7bb 6d1d 7c3d e54e 323d
00000180: e05b cd3d 4a78 6abc f4e3 80bc f71a dcbd
00000190: 5422 85bd 1f9e 1e3c 4cdb 24bd 92eb 443c
000001a0: 7e86 acbd 0693 cc3c 3272 b0bd d89c 76bd
000001b0: badf 6cbd c161 e13d c237 093c 4ea2 3b3d
000001c0: d6f2 26bc dc16 7b3d b53b 3dbd af9a f4bd
000001d0: 8ba9 39bd b45f 1bbe 6a93 ba3d ed88 3bbe
000001e0: 4b89 82bd c8e6 ea3c 5e2d 2d3d 488d 8a3b
000001f0: 1d9a fd3d 94d5 29bd a0b7 c73d 0152 c23b
00000200: f2e4 d33c ea38 ea3c c3d8 943d cfca eb3d
00000210: cf9e 543d 0d47 c03d cc4f bf3d 0a46 8d3d
00000220: 1d0f f13d 3708 033e df27 043e 4bbc 0d3d
00000230: e971 2f3d 3360 c4bc 9fd8 fbbc 47e0 c9bb
00000240: b516 b9bc d203 1dbd e9ed bdbc 3250 0b3e
00000250: 13cf 3c3e c29d 863d 3048 de3c d9a3 01bd
00000260: bd85 0a3e 5ffe b3bb 00f3 df3d 26c0 f33d
00000270: c995 30bd 1dd5 08bd f628 9abc ff1e f5bc
00000280: 5107 be3d a0d6 1ebd 789f b2bd 7178 6e3a
00000290: b598 773c 89d9 093e 561a 52bd 5e2f db3d
000002a0: b5a4 b3bd 2d9e 9a3d 3f70 9e3d 10ad 0fbd
000002b0: c340 2dbd c775 febd 49bc 703c fab5 bd3d
000002c0: 4db1 93bd 581e 6fbd 97fd 3d3d df22 c83c
000002d0: 31ce ad3d 33b9 04be c21c d83d d077 94ba
000002e0: b609 073c 4558 eebb bea6 5c3e 94e5 723c
000002f0: c845 a93c 8d96 f9bd 7006 cebd 7b76 523d
00000300: 9651 e03c 469a 62bd a43e 98bd 3c10 493d
00000310: d1ea f53d 74c8 c43d 1e5f c2bd 7447 3bbd
00000320: b7ef 8a3d 3096 90bd 8463 a33c dcb5 8abd
00000330: 5d8f b43d 8040 a33c d3ed e1b9 5358 03be
00000340: 39aa e5bc 199d bcbc f1f5 c8bc 6d30 a83c
00000350: 8346 52bd 151d 273c bbba 78bd 98d6 72bd
00000360: eb5d d9bd c2a0 0b3c b3e2 29be 8d34 aa3d
00000370: ec76 8e3d 1ec6 01bc a2e0 7ebd 2dd6 933d
00000380: 339b b23d 2f7f 583d 65d7 26bd a7db 5ebd
00000390: 0107 22bc e67f 053c 0594 e43d aa9f 393c
000003a0: 9b05 363d 54d8 9e3d a162 ed3d 930c 8abd
000003b0: b2e8 cb3d c16b b73d e98b c53d 3a58 18bd
000003c0: 0a9e be3d db12 c43d e6cc 52bd bab2 f63d
000003d0: 3930 b53d 0675 0e3c a88d a4bd 1ce8 55bd
000003e0: da3f 403c bdae 443d 86d3 17be 0d48 3abc
000003f0: 99d9 033e e574 043c d0a5 783d 2432 e3bd
-0.08611028 0.05434369 0.101136565 -0.08213574 -0.025934897 0.10702226 0.01735808 0.14319217
-0.12636325 -0.021027291 0.047710128 0.025298411 -0.13645484 -0.068561524 -0.016747702 0.11033496
-0.1685263 0.15514946 -0.03385443 -0.09858225 0.110865444 0.052540902 -0.005815336 0.0092368685
0.13340288 -0.0071541993 -0.05309616 -0.037310444 0.17166986 0.16865747 -0.11245237 -0.06680832
-0.10739493 0.014915699 0.1412166 -0.04595482 0.14894442 0.05656022 -0.054956406 0.15339647
0.0800083 0.054097686 0.07678392 -0.07629919 -0.19546428 0.1545095 -0.098732345 0.043924727
0.090809435 -0.083973505 0.21094352 0.13471541 0.088870555 -0.06928292 0.1626022 0.0032038284
0.007953843 0.21461949 -0.070229776 -0.19714779 -0.16517535 0.15781228 0.09340828 0.038991988
-0.10932935 0.042341087 -0.025616735 0.061790116 -0.10312944 0.12601367 0.10670732 0.12466613
0.088010766 0.007804398 0.09932087 -0.04667646 0.021861652 -0.078471415 0.030097038 -0.013979565
-0.14181706 0.004419382 0.07672915 0.0055435947 -0.0012989696 -0.023440987 -0.06980797 0.16759388
-0.1061496 0.060187496 0.08560736 0.028446017 0.10066908 -0.0075635673 0.0615515 0.04353227
0.100272894 -0.014310906 -0.015733697 -0.10747331 -0.06500688 0.009681254 -0.0402482 0.012019055
-0.0842409 0.02497245 -0.08615531 -0.06020817 -0.05783055 0.11004973 0.00837511 0.045809083
-0.010189733 0.061301097 -0.04619952 -0.11943566 -0.045327704 -0.15173227 0.09110148 -0.18313952
-0.06373843 0.028674498 0.042279594 0.004228268 0.123829104 -0.04146345 0.097518206 0.005930186
0.025866006 0.028591592 0.072679065 0.11513292 0.051909264 0.09388552 0.09341392 0.068981245
0.11770461 0.12796102 0.12905835 0.0346034 0.042833243 -0.023971653 -0.030742941 -0.006160769
-0.022593835 -0.03833372 -0.023184733 0.13604811 0.18438368 0.06573059 0.027134031 -0.031650398
0.1352758 -0.00549297 0.109350204 0.11901884 -0.043111596 -0.033406366 -0.01881836 -0.029922007
0.09278739 -0.0387789 -0.087218225 0.00090969267 0.015112092 0.1346189 -0.051294647 0.10702394
-0.0877165 0.07549701 0.07736253 -0.035077155 -0.04229809 -0.12424808 0.014693328 0.09263225
-0.07211552 -0.058378547 0.04638442 0.02443069 0.084865935 -0.12961273 0.1055236 -0.0011327211
0.008242061 -0.007273706 0.21547982 0.0148252435 0.020663157 -0.121869184 -0.100598216 0.051382523
0.027382653 -0.055322908 -0.07433823 0.049087748 0.12007678 0.09608546 -0.094907984 -0.04572244
0.06784003 -0.07059896 0.019944914 -0.06772968 0.08816407 0.019928217 -0.00043092537 -0.12826662
-0.02803527 -0.023024129 -0.024531337 0.020530904 -0.051336776 0.010199805 -0.060724955 -0.059286684
-0.106136166 0.008522214 -0.16590385 0.083108045 0.06956276 -0.00792077 -0.062225945 0.07218585
0.08721008 0.052855667 -0.04073276 -0.054408696 -0.009889365 0.008148169 0.11161045 0.011329571
0.04443894 0.07756105 0.115910776 -0.067406796 0.099564925 0.08956099 0.09645826 -0.037193514
0.09307487 0.09573909 -0.051464938 0.12045808 0.08847088 0.008694893 -0.08034831 -0.05222331
0.011733973 0.048018206 -0.14826784 -0.011369717 0.12875976 0.00808451 0.060705006 -0.11093548

network.4.bias f4 [32]
00000000: d8f3 843d b70d d5bd 7094 163e abe5 8fbd
00000010: ca0e 293d c11c 95bd 7b20 95bd bc4e bebd
00000020: cc0c 8e3d 2689 d83d f028 ce3d d129 223e
00000030: d0ab aebd c3e4 06bd 7fed fe3c db52 6dbd
00000040: 762f 0d3e eb34 e63c d26f 9bbd 37a4 51bd
00000050: 709e 983d a43e 623c a9bb e6bc 462d dc3c
00000060: 1024 c0bd 810e 9c3d ed36 10bd b640 153e
00000070: aad5 ed3d 1a15 53bc 0fd5 3f3d 9c03 b73d
0.06491822 -0.104030065 0.14705062 -0.070262276 0.04127387 -0.07280875 -0.07281586 -0.09292361
0.069360346 0.10573034 0.10066402 0.15836264 -0.085288644 -0.032933008 0.031119106 -0.057940345
0.13787636 0.028101405 -0.075896874 -0.051181998 0.074520946 0.01380888 -0.028165655 0.026877057
-0.093818784 0.07619954 -0.03520863 0.14575467 0.11613019 -0.012883449 0.046834048 0.08936235

network.6.weight f4 [3, 32]
00000000: 0b7c c13d e757 8dbd 4893 a5bd bc08 39be
00000010: b5d6 e93d 266b 723e 42eb d13d fcdc 4a3e
00000020: e6df 823e b3d8 5c3e 51c9 5b3c feab fcbc
00000030: bc05 e3bd 83c1 88be 2af2 6cbd f765 03bd
00000040: 358f 6e3d 9444 8cbc c92b 64bd cd11 b43d
00000050: 5217 21be c588 a2bd 0761 343e 44c2 f63d
00000060: 0022 0cbb cb35 e43d 19a6 7c3e 4f6a 543e
00000070: 108c 343e 0983 f7bc b613 973d d664 283e
00000080: 5068 03bd 5faa 14be 7360 17be 32bc db3d
00000090: 48cd 20be 23f7 ac3c d63a 353d ff88 813c
000000a0: db13 613d 8672 96be f6b5 e9bd 6611 813e
000000b0: cf1c 673e 4a20 8e3d 858d 34be 21d6 20be
000000c0: f4ba 1b3e 6561 fb3d c2f0 0d3e f688 5bbe
000000d0: 62e5 f83d 6801 ebbd c9ed 28be e84b 1b3d
000000e0: d0e6 333c 87b6 953d 89d1 82be 7dbc 8dbd
000000f0: 91c0 473e 6d01 4fbd ccb1 c93d 040f 363e
00000100: bb81 6abe ff26 5d3d 66c4 363e 0abb 4f3c
00000110: 5320 ae3d 7967 f8bd f123 f439 03ee 97be
00000120: f5a1 11be 1e1c ca3d d136 53be 1512 0b3e
00000130: 8bfc 1e3e 4b66 853e af13 fc3d 4f69 ab3d
00000140: 63c4 1abe 0266 fb3d a5f5 673d 8e38 f8bc
00000150: 5da0 a2bd 2d9f 263e da2a 19be fd44 2cbe
00000160: aa75 a53d 74c3 2fbe 085d 94bc fa6a 36be
00000170: 8e22 e9bd 7ec3 e53d 789d 2dbe 113f 8cbe
0.094474874 -0.06901532 -0.08084732 -0.18069738 0.11417905 0.23673686 0.1024995 0.19810861
0.25561446 0.21567039 0.013414697 -0.030843731 -0.11085078 -0.26710138 -0.057848133 -0.032079663
0.05824204 -0.017122544 -0.05570582 0.08792458 -0.15731552 -0.07936243 0.17615138 0.12048772
-0.002138257 0.11143073 0.24672736 0.20743679 0.17631555 -0.03021385 0.073768064 0.16444716
-0.032081902 -0.14518116 -0.14782886 0.10729255 -0.15703309 0.021113938 0.044245563 0.015812395
0.054950576 -0.2938425 -0.114116594 0.25208586 0.22569583 0.069397524 -0.1763211 -0.15706684
0.15208036 0.12274436 0.13861373 -0.21438965 0.12153126 -0.114748776 -0.16496958 0.037914187
0.010980323 0.07310205 -0.25550488 -0.06920717 0.19507052 -0.05053847 0.09848365 0.17779166
-0.22901051 0.053992268 0.17848358 0.012678871 0.08502259 -0.12129111 0.00046566085 -0.29673776
-0.14221938 0.09868644 -0.2062638 0.13581116 0.15526025 0.26054606 0.12308442 0.083696954
-0.15113978 0.12275316 0.05663075 -0.030300405 -0.07940743 0.16271658 -0.14957753 -0.16823192
0.08079083 -0.17164403 -0.018110767 -0.17814246 -0.11383544 0.11218928 -0.16954601 -0.27391866

network.6.bias f4 [3]
00000000: bbc6 233e a040 d5bd e560 b33c
0.15993778 -0.10412717 0.021896789

network.0.weight f4 [128, 30]
00000000: f422 b9bd 08e9 bcbd f54e 95bc 6590 dbbc
00000010: 6752 443c 8389 7bbd 5cd0 e83d 6d77 9abd
00000020: 8b52 493d 5c8f 02bc 1eac 6a3d a807 41bd
00000030: d188 37be 1b69 123a f292 bc3d b1db e6bd
00000040: 1434 25bd fc7c 51be a76c 863e 7186 dfbe
00000050: 0039 823e a877 f43e 091c 0bbe b230 76be
00000060: d25f 203e 0030 52bc 5f48 f8bd cc04 00bd
00000070: 0fe2 1ebe 84ef 0fbd 2737 d23a c31a 18bc
00000080: 69ee db3d e32a aa3c 0e31 353c 35a6 35bd
00000090: de5e 3c3e 0dbd 1b3e e3dd 0dbe 62a4 6dbd
000000a0: b0c8 283e ae1f 063e ea70 8cbd 8cd9 b83e
000000b0: f84e 88be 42ec cc3e f78a a63e c065 12be
000000c0: acac 1fbe 0666 d7be 6657 c5bc ebc1 713d
000000d0: df58 8fbd 6b19 c1bd 4af7 c0bd 3a4f f7bd
000000e0: 47c4 c9bd 00fa 9d3b bc44 963d e07f b7bc
000000f0: 8a82 f83d f31c d6bd 4a54 f03c 49e9 9e3d
00000100: 213a 02bd f4e8 e83d 0207 203e aaef 44be
00000110: eab7 ce3d 90a8 87bd c59e 683e dcd7 14be
00000120: e07a 25bd 27e2 0c3e efe7 cb3d d073 82be
00000130: 1dd8 81bd c248 b9bd c9fc bf3d b8e0 71be
00000140: 1084 303c 30b1 6bbd 7569 693e 3fdc e8be
00000150: a0ec 07be d8a5 013e 63dc d6bd ecc9 3c3d
00000160: 10e5 073e eea0 2e3e 73c3 023d 9f30 923e
00000170: b9ec ac3d ecbc 35bd 78d7 1e3e 8052 8d3e
00000180: f4e2 163d a6b1 a33d 791a 6b3b 64ae f03c
00000190: 0688 f43d 5f5b 0abe 89b5 703e 8cc0 92bb
000001a0: c3da 89bd d17b 0ebd 0189 de3d b240 023e
000001b0: b6df 98bd cd1c 833e c692 843d 7b22 053e
000001c0: 52b1 953d 7f91 ce3d 9003 2c3d 801c e13b
000001d0: 00cf 56bb 72d3 103e b930 a5bd dc2b e53d
000001e0: 6acb 6e3d 7684 853d 55e4 393d 3897 12bc
000001f0: 91b6 e5bc e2d8 cc3d 99e0 753e 4530 9bbd
00000200: 2a77 113e c92d afbc 58b9 b33d 2b9b c2bd
00000210: f943 1cbb f884 173e 3ea0 3d3e b194 eabd
00000220: 248d 503c f083 423d 5f3f 0b3d b420 a5bd
00000230: f62a bd3d e77c 07be f3cb 8d3c ce4a 66be
00000240: f753 21be 1cb0 bb3d 9281 3a3e 8246 89bd
00000250: 7e30 103e d8cc de3c 6476 cd3a ec24 183e
00000260: d87d e03d 2daa 0ebe 28d7 133e de00 4dbe
00000270: 4d1c 83be 2e2a b3bd 1639 3fbe becb 39bc
00000280: 1c53 0abd 177f 98bd 3adc 0b3e a64b e0bd
00000290: b732 28be e7a7 403e 7611 723e 6b06 d63d
000002a0: 711a 51bc 17c3 9dbd aa3b b73d 4d9f 7d3e
000002b0: da38 3c3e 2956 a9bd 1c8e 113d f4bd d63d
000002c0: 8022 023e acef 013d 92e1 11be 06f1 293e
000002d0: b1e5 36bd 7ea0 10be 3642 15be 9a61 acbd
000002e0: 8641 a93d e085 3c3e 6979 f7bd a181 ef3c
000002f0: 232e e03b 6b64 dfba 3992 b1bd 2c27 af3d
00000300: 56ae d33d 5d5e 3ebd 8d14 e8bd eaed 8f3c
00000310: 7046 4cbe 6f29 6a3c 529b 803d c1c9 083f
00000320: 635b 84bd 9bae 963e 96e8 883d 1707 5b3d
00000330: e317 95bd 8bad ebbd 4c26 033e 641a a33d
00000340: b03d 293e 32b5 0d3e bbb1 efbd 6bef 01be
00000350: 854c b7bd bce3 94bb dddc 353c 5bf9 f23c
00000360: 2db7 da3d 949d 433e abb5 f7bb 05dd 77be
00000370: 28bf 28be 5516 d2bc 1e1e 0fba 4083 153e
00000380: 4cb2 5d3e 204e 0a3e b785 633e a4df 03bd
00000390: 357d 013d b51b 7abe 01cd 03bb 1c15 273e
000003a0: 9fca 37bd 5546 883d f445 d03d 68a2 6abd
000003b0: 74a6 ae3d 6ab5 19be b098 15bc e061 b03b
000003c0: c974 0d3d 449c d23d 0559 49be 8142 19bd
000003d0: 75f8 04be b825 81bc cea0 95be efd2 653c
000003e0: 6990 89bc 65df 773d 3469 39be 1013 083e
000003f0: f35b 473d 9df4 903a 09b5 3ebe 0bae f33d
-0.0903987 -0.09224135 -0.018226126 -0.026802251 0.011982537 -0.06141044 0.113678664 -0.0754231
0.049150985 -0.00796875 0.05729305 -0.047126442 -0.17923285 0.000558512 0.09207715 -0.112723716
-0.04033287 -0.20457834 0.2625477 -0.43657258 0.25434113 0.4774754 -0.13584913 -0.24042013
0.15661553 -0.012828827 -0.12123179 -0.031254575 -0.15515922 -0.03514053 0.0016038165 -0.009283724
0.107388325 0.020772403 0.011059059 -0.04434796 0.18395564 0.15208836 -0.13854174 -0.058018096
0.16482806 0.13098022 -0.06857474 0.36103475 -0.26622748 0.40024 0.32527897 -0.14296627
-0.15593213 -0.42070025 -0.024089526 0.059022825 -0.06999373 -0.09428676 -0.09422167 -0.12075658
-0.0985189 0.004821062 0.07337329 -0.022399843 0.12134273 -0.104547404 0.029337067 0.07759339
-0.031793717 0.11372557 0.15627673 -0.1923205 0.100936726 -0.066239476 0.22716816 -0.14535469
-0.040400386 0.13758145 0.09956347 -0.25478983 -0.063400485 -0.090470806 0.09374387 -0.2362088
0.010773674 -0.057542026 0.22794135 -0.45480534 -0.13273859 0.1266092 -0.10491254 0.046091005
0.13270974 0.17053577 0.031924676 0.2855272 0.08443589 -0.044369623 0.15511882 0.27602005
0.036837533 0.07992868 0.0035873933 0.02938003 0.11940007 -0.13511418 0.2350675 -0.00447852
-0.067311786 -0.03478605 0.10865975 0.12719992 -0.074645445 0.2560791 0.06473307 0.13001435
0.07309212 0.10086345 0.041995585 0.0068698525 -0.003277719 0.1414316 -0.08065934 0.11190006
0.05829946 0.065194055 0.04538377 -0.008947186 -0.028041156 0.100023046 0.24011458 -0.07577566
0.14205614 -0.021384137 0.08775586 -0.09502252 -0.0023844226 0.14796817 0.18518159 -0.11454142
0.012728963 0.047489107 0.033995982 -0.08062878 0.0923671 -0.1323124 0.017309165 -0.22489473
-0.15754686 0.091644496 0.1821349 -0.067029014 0.14080998 0.027197286 0.0015675542 0.14857835
0.10961503 -0.13932104 0.14437544 -0.20019862 -0.2560753 -0.087482795 -0.1867412 -0.01134008
-0.033770666 -0.074461155 0.13658229 -0.10951929 -0.16425596 0.1881405 0.23639473 0.10450443
-0.012762652 -0.07703226 0.08946927 0.247678 0.18381062 -0.08268387 0.035535917 0.104854494
0.12708473 0.03172271 -0.14246204 0.1659585 -0.044652645 -0.14123723 -0.14576039 -0.084170535
0.08264451 0.18410444 -0.12083704 0.029236617 0.0068414374 -0.0017043477 -0.08670468 0.08552393
0.10335986 -0.04647671 -0.11332045 0.017569501 -0.19948745 0.014292105 0.06279625 0.5343285
-0.06462743 0.29430088 0.06684987 0.05347356 -0.07279947 -0.1150771 0.12807578 0.07964018
0.16527438 0.13838652 -0.11703821 -0.12688987 -0.08950142 -0.0045437496 0.011100021 0.029659918
0.10679469 0.1910308 -0.0075594983 -0.24205406 -0.1647917 -0.025645414 -0.0005459505 0.14600849
0.21650046 0.13506365 0.22218977 -0.032195702 0.031613547 -0.24424632 -0.0020111206 0.16316646
-0.04487097 0.0665404 0.101695925 -0.05728379 0.08527842 -0.1501061 -0.009130642 0.0053827614
0.034535203 0.102837116 -0.19662865 -0.03741694 -0.12985404 -0.015765056 -0.29224247 0.014027341
-0.016792493 0.06051578 -0.18106538 0.13288522 0.048671674 0.0011059229 -0.18623747 0.118984304

network.0.bias f4 [128]
00000000: 5813 5f3e 2da9 28be a13b 58be 9d5b 42be
00000010: bb68 9dbc 8f1d 4c3e 1b9e 163e 7f15 e5bd
00000020: 5756 543d da60 403e f6a7 0f3c 4410 96bd
00000030: bcfb 573e 55f4 323e 6f46 963d 5d58 163e
00000040: 33ef 50bc 1f2f 843e c93f 813e 49db ea3d
00000050: 632f d03d 4731 073d de67 e6bd e668 abbd
00000060: 6bf7 d4bd 6db7 83be 6703 953c 6377 813d
00000070: 428d 533e 9414 093c e27c 64bd b9c5 23bb
00000080: 5150 e1bd b2c0 483e cb44 7a3e 5670 53bb
00000090: f0ba dabc 0369 7d3e 7050 4e3e 2c8e 65bb
000000a0: 7c25 543e 6dc9 92bd b4ed 8bbd 2172 3b3e
000000b0: 188c 503d 1b9e 59be 3fe3 46bd 98eb b0bd
000000c0: 847a 52be 8a5e 0b3e d90d 503e 6a01 b83e
000000d0: 7590 fb3d 841d 153e 6320 373e c048 15bd
000000e0: 2ed8 f63d 37a6 d93d ce4c 083e b055 923d
000000f0: ab0e e23d c25b 883e 95f7 ab3c b90a 673d
00000100: 4609 e7bb 11d7 e5bd ab3f 65bd b9b1 423d
00000110: 3db7 033e 512d 003e fb4b 8d3d 9fe0 063e
00000120: 8dd8 1b3d 28e8 633d d385 703e 8be5 273e
00000130: 09fc 70be c7ff cb3c a732 94bc dbd7 61be
00000140: 01d2 39bc 2316 f4bd acda 4e3d 3ddf 3a3e
00000150: 924d 32bd 8403 f2bc 9043 023d 930e 763e
00000160: b6ee 6a3e 3372 8f3d d86a 2cbe ba0b b6bd
00000170: f7e4 163e ee3b 7b3e 15eb 3d3e 1ded 0dbd
00000180: 3235 043e 4dc3 d23d 2600 323d b944 653e
00000190: 24d4 e8bd 76e4 213e 1f1c 04be 54d0 1bbe
000001a0: 3e5d 6a3e 39f1 8f3d 71df 29be 1b43 c03d
000001b0: fa7d a43d 5240 11be 09b1 80bd b9c6 47bd
000001c0: 311e 8b3e 2f97 e43d 9262 053e 1930 723e
000001d0: b81e e6bd a342 8d3e ebb3 99be 9aa1 243e
000001e0: 4c04 4f3e df94 4dbe e753 d03d c5c2 44be
000001f0: ceca 203d ab44 393e 7ef1 1f3d b606 8e3d
0.21784723 -0.16470785 -0.21116497 -0.1898026 -0.019214978 0.1993315 0.1470875 -0.11185741
0.051840153 0.18786946 0.008768072 -0.07327321 0.21092123 0.17476018 0.07337653 0.14682145
-0.012752342 0.258172 0.25243977 0.114676066 0.10165288 0.03300598 -0.1125028 -0.08369617
-0.10398754 -0.2572588 0.018190099 0.06321599 0.20659354 0.008366723 -0.05578316 -0.0024989678
-0.11001647 0.19604757 0.24440305 -0.0032263002 -0.026700467 0.2474709 0.20147872 -0.0035027368
0.20717424 -0.07167325 -0.06832448 0.18305255 0.050914854 -0.21251719 -0.048556563 -0.08638686
-0.20554549 0.13610283 0.20317782 0.3593858 0.12283412 0.1456204 0.17883448 -0.036446333
0.12052952 0.10627406 0.13310549 0.0714525 0.11037954 0.26632506 0.02099208 0.05640671
-0.007050666 -0.11222661 -0.05596892 0.04753277 0.12862869 0.12517287 0.06899258 0.13171624
0.038048316 0.055641323 0.2348855 0.16396157 -0.23533644 0.024902238 -0.01809056 -0.22054999
-0.011341573 -0.11918285 0.05050151 0.18249221 -0.043531008 -0.029542692 0.031802714 0.24028997
0.22942623 0.07004204 -0.16837633 -0.088889554 0.1473578 0.2453458 0.18546708 -0.034649957
0.12910917 0.10291157 0.043457173 0.22389497 -0.113685876 0.15809807 -0.12901352 -0.1521619
0.22887132 0.070284314 -0.16589142 0.09387799 0.080318406 -0.14184693 -0.06283767 -0.0487735
0.27171472 0.111616485 0.13025883 0.2365116 -0.11236328 0.27589902 -0.3002008 0.16077271
0.20216483 -0.20076321 0.10172253 -0.19214924 0.03925591 0.18092601 0.039048664 0.06934874

network.2.weight f4 [64, 128]
00000000: dded 923c 9066 1e3c 084e 06bd 72cd 51bc
00000010: 3961 a1bd c2c0 a23c 24e6 82bd c06a 19be
00000020: 01f6 2f3b 259a 553d f6fe 753d 0070 8d3d
00000030: 344d d3bd 7319 36be 2b99 e0bc 895a adbc
00000040: 9a75 8b3a 83f2 133c 7dba 3b3c 52e7 03bd
00000050: ff12 8ebd 35c8 413c df66 6dbd fe07 cb3b
00000060: ec14 a6bd 2a89 c4bd 7bb9 79bd 7f87 edbc
00000070: 6e4a e3bc 567e 4a3d 1969 6d3d 202d a2bd
00000080: 5a41 213c 0745 363b bcf3 683d e23e 02be
00000090: 984d e5bd 3c33 e93c 694b 11be 2cbd 67bd
000000a0: 0657 243d c4c2 23be 10f2 683d 9571 b73b
000000b0: afbf ff3c c4e0 bcbc 1e83 e23c cd60 f0bd
000000c0: a63c a0bd 941f 3c3d 68ac 1bbc c2fe 85bd
000000d0: edb8 fc3b 3e12 e03c cfa6 82bd ef7f 5fbe
000000e0: 267d 33be 595f a7bd 7bf2 9b3d fa69 c4bd
000000f0: d6a2 153d 200f d8bd 75d8 6abe b604 e3bb
00000100: 128b 65bc b05c 81bd d0fd dabd 0680 09bd
00000110: c926 6e3d 1ea7 a1bc 7975 b0bd c06e 833d
00000120: 2a3c 7fbe 7c20 983a 40a9 07bd ec1a 843c
00000130: 3dbb 16be 093b 04be 6be6 c7bc f5e3 32bd
00000140: 911e 63bd 3125 f13c 42c3 a7bd 3911 52bc
00000150: aa09 cf3d 883f 2abe 3cf6 a4bd d926 f0bc
00000160: 488e dfbd a0df e23d d99c 8a3d 50c3 d63b
00000170: c340 6a3b afe5 b53a 1f72 af3c ad5c 753d
00000180: 3b7c 36be 0555 1a3d 105e 46bd c0e7 eb3b
00000190: e006 2fbe 86f9 093d dada 893c cb3b e1bd
000001a0: 5587 6cbd 2d3c 3ebd 566c de3c cc1b 8abd
000001b0: b5b5 4bbe b1c4 e83b cc6c bfbd ecf4 9bba
000001c0: f7be 05be 621a 9c3d b8d5 47bb ab9d 7c3d
000001d0: 7f24 203d 3966 72bd a2d3 983b b8be b5bc
000001e0: ce69 41bd d388 2abd 89ec 1c3d 0250 5bbd
000001f0: 3d25 873d aaee 483c b30f 4ebd 71b5 8ebd
00000200: 8c71 fb3d ddf4 163d 3c8a 03be 7cec 99bd
00000210: 37ae 4dbe e580 373e ade3 1bbe 3cd0 a03e
00000220: ac3f 87bc fba0 f03d bfd4 9dbb e0a5 0eba
00000230: 4e0d 5d3c 45f4 e8bd d4b2 3b3d 853e 213d
00000240: 6c00 253e 82ac 23be 7a1a 3a3e 7427 ca3d
00000250: 3b1f 9cbe 67a5 4b3e 9caf 3e3c 573e 6a3e
00000260: dd77 c7bd adff 93bd e7ef 25bd d8d1 45be
00000270: 80c3 623e 440f c03d 9acf c5bd 1ce2 833c
00000280: a509 0c3d 99bb 07be fb42 5c3c 6b55 03bd
00000290: ed3b d7bd 2622 59bb ad99 563c 0a67 41bc
000002a0: 2eb0 9a3d a2c3 2dbe 5022 183e 8001 6b3d
000002b0: c0b9 c63b dd8c 6bbd 9182 873d 6cec acbc
000002c0: ec49 df3d 5cdb 81bc d2cd 32bc 137d a1b9
000002d0: b191 a23d f3a3 e53d 0cab f73c 7732 dabc
000002e0: 86f1 36be b004 06be 53f7 113e 4199 fa3c
000002f0: 2189 5b3d 9794 0bbe b48e 583d 5f69 45bd
00000300: baf3 d53d 36f0 053d 5351 583d 6d7a aebd
00000310: f8e9 d93d 3e2a b83d 5034 e0bd 5365 41be
00000320: 625b 193e 228a f73d 9e2e 56bd a634 023e
00000330: a83c 393e a57d 61be 08d4 a23b c15a 26be
00000340: 4bdc 04be 78dd f3bd 98f4 3ebd 9210 7a3d
00000350: f3d5 173e eb3f 793c cffe 8f3d bb76 c63d
00000360: f35c a23e 370c a53d 797a 5abd f442 25be
00000370: 74a3 72bd 63b6 18bd 6488 2d3d 48ad 19be
00000380: 98b8 29be 616d 2dbe ae76 a43c 1261 d7bd
00000390: 7381 4e3d dc3b dc3d cf21 dfbd 7ce2 5ebd
000003a0: 8268 923d 6a5c 9f3d e9f4 49bb ea82 db3d
000003b0: 4626 5abe 0165 1b3d 8f94 b0bc d0c4 453e
000003c0: 4e4c 2bbe addd 203e 8742 353e 7832 bc3c
000003d0: 5dbf 1cbe 31bd 093d cc9c 393e 8cc7 be3d
000003e0: a2b8 16be 8088 7f3d 904b 123e acb7 82bd
000003f0: 30d1 13bd 4253 f73d 0487 efbc 1377 453d
0.017935688 0.0096680075 -0.03278926 -0.01280533 -0.07879872 0.019867305 -0.06391552 -0.14982128
0.002684951 0.052148957 0.060057603 0.06906128 -0.1031746 -0.17783146 -0.027416786 -0.021161335
0.0010639906 0.009029987 0.0114580365 -0.032203026 -0.06937217 0.011827518 -0.057959434 0.006196021
-0.08109459 -0.095964745 -0.060967904 -0.028995274 -0.027745452 0.04943689 0.057961557 -0.07918763
0.009842241 0.002781214 0.05687307 -0.127193 -0.111964405 0.028466813 -0.14188923 -0.056576893
0.040122055 -0.15992266 0.056871474 0.005598257 0.031219332 -0.023056395 0.027650412 -0.11737213
-0.07824068 0.045928553 -0.009501554 -0.06542732 0.0077124746 0.027352449 -0.063794725 -0.21826147
-0.17528209 -0.08172483 0.07614609 -0.09590526 0.036532246 -0.1054976 -0.22934134 -0.006928052
-0.014010208 -0.06316507 -0.10692942 -0.03356936 0.058142457 -0.019733008 -0.08616156 0.06417608
-0.24925295 0.0011606361 -0.033120394 0.016126119 -0.14719863 -0.12913145 -0.024401864 -0.043674428
-0.055449072 0.02943668 -0.08191539 -0.012821489 0.10109265 -0.16625798 -0.08054778 -0.029315399
-0.1091581 0.11077809 0.067681976 0.006554045 0.0035744167 0.0013877655 0.021416722 0.059902836
-0.17820828 0.037678737 -0.04842955 0.0071992576 -0.17092466 0.03368523 0.01682799 -0.10997733
-0.05774625 -0.046444107 0.027151268 -0.06743583 -0.19893534 0.0071035256 -0.09346923 -0.0011898554
-0.13061129 0.076222196 -0.0030492377 0.0616738 0.039097305 -0.05917952 0.0046639005 -0.022185668
-0.047220044 -0.041634392 0.038311515 -0.0535431 0.065988995 0.012263933 -0.05030794 -0.06968201
0.12277517 0.036854614 -0.12845701 -0.07515809 -0.20085989 0.17920263 -0.1522357 0.3140887
-0.016509853 0.117494546 -0.004816621 -0.00054415874 0.013491942 -0.11374716 0.04582484 0.039366264
0.16113442 -0.15983775 0.18174163 0.09870806 -0.30492577 0.19887315 0.011638548 0.22875343
-0.09739659 -0.07226501 -0.04051199 -0.1931833 0.2214489 0.09377912 -0.096587375 0.016099028
0.034188885 -0.13255157 0.013443704 -0.032063883 -0.10509477 -0.0033131926 0.013098163 -0.011804352
0.07553135 -0.16969159 0.14856839 0.057374477 0.0060646236 -0.057507385 0.066167004 -0.021108828
0.10902771 -0.015851669 -0.010913329 -0.000308015 0.07937945 0.112129115 0.030232929 -0.026635392
-0.17865571 -0.13087726 0.14254503 0.030590655 0.053597573 -0.13630901 0.052870467 -0.048196193
0.10446878 0.032699786 0.05281193 -0.085194446 0.10640329 0.08992432 -0.10947478 -0.18886308
0.14976266 0.120868936 -0.05229055 0.12715396 0.18089545 -0.22020586 0.0049691238 -0.16245557
-0.1297466 -0.11907476 -0.04661998 0.06105096 0.14827709 0.015212993 0.07031023 0.09690615
0.3171154 0.080589704 -0.053339455 -0.16138822 -0.059237912 -0.037283313 0.0423664 -0.15007508
-0.16574323 -0.16936256 0.020076122 -0.105165616 0.05041642 0.10753605 -0.1089512 -0.05441521
0.071488395 0.077812985 -0.0030816144 0.10718329 -0.21303663 0.03793812 -0.021555213 0.1931336
-0.16728327 0.15709563 0.1770116 0.022973284 -0.15307374 0.033627693 0.1812622 0.09315404
-0.1471887 0.062386036 0.14286637 -0.06382689 -0.03608817 0.12076427 -0.029239185 0.04820926

network.2.bias f4 [64]
00000000: 4f42 5f3d 0016 08bd 0f25 7fbd e9b9 053e
00000010: 0fb9 9a3c 3118 2c3e e6a8 293e a5ab 7bbd
00000020: e374 cfbd 8458 8c3d 86ef 043e 2623 b13c
00000030: f360 26be 6ad7 93bd ce82 b93d 678d 6c3d
00000040: 1562 d63c b7df 3ebe b094 e53c 9bcf 0c3e
00000050: 347d 0d3d dab9 56bc 04b7 8c3d 4f99 0f3e
00000060: ac6e 80bd d6e7 4a3d ac15 4cbd 9a98 80bd
00000070: c4cf aabd 9211 82bb 75f1 8bbc 79eb 0cbd
00000080: d832 49bd a973 cabc 12e4 f3bc 7419 453e
00000090: 2dde df3d dfae 763d a80e bc3c 1946 fb3d
000000a0: 93c1 35be 80b6 053d b90b b13d c609 aa3b
000000b0: 4a4e 053b e51f 4abd 9853 debd 5cd2 133e
000000c0: cbb8 69bc f145 e5bc 00b8 473e 4334 78bd
000000d0: d241 b63d c81c a53c 93e3 a13d f7b5 eb3d
000000e0: 6448 82bd 0a89 da3d c98c a13c f51c 8e3d
000000f0: 7ecc 94bd 12a6 6a3d 2c22 bbbd fdda f7bc
0.054506596 -0.033224106 -0.0622912 0.130592 0.018887071 0.16806103 0.16568336 -0.06144299
-0.10129716 0.068528205 0.12981996 0.021623205 -0.1624792 -0.07218821 0.09058152 0.05775204
0.026169816 -0.18640028 0.028025001 0.1375107 0.03454323 -0.013105834 0.06870845 0.14023326
-0.06271109 0.049537502 -0.049825355 -0.062791064 -0.083404094 -0.0039693797 -0.01708291 -0.03440425
-0.049120754 -0.024713354 -0.029771838 0.19247991 0.109310485 0.060225364 0.022956207 0.122692294
-0.17749624 0.03264475 0.08644814 0.0051891534 0.0020340853 -0.049346823 -0.10855788 0.14435714
-0.0142652495 -0.027987452 0.19503784 -0.060596716 0.08899273 0.020155326 0.079047345 0.115093164
-0.06361464 0.106706694 0.019720452 0.06939117 -0.07265566 0.057287283 -0.09137377 -0.030255789

network.4.weight f4 [32, 64]
00000000: 3dcf 5f3b b7bc 08bc 1835 173d a16d 463e
00000010: da6e b9bc ecae 1c3e 4125 8ebc 96cc 253d
00000020: f03d d4bd 6069 93bd 83e4 9ebd fb98 f53d
00000030: 5d55 d4bd 6ede c63d ba3f 05bd 3c50 963d
00000040: 47b4 343c 6863 cebd fa0a 7abd 9984 623d
00000050: 52bd 6bbd 169b 0fbe 77f8 f9bd b11e 583e
00000060: 5333 e13c 8d6d ff3d 2372 80bd 661d ed3d
00000070: 7cfd 273c 8c7d d03d 74dd 353e 464f 93bc
00000080: e91d e13d fa78 dfbd 1753 a1be b056 803d
00000090: b52e babd d1e7 68bd 904a 22be 1fe7 393e
000000a0: c933 24bd fac1 3a3d a647 9dbd 9972 863c
000000b0: cc80 32bd b2fb 993d 1516 1d3e c015 753b
000000c0: 77dc cbbe 39ff 05be e43e c0bc e51c c3bc
000000d0: f44a b03d 8670 19be f339 813e 9b06 f1bc
000000e0: 73ee 9bbd f875 e8bd f093 003e fdc8 d3be
000000f0: c73c b13d 2847 013e 27c2 3fbd 5825 93bd
00000100: f636 e53c be45 513e b01f b2bd adbf 31be
00000110: b8ab a13d 0e31 d5bc 85b8 d03d 5c42 1f3d
00000120: 23fd e5bc 3512 27be dbfe 02be 67f7 3dbd
00000130: ec12 26be 5cc3 e2bd 7cb8 d03c 15d6 6cbe
00000140: 5cf1 a73c f796 68bd ac2a 99bc b745 4ebd
00000150: af25 b3bd 3cd4 4d3d 8c66 843d 6f8c 883d
00000160: 4be5 fcbb 9cd6 81bb 1df7 85bd 0bb8 8f3d
00000170: 8599 bebd 1f57 973d 47f8 933d e799 a63d
00000180: c260 06bd e948 7a3c 75de 073e 25ac f23d
00000190: 4e3d 79bd 387c 863e 1cce 41be f39c 183e
000001a0: 742b 40be 2e6f 4abb 0c38 40bd 6da1 633c
000001b0: 4f1c 6cbe 4a55 363d 3f8f 24be 583d f5ba
000001c0: 8147 7abd dedb a0bc 2ca6 12be 9da4 02be
000001d0: 3898 0d3c f855 0bbd eb44 9e3d 608b 5d39
000001e0: 9c88 16bd 91ee bdbd b3da e6bd 7507 6abe
000001f0: 564e 0f3d 9f14 b3bb ede1 14bd b534 2dbe
00000200: 9345 e03d fe80 2dbe 1682 d63c ed9d 8b3d
00000210: 9c14 1fbd 4865 133d 0541 cf3d 1655 103e
00000220: 2c42 953d 0b2d 86bb 31bb 39bb f23c 873a
00000230: 44a4 d2bd 1ef7 fa3d 75be 94bd da42 543e
00000240: df4c 78bd 07b2 cebd b9fe 7b3d a76e 8f3d
00000250: 4047 32bd 5dc8 09be b75d b8bd 4a66 ce3d
00000260: 903f 3ebd 3d66 edbc 1264 48bc 88eb 8c3c
00000270: 9f7b e33d b480 1ebc 51a5 f93d 63b0 34bd
00000280: c1a8 ae3d 7e9f fb3c f429 39be a6f2 43bc
00000290: 60a3 c7bd d887 113d e16c 21be efb2 bf3d
000002a0: cca5 29bc ea45 d9bd fe83 213d 280a c23d
000002b0: 40cd 15be ea17 5e3d e963 083e 9160 8fbd
000002c0: 4495 90be 1ef0 c13d 64cf b13d e2ab 9abd
000002d0: 2118 943d c151 84be 0ff0 d63d 231a a2bc
000002e0: f0b1 ec3d d93c 09be 9ece 8c3d 856f b0be
000002f0: 91a2 e23c f27b 893a 5f43 f43d 523f 97bd
00000300: b5eb 8ebc daea e4bd fc73 b23c 5c53 bf3d
00000310: c389 0c3e 9233 c33d e21e 093e c409 b93d
00000320: a2b3 89bc 6b6a 123e 1037 7a3d 2cc9 50bd
00000330: 9007 1f3d c684 a2bd 4af4 f83d e553 4f3b
00000340: 2ac8 fdbd 90dc 03bd 0ad6 273c 92fc 0d3d
00000350: 08fe ea3d 6c86 19be 7766 913c 7dcf ddbc
00000360: 9364 0f3e 7270 b1bd 5e4a c1bd 81da 093e
00000370: 077e bd3c d01f c4bd acaa 473e fa37 023e
00000380: 6086 dd3c 5418 d0bd ec84 98be a6b5 acbd
00000390: fb14 45bd 2adc bcbd 8608 80be f4cb 1b3d
000003a0: 8645 123c 9b1f 20bc 6699 0f3e b022 efbd
000003b0: b11e 1abd eb16 8c3c 9a72 bb3d 211b 90bd
000003c0: 2c85 e6be d820 a33d 67dd 7c3d a338 a6bd
000003d0: 9e42 88bb 118b 7dbe bbb2 863e dbc9 e43d
000003e0: 0068 9e3d 78c6 4cbe c239 5abc 4208 79be
000003f0: 34da 033e 4507 9a3d b4e9 ac3d 9125 06be
0.0034150623 -0.008345774 0.03691587 0.19377758 -0.022635866 0.15301102 -0.017351748 0.04047831
-0.10363376 -0.07197833 -0.07758429 0.11992069 -0.10367844 0.09710394 -0.032531478 0.07339522
0.01102931 -0.10077554 -0.061045624 0.055302236 -0.057553597 -0.14024004 -0.12205594 0.21105458
0.027490294 0.12472067 -0.0627177 0.11577873 0.0102533065 0.10180196 0.17760259 -0.017982136
0.10992033 -0.10911746 -0.31508705 0.06266534 -0.0909094 -0.056861702 -0.15848756 0.18154572
-0.04008845 0.045595147 -0.076796815 0.016412066 -0.04357986 0.0751871 0.15340455 0.0037396997
-0.3981664 -0.13085641 -0.023467489 -0.023817489 0.08608046 -0.1498433 0.25239524 -0.029422095
-0.0761384 -0.11350626 0.12556434 -0.4136428 0.086541705 0.126248 -0.046816017 -0.07184857
0.027980309 0.20436761 -0.0869745 -0.17358275 0.07894081 -0.026024368 0.10191444 0.038881645
-0.028074807 -0.16315539 -0.12792532 -0.04637852 -0.16218156 -0.11072418 0.025478594 -0.23128541
0.020500831 -0.056784596 -0.018697105 -0.050359454 -0.08747422 0.05025123 0.06464872 0.066674106
-0.0077177635 -0.003962351 -0.06541274 0.07017525 -0.09306625 0.07389664 0.072250895 0.08134823
-0.03280712 0.015276172 0.13268454 0.1184924 -0.06084948 0.26266646 -0.1892628 0.14903621
-0.18766576 -0.0030889022 -0.04692845 0.013893467 -0.23057674 0.04451493 -0.16070269 -0.0018710298
-0.061103348 -0.01963609 -0.14321202 -0.12758107 0.008642249 -0.034017533 0.07727989 0.00021128124
-0.036751375 -0.092740186 -0.11272182 -0.22854407 0.034986816 -0.0054651047 -0.036348272 -0.16914637
0.1095077 -0.16943738 0.026185077 0.06817231 -0.038838014 0.03598526 0.10119823 0.14094958
0.07288012 -0.004094725 -0.0028340335 0.0010317846 -0.102852374 0.12254165 -0.07262889 0.20728627
-0.060620185 -0.1009255 0.06152222 0.07003527 -0.04352498 -0.13455339 -0.0900225 0.10078104
-0.046447337 -0.028979415 -0.01223089 0.017202154 0.11107563 -0.00967424 0.12189735 -0.044113528
0.08528281 0.0307157 -0.1808241 -0.011959707 -0.09747958 0.03552994 -0.1576419 0.09360301
-0.01035447 -0.10609038 0.03943252 0.094745934 -0.14629078 0.054222025 0.13319363 -0.070008405
-0.2823888 0.09469627 0.08682135 -0.07552315 0.07231165 -0.25843623 0.10495006 -0.019787854
0.115573764 -0.13402118 0.068753466 -0.34460083 0.027665408 0.0010489209 0.119269125 -0.07385124
-0.017446378 -0.11177607 0.021783821 0.093420714 0.13724427 0.09531321 0.13390687 0.09035066
-0.016809288 0.14298408 0.061087668 -0.050973102 0.03882557 -0.07935481 0.121559694 0.0031635698
-0.12391694 -0.032192767 0.010243902 0.034664698 0.11474234 -0.14992684 0.017749054 -0.027076477
0.1400321 -0.08664025 -0.094380125 0.13462259 0.023131384 -0.0957638 0.194987 0.12716666
0.027041614 -0.1016089 -0.2978891 -0.08433084 -0.04811571 -0.092216805 -0.25006503 0.0380363
0.0089277085 -0.00977316 0.1402336 -0.11676538 -0.037626926 0.017100772 0.09152718 -0.070364244
-0.45023477 0.07965249 0.061734583 -0.08116271 -0.004158332 -0.24760081 0.26308236 0.111713134
0.0773468 -0.19997585 -0.013319435 -0.24319556 0.12876207 0.07520918 0.08443013 -0.13100268
