models/ppo_agent_ep40.pt (torch, 364210 bytes, 45 tensors)

network.0.weight f4 [128, 30]
00000000: 956c afbd b03c 263e a536 0e3e f9ee b3bd
00000010: 7541 7bbe 3763 bcbd e7e2 58bd 5501 d3bd
00000020: 025a d83a 9817 bd3d d26a f8bd 2fe4 b8bc
00000030: 7703 283e a6bd 743e 16ba 053e 80a4 ae3c
00000040: 1918 973c 8237 383d df27 c0bd 37b7 79bd
00000050: d3f3 0bbd 84d0 ba3d 10c7 103e 794a 303b
00000060: 083d e53d ff03 18be 6802 35be 4007 453d
00000070: 08f8 4cbd 49fc c9bd 8346 1e3d 67ee 07be
00000080: 019d 15be fc54 663d c74e 58be 512a c13d
00000090: 361d 2e3e 1e88 c03d d037 e8bd e0a2 e03d
000000a0: 9324 62bd ac1c e73c e83f 883d 8bdb 223e
000000b0: 8131 c73d 645c 0abe e939 1b3e c956 e3bd
000000c0: 68e3 2dbd fa91 763d da70 323e 86b5 253e
000000d0: 38f2 82bd 75fd 0c3e bba2 94bd 80af ab3c
000000e0: 4037 3cbc 606e ae3b 76eb b7bd 90f4 32bd
000000f0: 7644 f2bd d50c 6bbd 9203 183e 4b18 92bc
00000100: 2728 a1bd c031 a73d 3919 973c 1f61 443d
00000110: cb98 103e f903 d93c 962c df3b 41ec bd3d
00000120: 5e27 903c 3c20 2cbe b826 f73d 0e42 a1bd
00000130: 8879 0c3e 00f4 e73d c5b2 11be 174d 36be
00000140: 186e e53d 7dc0 153e aa3e 3bbe 8f5e 223e
00000150: 3e4d 123e cc2d 373e 5753 92bd b83d c83d
00000160: 016a e1bd 9abe b9bd 7e4b e0bd 05ce f3bd
00000170: 5e3e a23c b2a5 4dbc f13b 92be df94 b5bd
00000180: 72f0 a9bd 9877 2dbe ab71 f63d 09e7 9abd
00000190: ff23 a8bd ae4d 253d 0519 9ebd ffa4 963d
000001a0: a7ab bcbd 63c2 513e 7959 063e a5ff 383d
000001b0: 6a68 87bd 4e0b 9e3d 53af d63b b366 cfbc
000001c0: 04cf 4cbe f8db 6a3e 8693 09be 4443 323e
000001d0: 84de e13d 30db de3d e0a0 423c 3a13 a5bd
000001e0: 2a4d 183e 5023 32bd ce5b 623c 01ce 333e
000001f0: 0b32 f43c 7f9f 21be 2adc 1ebe 60b4 d83d
00000200: c576 4a3e 0365 f7bc f5f1 513e 6a9c 1f3d
00000210: bdef f53d 726a acbd d714 853d ed26 843e
00000220: 23a5 79bd 5e05 63bd 3fd8 24be c5e7 0d3d
00000230: 4dfb 143e e5a0 d0bd ff74 27bc c5dd c1bd
00000240: d0b7 233c 7e05 843d e972 bfbd 3061 28bd
00000250: 0420 703d 0020 5bbb 1fb1 48bd 9aae 2a3d
00000260: 0904 11be 8232 40bd 6d4b 183e 37a4 4bbe
00000270: 8d36 05be aa5b 7b3d db6a 3cbe fc24 8c3d
00000280: 3da1 bf3d c9a5 73bd a606 66bd 1b8c 14be
00000290: e2c0 76bc 5088 813c 0ac0 c33d 0086 afbd
000002a0: e51f 013e f206 83bc 73e0 b2bd 75e3 c3bd
000002b0: 5b0b f2bd 2d64 e03d 14f3 543d b4cf 173d
000002c0: 0e22 09be f8d0 d5bc 78a3 e93d 7b20 92bd
000002d0: 1288 1f3e 27fa ddbc 9108 413e 45e3 373e
000002e0: ede2 0bbe 392b 12be c926 0fbe e5a8 443e
000002f0: 84e1 cdbc ef54 fc3c e450 213e 5753 86bc
00000300: 2364 03be 66b4 433e 2f35 923d 9e32 663d
00000310: ab3c ee3d 3d69 423c 5a2a 213e a71e 11bd
00000320: 282d 833b f3c0 f0bd 445f b23d ed5d 8a3e
00000330: 88bb 543d 78fc 2a3e 5c23 383e 3bae 28be
00000340: 3a70 e5bd f0cb 35be 883c 2c3e fa4b 18be
00000350: 3c77 bbbd b1f0 1b3e 7518 c2bd e5ed 28bd
00000360: 004b dfbc 9c05 9bbc b760 383e e3a2 473d
00000370: 9a83 2a3e 8783 95ba 0e36 273e af3f 023e
00000380: 785c 5fbc b72d 0cbe c3b1 1a3e b935 083e
00000390: f98a 9dbd d4ad 4e3c eb89 20be 7d29 0e3e
000003a0: cee8 aebd ad92 b53d df71 1dbe a0f0 c13d
000003b0: 00a7 63ba e464 1bbd d05b 413c 7e4a 123e
000003c0: 11f5 40be 29d6 c83c 6770 f83c 8f72 c03d
000003d0: 867b 2dbd 1884 48bd f3f7 a2bd 5d05 ef3c
000003e0: 3b5f a7bd 1e29 eb3d ca44 793e c91e b83d
000003f0: e299 f2bd 24a7 f2bd 1634 293d b6b8 453c
-0.08565632 0.16234088 0.13888033 -0.08785815 -0.24536689 -0.09198611 -0.052950766 -0.103029884
0.0016506317 0.09233016 -0.12129749 -0.022569744 0.16407572 0.2390047 0.13059267 0.021318674
0.018444108 0.04497481 -0.09382605 -0.060965743 -0.034168076 0.091218024 0.14138436 0.0026899858
0.111932814 -0.14845274 -0.17676699 0.048102617 -0.05004123 -0.09862573 0.038641464 -0.13274537
-0.14610673 0.05623339 -0.21123801 0.09431899 0.1700333 0.09400962 -0.113387704 0.10968566
-0.05521066 0.028211914 0.06652814 0.15904061 0.09726239 -0.13511807 0.1515881 -0.11100537
-0.0424532 0.060197808 0.17425862 0.16182527 -0.06393856 0.13768561 -0.07257601 0.020957708
-0.011487782 0.0053232163 -0.089804575 -0.043690264 -0.11829464 -0.057385284 0.14845112 -0.01783385
-0.078689866 0.08163786 0.018444644 0.047944184 0.14120786 0.026491152 0.006810735 0.092735775
0.017596897 -0.16809171 0.12067932 -0.07873927 0.13718235 0.11325836 -0.14228351 -0.17802845
0.11202639 0.1462421 -0.18285623 0.15856384 0.14287278 0.17888564 -0.07144802 0.09777397
-0.11006547 -0.090695575 -0.10951899 -0.119045295 0.01980513 -0.012551712 -0.28561357 -0.088662855
-0.082978144 -0.16940153 0.12033399 -0.07563598 -0.08209991 0.040357284 -0.07719616 0.07355689
-0.092124276 0.20484309 0.13120069 0.045165677 -0.06611712 0.07717 0.006551662 -0.025317525
-0.20000845 0.22935474 -0.13435182 0.17408472 0.110287696 0.108816504 0.011879176 -0.08060308
0.14873186 -0.043490708 0.013815833 0.17559053 0.029809019 -0.15783499 -0.15513673 0.10581279
0.1977187 -0.030199533 0.20502456 0.038967527 0.12008617 -0.0841874 0.064981155 0.25810948
-0.060948502 -0.05542504 -0.16098116 0.03464486 0.14548989 -0.10186938 -0.010220765 -0.09466127
0.009992555 0.0644636 -0.09348089 -0.04110831 0.058624282 -0.0033435822 -0.04899704 0.04167042
-0.14161696 -0.046923168 0.14872523 -0.19886862 -0.1300909 0.061366715 -0.18400137 0.06842992
0.09356926 -0.059484277 -0.056158684 -0.14506571 -0.015060635 0.01581207 0.09558113 -0.0857048
0.12609823 -0.015994523 -0.087342165 -0.09564868 -0.11818572 0.10956607 0.05198963 0.037063316
-0.13391897 -0.02610062 0.11408132 -0.071351014 0.1557925 -0.027096821 0.18850924 0.1795779
-0.13660784 -0.142743 -0.13979639 0.19205053 -0.025131948 0.030802218 0.15753514 -0.016397161
-0.12831168 0.19111785 0.0713905 0.056200616 0.11632665 0.011865911 0.15738812 -0.035429623
0.004003186 -0.11755552 0.08709577 0.27024785 0.051936656 0.16697872 0.17982239 -0.16472714
-0.11203046 -0.17753577 0.16819966 -0.14872733 -0.091536015 0.15228535 -0.09477321 -0.0412425
-0.027257442 -0.018923573 0.18005644 0.048739325 0.16651765 -0.0011406996 0.16329214 0.12719606
-0.013632886 -0.13689314 0.15106873 0.13301744 -0.076925226 0.012614686 -0.15677612 0.13883014
-0.08540498 0.08865867 -0.1537547 0.09469724 -0.0008684248 -0.037938014 0.011801675 0.14286229
-0.18843485 0.024516182 0.030327035 0.0939685 -0.04235413 -0.0489541 -0.07957449 0.029177362
-0.08172461 0.11482452 0.24342647 0.08990247 -0.11845757 -0.11848286 0.04130944 0.012067964

network.0.bias f4 [128]
00000000: d490 e5bd 9c69 c13c e101 333e 9f32 01be
00000010: 756f e33d 4207 03be ba31 c13c 7fb9 c5bd
00000020: 48d3 97bd bde0 0c3d e483 1f3e 9661 fd3d
00000030: 192e c3bd 059c bbbc 2318 753d 51c5 1c3e
00000040: fddf 19be 66cb 2e3e 5317 7f3e 6f3c dfbd
00000050: c962 b73d 8aae c7bd b5da 71bc d8a9 903d
00000060: dc86 30bd e3f9 a33b 67c2 173e 9026 163e
00000070: 1bc9 da3d 211a 37be 931a 1bbe 7d8f 103e
00000080: 5e85 93bd be72 bc3d 298b 6d3d a7cb 0fbd
00000090: d32e aabb 29aa c13c b16a 0e3d d258 1b3d
000000a0: f95f 49bc 7917 c03d 309d 31bc e431 333e
000000b0: c6ba 83bc bc04 17be 630a 1f3e 4e44 c23d
000000c0: c49b 87bb ab93 5d3e f615 1abe 0c74 07be
000000d0: f57a 9c3d 7e8a c2bd 4ec7 2a3e 552c 6b3d
000000e0: 7a14 d63c 4539 eaba 0309 07be c0c8 15bc
000000f0: 5a99 f83d de5a 59bb a95a 1a3e f120 2b3e
00000100: 5e04 343d e072 32be 7155 943d 457f b5bd
00000110: 3239 6fbd b694 583d 3f73 51bd 2abb 26be
00000120: 67e5 75bc 013c 5ebc 8255 c83c 3552 aabc
00000130: 0528 7c3d 7ab1 e5bd cbcb 203e 0876 dbbd
00000140: ef79 f93d 8b1d e13d 4f54 b73c 64de 4f3d
00000150: e8ba 323d e2a9 d53d 3e14 363e d003 d8bd
00000160: 2eca c4bd b0ab f53d fc8d 31be 9f2a 85bc
00000170: ba66 423e 3a4a cfbc 2c8e 0abe aa98 05be
00000180: ab04 8a3a c6f5 efbd f47b d43d a053 2abd
00000190: 6f9c 2a3e 94c6 2c3e dbf2 a93d e9e3 bc3d
000001a0: 907e 543d 46db fc3d 4c43 d03d 3e91 b43d
000001b0: 4a7e 4dbd 1587 2bbd 158a a63c bdae 2cbd
000001c0: b56c a6bc 1177 143d 1d11 053e 01e2 05be
000001d0: d969 0d3e b07d b2bc e542 153e 8036 ae3d
000001e0: 6396 a1bc e70d 6d3e 6aa4 d13d e8a2 2d3e
000001f0: 2f92 923d 6498 a63d a779 d9bd 69de d83c
-0.112092644 0.023609929 0.17481185 -0.12616967 0.11105243 -0.12795737 0.023583282 -0.09654521
-0.074133456 0.034394015 0.15577656 0.12372129 -0.09530277 -0.022901544 0.05983747 0.15309645
-0.15026851 0.17069778 0.24911241 -0.10900199 0.08954389 -0.097500876 -0.0147616165 0.07063645
-0.043097362 0.005004154 0.14820252 0.14663148 0.10682889 -0.17881061 -0.15146856 0.14117236
-0.07203172 0.09201573 0.05799404 -0.035106327 -0.00519357 0.023640709 0.034769718 0.037926503
-0.012290948 0.09379477 -0.010840699 0.174995 -0.016080271 -0.147479 0.15531306 0.09485684
-0.0041384418 0.21638362 -0.1504744 -0.13227862 0.0764064 -0.094990715 0.16677591 0.057415325
0.02613281 -0.0017869851 -0.13187031 -0.009142101 0.121386245 -0.0033165733 0.15073647 0.16711785
0.043949477 -0.17426634 0.07242859 -0.08862165 -0.058404155 0.052876197 -0.051135298 -0.16282335
-0.015008307 -0.013564111 0.024454836 -0.020791152 0.061561603 -0.112154916 0.15702741 -0.10715872
0.1218146 0.10991963 0.022379069 0.050749198 0.04363528 0.10432793 0.1778116 -0.10547602
-0.09608875 0.119956374 -0.17339319 -0.016255675 0.189845 -0.025303949 -0.13530797 -0.13046518
0.0010529956 -0.117167994 0.10375205 -0.041583657 0.16661237 0.16872627 0.08298274 0.09223158
0.051878512 0.123465106 0.10169086 0.08816765 -0.050169267 -0.04187687 0.020329515 -0.04215883
-0.020315507 0.036246363 0.1299481 -0.13074495 0.13809909 -0.021788448 0.145763 0.08506489
-0.01972503 0.23149835 0.102364376 0.16956675 0.071567886 0.08134535 -0.106189065 0.02647324

network.2.weight f4 [64, 128]
00000000: fa84 bf3d b116 553d 3480 103d 7f68 753d
00000010: bab5 273d dc34 dfbb 8f66 3fbd 455f 8dbc
00000020: d125 413d 8099 c03a d5a2 86bd 94cd feba
00000030: 2be3 98bd adf9 d9ba 175f bbbd de93 52bd
00000040: 6baa 0cbd 412f c53d 873d 80bb 895c 3b3d
00000050: b476 8cbc 99c1 973d 0d17 453d ccb3 013d
00000060: f22d df3d 7f30 683c 28c0 9c3d fe09 fabc
00000070: 98f9 bb3d 38d2 da3d 7928 9fba 9ace e73c
00000080: fac9 433d 8db8 113d 02c5 7c3d 8bb2 5abd
00000090: d222 963d 072c 1b3d 780b db3d bba5 db3c
000000a0: 5bca 903d eb76 593d f505 9dbc 7968 afbb
000000b0: 5198 92bd 4022 64bc a97e 8e3d e3f5 36bd
000000c0: d027 373d 74da b0bc f56e ffbc 8f43 bb3d
000000d0: 5322 8d3d a2b3 e2bc eea4 973d 5f18 b3bb
000000e0: ba15 ad3d 56c2 f8b9 d182 033d 4201 bbbb
000000f0: 300e 21bd 62c9 663d 431f a73d 843c 99bd
00000100: f164 14bc f63a 1e3d 4708 683d 8617 63bc
00000110: e3bb 8dbd 2778 2fbd 257a 97bc fae0 94bc
00000120: 6fb0 4fbd 7f7f a8bd 0cd2 64bc 4f65 943d
00000130: 8d94 4c3d ad7c 5b3d fbfe 1e3c 8593 0e3d
00000140: 159a fc3d 35bb 4f3d 02aa c9bb f18a 8fbc
00000150: aac1 7e3b 6221 8abb a701 2bbc d8e1 e0bc
00000160: 7507 40bd a327 0f3e f875 183d 9abe 91bd
00000170: 5d8b bf3d 73b5 293d 93a0 03bd f7fb ddbc
00000180: b924 903d bbbd 273d 9ca9 1cbd e2c4 1cbc
00000190: 513b 94bd 592c 49bd d044 7abc f153 b5bc
000001a0: 32d4 c03d 5d8c 333b 3fdc a93d 8323 e03d
000001b0: 8a25 e63c 17d6 0ebc fb9c f33c 7258 08bd
000001c0: 82cf f93c e1ec c6bc 95e1 a6bb 6da9 d038
000001d0: bb67 84bc 9cd1 fd3b 7b2d e2bc 0628 843d
000001e0: c3b1 f33c bfdc 993d 557d 693c 0337 023c
000001f0: 7851 0b3d e422 06bd 82b3 983d c65f e23d
00000200: 67b7 523d 48d2 273d 77ed 4eba 49f1 863d
00000210: b39a 5bbd 5aba 803d bc49 9dbc 8ef1 603d
00000220: 9fc9 a7bd 8810 a93d 547a c43d a692 aebc
00000230: 3763 4e3d 059c 11bd 5def 80bb 2d89 c13c
00000240: cb93 423b a4aa 4d3d 1e7a b53d 2999 59bc
00000250: b37b 8cbd 5cc2 e83b 0b36 063c e543 e4bc
00000260: fe44 8cbd faab 9a3b 9f24 103e b6f3 183d
00000270: 21bf c43d 6145 33bd 35e7 f03c cbc9 f43d
00000280: 6989 9d3b f6f1 873d 9835 37bd 179e 1d3c
00000290: 269f 8abd b231 053e 0189 f43d 68b7 f63c
000002a0: 93d6 2d3d a015 1ebd 18ca 9f3d c4c2 d4bd
000002b0: 56b8 0bbd 104f c73c ab19 503c 9fc5 b3ba
000002c0: 5d33 2c3d 49ba 39bc b1dd b0bc 188a 79bc
000002d0: 5804 823d c50a 40bc c4c0 5b3d 7509 3dbd
000002e0: 353e 6f3b 39a7 8a3d 847c 55bd 8c07 123d
000002f0: 237a 34bd 35f2 563d 26e5 be3d 03fe b43d
00000300: 0fb7 093d 7975 df3c 11f7 eb3c 2f5e 843d
00000310: 3598 623b 0ed2 1a3d 52b7 abbd ea48 dbbc
00000320: 616e 4a3d 1622 783d b098 b2bd cee8 d23a
00000330: 3526 5f3d 1b61 f33d 6529 223d cef7 373e
00000340: de9e dc3c 0d94 f23d 5fd2 1e3d d681 063e
00000350: f693 bcbc b67e 163e 80aa e2bb f072 3ebd
00000360: ccb1 b63d ac97 1f3d 9650 b1bd 8939 8f3b
00000370: 2877 133e cc4e efbd 54f2 f8bd 2a54 f1bc
00000380: 428e 7a3d 011b 80bd d6c9 98bc 15f4 783d
00000390: 4a7c c03c 3902 eb3d 018d a43d 0f0c 8cbd
000003a0: 5083 88bd 1320 ecbd cc63 c5bc 9c92 9a3d
000003b0: 6921 a53c eca7 4e3d 2f99 b938 5f4d 40bd
000003c0: 8fa0 343d 017d cdbd 99b1 cd3d 964b 593d
000003d0: 3c26 2d3d 63ae 5c3c 4a69 2b3d 1169 26bb
000003e0: e471 213d 2e23 3ebb 6d9b 49bd f224 493d
000003f0: 445f 8b3d c722 64bd 4841 9e3d cea4 263c
0.09351535 0.052023593 0.035278514 0.05991411 0.040944792 -0.0068117213 -0.046728667 -0.017257342
0.047155205 0.0014694184 -0.065740265 -0.0019439929 -0.07465204 -0.0016630195 -0.09148996 -0.05141055
-0.03434221 0.096281536 -0.0039135846 0.045742545 -0.017146446 0.07409973 0.048117686 0.03166561
0.10897435 0.014171719 0.076538384 -0.030522343 0.091784656 0.10684627 -0.0012142799 0.028296757
0.04780004 0.035576392 0.06171132 -0.053392928 0.0733086 0.037883785 0.10695547 0.026812425
0.07069846 0.053091925 -0.01916788 -0.0053530303 -0.07157958 -0.013924181 0.06957752 -0.04466809
0.044715703 -0.021588542 -0.031180838 0.09143745 0.068913125 -0.027673546 0.07404505 -0.0054655517
0.0845141 -0.00047447038 0.032107178 -0.005706937 -0.03932017 0.056344397 0.081602596 -0.074822456
-0.009057269 0.03863045 0.05664852 -0.013860589 -0.06920602 -0.042839196 -0.01849086 -0.018173683
-0.05070537 -0.08227443 -0.013966095 0.072458856 0.049946357 0.053585697 0.009704347 0.034808654
0.12334076 0.050715644 -0.0061542997 -0.017522307 0.0038872757 -0.0042154053 -0.010437406 -0.02745144
-0.04688211 0.13979964 0.03722188 -0.071164325 0.09352753 0.04143281 -0.032135557 -0.027097685
0.07038254 0.040952425 -0.03824769 -0.009568425 -0.07237876 -0.04911456 -0.015275195 -0.022134753
0.09415473 0.0027396895 0.08293962 0.10944273 0.028094072 -0.008718035 0.02973794 -0.033287473
0.030494455 -0.024282875 -0.0050928094 9.949771e-05 -0.016162744 0.0077459347 -0.027609577 0.06452946
0.02974785 0.07512807 0.014251073 0.007947686 0.03401324 -0.032748118 0.074561134 0.110534236
0.051444437 0.040972024 -0.00078936614 0.0658899 -0.05361433 0.06285544 -0.019200198 0.054917865
-0.08192753 0.08255106 0.09593645 -0.021310162 0.050387587 -0.035549182 -0.0039347843 0.02362498
0.0029690142 0.050211564 0.08861183 -0.013281145 -0.06859531 0.0071032476 0.008191596 -0.027864406
-0.06849097 0.0047202082 0.1407647 0.037341796 0.096067674 -0.043767337 0.029407123 0.119525515
0.0048076403 0.06637947 -0.044728845 0.009620211 -0.067686364 0.13007239 0.11940194 0.030116752
0.042440962 -0.038594842 0.07802218 -0.10388711 -0.034111343 0.024329692 0.012701432 -0.0013715512
0.04204117 -0.011335918 -0.021590086 -0.015230678 0.06348485 -0.011721318 0.053650633 -0.046151597
0.0036505584 0.067701764 -0.0521207 0.03565173 -0.04406179 0.05247708 0.0932105 0.088375114
0.033621844 0.027277695 0.028804334 0.064632766 0.0034575586 0.03779798 -0.08384575 -0.026768167
0.04942167 0.060579382 -0.08720529 0.001609111 0.054479796 0.11883756 0.03959026 0.17965624
0.026931223 0.11844645 0.038774844 0.13135466 -0.023019772 0.14696774 -0.006917298 -0.04649633
0.08920631 0.038963005 -0.08657949 0.0043708724 0.14400923 -0.11684951 -0.121555954 -0.029459078
0.061170824 -0.062551506 -0.01865093 0.06077965 0.023496766 0.11475033 0.08034707 -0.068382375
-0.06665671 -0.11529555 -0.024095438 0.07547495 0.020157533 0.05045311 8.85002e-05 -0.046948787
0.044098433 -0.10033608 0.1004364 0.0530506 0.04227279 0.013469311 0.04184846 -0.0025392214
0.039415255 -0.0029012668 -0.04922049 0.0491075 0.0680528 -0.05569723 0.07727295 0.010171128

network.2.bias f4 [64]
00000000: 904f d63b 07e8 24bd b3e2 623d b313 fa3c
00000010: da8b dcbb 88d6 acbc 6d97 a3bb fd77 a63d
00000020: d841 f5ba ad06 a53d ce65 2c3d 4eaa a33d
00000030: c17e cdbc b910 37bc 4c2a 4c3d abb7 d4bc
00000040: 8c87 5cbb 12ed e73a bf0f 1fbd f197 0c38
00000050: e153 5abd 297e 2ebc 7449 58bd 58bf e0bc
00000060: 0572 ad3c 877a 273d eee6 80bd aa3a 4fbd
00000070: 4bac 58bd 3e68 b4bd 21a5 2ebd 92b1 19bd
00000080: c51c 8abd 2ce7 313d bf45 af3c dd9b 1a3d
00000090: 7709 0d3d 6473 853d 15d1 89bc 02cb 6dbb
000000a0: 7be1 d03c a525 833d 081e c73d e6a3 61bd
000000b0: 4ade 5cbc 299e 94bd 8b7a 8c3d 3406 8a3d
000000c0: 6fe8 2dbd d762 6d3d c6be 423c a3c6 a33d
000000d0: 2bdc 86bd bf24 bd3b 0bd6 3c3c 6fff 913c
000000e0: 9b8f 1ebd 0864 c33c 2154 a93a e78b 1e3c
000000f0: 539f b83d 1f31 5ebb bd1c a63d 3cb5 a2bb
0.0065402463 -0.04026034 0.05539198 0.030526971 -0.006730539 -0.02109839 -0.0049924166 0.08128355
-0.001871164 0.08057914 0.042089276 0.079914674 -0.025084855 -0.011173421 0.049845025 -0.025966486
-0.0033650128 0.0017694554 -0.038833376 3.3520108e-05 -0.05330265 -0.010650196 -0.052804425 -0.02743499
0.021172533 0.040888336 -0.06294046 -0.050593056 -0.052898686 -0.08808945 -0.042637948 -0.03752286
-0.067437686 0.043433353 0.021395562 0.0377463 0.034432855 0.0651615 -0.01682333 -0.0036284332
0.025498142 0.064036645 0.09722525 -0.055087946 -0.013480732 -0.07256729 0.06859311 0.067394644
-0.042457994 0.05795559 0.011886304 0.07996871 -0.065849625 0.0057722027 0.011525641 0.017821996
-0.03871117 0.02385141 0.0012918749 0.00967691 0.09014764 -0.003390379 0.0811095 -0.0049654525

network.4.weight f4 [32, 64]
00000000: 622f 96bd 4620 903d 8495 ea3d 2cc5 61bd
00000010: ed91 6ebc fc1b df3d 25dd 8d3c e1db 1d3e
00000020: 61e9 f6bd c759 32bb 2a10 5a3d d169 103d
00000030: 9cee edbd b408 5fbd d03f c0bb 259e fb3d
00000040: e1fa 16be 8562 253e f1aa 0abd 8e07 babd
00000050: 7214 093e 829b 8b3d 0113 633c 14da b03c
00000060: 6c15 0a3e 0d67 6dbc 2961 0fbd 75bb d2bc
00000070: f91b 2e3e 50a1 223e 67a6 ddbd fcc9 71bd
00000080: e0f1 dbbd 5d6c 0a3d 8e41 183e 5b9e eabc
00000090: 0b38 243e 55bc 473d d53b 10bc 0313 213e
000000a0: 25d8 a93d dea1 883d 8b8d a73d 7f33 4cbd
000000b0: a9cc 41be d2e1 143e f9b4 bbbd 78cb 753d
000000c0: c3f3 b23d eddf abbd 44d6 423e a413 043e
000000d0: 2fb9 c83d e0e0 a6bd 49ea 163e 3bdd 813c
000000e0: 410d ddba 42af 493e 4e8d 5cbd 6647 38be
000000f0: 36d9 1ebe 2e4e 233e acac cf3d e929 093d
00000100: 5ddd f8bd 23c5 e43b 0832 11bd b207 603d
00000110: 5200 bbbd 26e8 b93d 5e89 da3d 1301 d43d
00000120: a68c c13d ce72 bfbb a71f 883d 8556 87bd
00000130: 4acf 0e3d f809 b6bc 84b5 873d dd0e 81bd
00000140: 69b2 f3bd 705a 3bbd 2c24 9d3d 4994 0d3c
00000150: 0f29 edbc 3975 05bd c8c2 3cbd 0dee e23d
00000160: dcd2 09be bb8b dc3b 3870 973d c0db 4d3d
00000170: 7ffd 0e3d e396 b8bc 0a01 913d 302a 243d
00000180: e05b cd3d 1901 59bd 17c7 a7bd 8c65 a1bd
00000190: 34fe a8bd ba36 26bd 3588 8ebc 2ab6 94bc
000001a0: 79d2 0bbe d477 5e3c 23fe 99bd 75d2 10bb
000001b0: 48c5 27bd 878f e13d 9cbd 88bc 407f 1e3d
000001c0: 3fee d2bc dc16 7b3d a82d 30bb 1c57 bdbd
000001d0: b534 83bd 9b60 bdbd f71d af3d 0db8 06be
000001e0: 4f3b 45bd e097 16bc 9615 233d adfc 2d3d
000001f0: 5cc7 9a3d 94d5 29bd c291 4a3d 7547 82bd
00000200: 5e5c 20bc 225f 83bc 7225 243d 4fa1 f03d
00000210: 7166 8e3d e585 9f3d 2968 bf3d 7e6a 113d
00000220: 6da0 f23d 0ec5 ae3d da4f cf3d 8771 213b
00000230: 7249 5f3d efec 8a3c 3362 68bb 0dfc ddbc
00000240: 3d55 ffbb 2c19 52bd e9ed bdbc 4321 bd3d
00000250: 1cc5 153e 7037 2f3d 7a17 173d 85a7 7abd
00000260: 8899 e93d 092e ecbb dea8 a03d 2f6b 0f3e
00000270: f1ae 43bd 6628 7bbc bf1b e9bc d0e5 b6bc
00000280: 5107 be3d 451a 92bd 727e d5bd 7fb5 093c
00000290: c2aa 81bc 7d2b de3d 764b 16bd f79f be3d
000002a0: e34e d1bd 9ecf 923d 55dd c83d 746e f7bc
000002b0: b5a0 08bb e3c2 c9bd 237a 9abb 504b 7f3d
000002c0: ec60 98bd 330a 6fbd 3730 663d a487 813d
000002d0: 4893 a53d 3745 02be 5c22 ec3d 7494 803c
000002e0: ce44 8fbb 8ca2 933c c69e 573e f418 0e3d
000002f0: bae4 743d bd70 fdbd 21d2 03be 9639 ca3c
00000300: f0de f53c f90d 1ebd df41 86bd a786 b03d
00000310: 4c78 ee3d 59cc ac3d 1e5f c2bd a0c9 1cbd
00000320: 85a3 a63d e71f 7bbd a3fc 9b3c 2f28 d9bc
00000330: a95a af3d 808b 213c 995c 26bc c557 07be
00000340: 0f38 91bc efa0 b7bc f1f5 c8bc c26c c03c
00000350: 8b5a ccbc 7e71 023d 70d0 47bd 4d3d 4abd
00000360: 4a89 d1bd 6ca1 a03b 1a74 02be 28ea b23d
00000370: eef7 843d 16dc 81bc 7c1d 49bd b095 773d
00000380: 339b b23d c875 683d 6f2b 21bd c4e3 80bd
00000390: f3aa e3bb 993c 7e3b 5b0d e73d deee b63b
000003a0: 8765 423d a481 a53d 05a0 db3d 9550 7fbd
000003b0: d56a ab3d 81c4 a23d ab73 b83d 7892 e2bc
000003c0: 034f ae3d db12 c43d 8965 1ebd d7a1 e93d
000003d0: dc88 9a3d b4f4 fe3b 7d7a 99bd a0ba 67bd
000003e0: 0e98 c43c 77ff 183d e0d9 f4bd 5271 65bb
000003f0: 7320 e33d 5b7a dd3b 856c a03d 59f6 dfbd
-0.07333256 0.07037406 0.11454299 -0.05511968 -0.014561159 0.108940095 0.017317364 0.15415908
-0.12056232 -0.0027214156 0.05323807 0.035257164 -0.11617777 -0.05445166 -0.005866982 0.12286023
-0.1474414 0.16150863 -0.03385443 -0.09083472 0.13386706 0.0681677 0.013859511 0.021588363
0.13484734 -0.014489901 -0.03500477 -0.025724152 0.17002858 0.15881848 -0.10822754 -0.059030518
-0.10739493 0.03379475 0.14868757 -0.028639963 0.16037004 0.04876359 -0.008803328 0.15729909
0.082931794 0.06671499 0.08181294 -0.049853798 -0.18925728 0.14539269 -0.09165377 0.060008496
0.087379 -0.0839232 0.19027048 0.12898117 0.09800946 -0.0814836 0.1473781 0.015852561
-0.0016864912 0.19695762 -0.053845696 -0.17995986 -0.15512547 0.15947792 0.101403564 0.033487234
-0.12151597 0.0069815083 -0.035448104 0.05469484 -0.091309205 0.09077482 0.10670732 0.103517674
0.09450655 -0.005842543 0.06646662 -0.06608299 0.034865655 -0.02222155 0.06626418 -0.06301663
-0.118992634 -0.045740545 0.07672915 0.008641311 -0.028950242 -0.032582495 -0.046084195 0.11080561
-0.13459343 0.0067305244 0.07394451 0.050258398 0.03490972 -0.022532886 0.07080276 0.040079296
0.100272894 -0.052979562 -0.0819227 -0.07880697 -0.082516104 -0.040579535 -0.017398933 -0.018153269
-0.13654508 0.013578374 -0.07519176 -0.0022098098 -0.040959626 0.11013704 -0.016691975 0.038695574
-0.02574837 0.061301097 -0.0026882682 -0.092451304 -0.064065374 -0.09246942 0.08550637 -0.13156147
-0.048152264 -0.009191483 0.039815508 0.0424773 0.07557556 -0.04146345 0.04945541 -0.063612856
-0.009787647 -0.016036574 0.040074773 0.11749517 0.06953133 0.0778921 0.09346039 0.03550195
0.11847005 0.08533679 0.10122652 0.0024634318 0.054513402 0.016958682 -0.0035458922 -0.027097726
-0.0077921436 -0.051293537 -0.023184733 0.0923486 0.14625973 0.04277748 0.036887623 -0.061194915
0.11406237 -0.0072076363 0.07844709 0.14005731 -0.04777426 -0.015329456 -0.028455613 -0.02232638
0.09278739 -0.07133917 -0.10424508 0.008405088 -0.015828494 0.108481385 -0.03669306 0.093078546
-0.102201246 0.07168506 0.09807841 -0.030204035 -0.0020847742 -0.09851625 -0.004714267 0.062327683
-0.074403614 -0.058359336 0.056198325 0.063246995 0.08084732 -0.12721716 0.11529991 0.015695788
-0.004372216 0.018021844 0.21056661 0.034691766 0.059788443 -0.12375019 -0.12873127 0.024685662
0.030013531 -0.038587544 -0.06555533 0.08619433 0.116440386 0.08437414 -0.094907984 -0.038278222
0.081366576 -0.06130972 0.019041365 -0.026508419 0.08562214 0.00985992 -0.010153913 -0.13217075
-0.017726926 -0.022415606 -0.024531337 0.02348936 -0.024945518 0.031846516 -0.048782766 -0.049374867
-0.10231264 0.0049020555 -0.12739602 0.08736068 0.06492601 -0.015852015 -0.049100384 0.060445487
0.08721008 0.05675295 -0.039348062 -0.06293443 -0.006947869 0.0038793443 0.11281844 0.0055826744
0.047460105 0.080813676 0.10723881 -0.06233271 0.08369986 0.079476364 0.09006437 -0.027657732
0.08511164 0.09573909 -0.03867105 0.114078216 0.07545635 0.0077806357 -0.07494066 -0.056574464
0.023998287 0.037353005 -0.11955619 -0.003501017 0.110901736 0.0067589707 0.078331985 -0.10935659

network.4.bias f4 [32]
00000000: 156b 883d 5e7f d3bd 0b1d 1b3e bd51 83bd
00000010: 83dd 5e3d 1871 90bd 9e96 82bd 6c01 00be
00000020: 6b83 863d 6578 be3d 4f29 d53d 485a 183e
00000030: c6f4 88bd 039e 37bd c131 193d e5f9 c4bd
00000040: aa4f 083e eb34 e63c 9702 9abd cd57 32bd
00000050: a13d 833d cccb 99bc 48f0 4ebc baea ec3c
00000060: 1024 c0bd d882 893d 06d8 f8bc 4901 1a3e
00000070: 48d3 dd3d 1a15 53bc d3b8 043d 3b0e 9c3d
0.06661049 -0.10327028 0.15147798 -0.06412075 0.05441047 -0.07052821 -0.06376384 -0.12500542
0.06568035 0.09300307 0.104082696 0.1487819 -0.06687312 -0.044828426 0.037400965 -0.09617976
0.1331164 0.028101405 -0.07520025 -0.043540765 0.06408239 -0.018773936 -0.01263053 0.02892052
-0.093818784 0.067144096 -0.030376446 0.15039553 0.10831314 -0.012883449 0.032402825 0.07619902

network.6.weight f4 [3, 32]
00000000: ed7f b93d 0912 3abd 9dff 8bbd 48b4 2bbe
00000010: b9ba 003e 1a83 6c3e a6ff e33d fae3 f13d
00000020: 97d6 7b3e 8b08 673e a67b dcbb 45cf f5bc
00000030: 989b debd b929 83be ee2f 41bd 4821 44bd
00000040: 4e9d 573d 9444 8cbc 168d 5fbd 73f5 c03d
00000050: 56db 19be 7371 0ebd c97c 353e ac0b d63d
00000060: 0022 0cbb 1347 c03d b8f4 813e bb13 4a3e
00000070: 5044 303e 0983 f7bc a020 6f3d 5038 223e
00000080: 5930 fabc 7024 06be d9d9 17be 0717 853d
00000090: 5c1b e3bd 3637 193d 1434 103d bd3b 07be
000000a0: fd73 743d 7a7e 85be 7c3a ddbd 7a17 6a3e
000000b0: e604 4f3e 2c41 463d 26e3 2fbe 697a 51bd
000000c0: 063c 0d3e 6561 fb3d 07de f63d b3f3 36be
000000d0: ade5 b33d ffea 06be 97d5 07be 66ae 233d
000000e0: d0e6 333c aa23 933d 5282 6fbe ed20 44bd
000000f0: 4364 2e3e 6d01 4fbd da9f bf3d faeb 223e
00000100: 6cde 67be 0158 ca3c 2137 2b3e 56ea 2b3d
00000110: 2c3b 3f3d e720 05be b03b 1b3c 48f5 16be
00000120: 0aaa 0abe 46d6 953d 0aa4 3fbe 9aa1 223e
00000130: a759 343e a23e 8a3e 2e57 e13d 9ef9 d4bc
00000140: 5ea9 00be 0266 fb3d 23ee 963d b09a 7ebd
00000150: 5075 47bd a0c9 f93d a129 2fbe c183 19be
00000160: aa75 a53d 3183 15be add4 11bd 3cc2 3bbe
00000170: 7fd8 87bd 7ec3 e53d 162d 11be ccd9 6cbe
0.09057603 -0.045427356 -0.06835864 -0.1676799 0.12571229 0.23096886 0.111327454 0.11811061
0.24593578 0.22561853 -0.006728607 -0.03000606 -0.10869521 -0.2561777 -0.04716485 -0.047883302
0.05264025 -0.017122544 -0.05457791 0.09421816 -0.15025076 -0.034776162 0.17723383 0.10451445
-0.002138257 0.09388556 0.25382018 0.19734089 0.17213559 -0.03021385 0.058380723 0.15841794
-0.030540632 -0.13099837 -0.14829196 0.06498533 -0.11089203 0.03740617 0.035205916 -0.13206382
0.059680928 -0.26073056 -0.10802171 0.22860518 0.20216712 0.048401996 -0.17176494 -0.05114213
0.13792428 0.12274436 0.12054067 -0.17866401 0.087840416 -0.13175581 -0.13265072 0.03996124
0.010980323 0.07184537 -0.23389557 -0.047882963 0.17030434 -0.05053847 0.09356661 0.1591033
-0.22643441 0.024700167 0.16720249 0.041971527 0.04668729 -0.13000832 0.00947468 -0.14742005
-0.13541427 0.0731626 -0.1871492 0.15881959 0.17612325 0.2700091 0.11002956 -0.025997933
-0.12564608 0.12275316 0.0736964 -0.06215924 -0.048695862 0.1219666 -0.17105724 -0.14991666
0.08079083 -0.14600827 -0.035603214 -0.18335813 -0.0663309 0.11218928 -0.14177355 -0.23129958

network.6.bias f4 [3]
00000000: 114c 2a3e 1e53 e6bd d603 be3c
0.1663058 -0.11246322 0.023195188

network.0.weight f4 [128, 30]
00000000: 83d1 b6bd 0598 afbd 2a9d 23bc c762 cdbc
00000010: 9211 b53c 03e2 45bd 2484 143d 259e b6bd
00000020: d8c8 a73d a23d e4bc 7b14 3f3e 1569 b93d
00000030: f161 7dbc a3b3 95bd 105b ec3d 6fa2 9abe
00000040: 6a99 eebd e280 e7bd e61d 8a3e 8d2d 30be
00000050: b4fc 143e 88b0 c33e c97b a5bd 4346 47be
00000060: d25f 203e 0030 52bc 5f48 f8bd cc04 00bd
00000070: 0fe2 1ebe 84ef 0fbd a357 6fbd 29cf 87bd
00000080: 4702 593d b0d5 1ebd 802f b43c 709c 5abd
00000090: 51b3 063e 287e 733d 4597 0abe 9b08 afbd
000000a0: 72de 6d3e 093b fe3d 4ee1 09bd da5c 723e
000000b0: d2a1 76be 035b 953e 7ee4 453e 98b3 2ebe
000000c0: d0e8 06be f3f6 67be 3672 b2bd 9f9e 783b
000000d0: e1db 6ebd 6c22 e3bc 4af7 c0bd 3a4f f7bd
000000e0: 47c4 c9bd 00fa 9d3b bc44 963d e07f b7bc
000000f0: a9e2 313e ca3d 53bd 5036 993d 6be5 023e
00000100: cc8b 923d ef00 383e 0c95 f13d 2989 3fbe
00000110: 7d25 063e 558d 3b3c 69c4 413e 7989 f7bd
00000120: bfe9 9b3b b624 8b3d 01f3 293d 757c 20be
00000130: 9935 56bd e042 52bd 9ca6 033e 5d04 7bbe
00000140: c090 e53d 2e50 97bc 1a63 e93d 2a13 52be
00000150: a0ec 07be d8a5 013e 63dc d6bd ecc9 3c3d
00000160: 10e5 073e eea0 2e3e 95d4 acbc 535d 6e3e
00000170: b5a4 fb3c c65c cabd 6f49 1e3e 02c4 6a3e
00000180: 6944 8a3c 966a a03d d6d6 7cbd fef9 8d3c
00000190: 30e0 133d eda7 08be 512d 6c3e 0837 4e3c
000001a0: ec9f a2bd 05f8 85bd c1fd d33d 40f6 db3d
000001b0: cbc5 05be 3941 893e 9bfa 9f3d 60e1 f73d
000001c0: a472 2a3d a09f 963d 9003 2c3d 801c e13b
000001d0: 00cf 56bb 72d3 103e b930 a5bd dc2b e53d
000001e0: 535f 873d 8ca7 943d d66e 4b3d 0f98 33bb
000001f0: 61f0 36bc 5e50 f43d 8b2a 463e da90 82bd
00000200: 5a8d f23d a69c 5f3d fb69 40bc d02e 80bd
00000210: d364 543d 8970 cb3d 29e0 fa3d f5fb 03be
00000220: 6b00 ee3b 2b83 813d a4d2 79bc 5723 14be
00000230: b161 373e 3cf4 0ebe af5d f0bd 1797 19bd
00000240: f753 21be 1cb0 bb3d 9281 3a3e 8246 89bd
00000250: 7e30 103e d8cc de3c 9b63 9b3b 0040 1d3e
00000260: 24c5 f03d 603c 0bbe d858 f73d d2dc 3dbe
00000270: 860b 96be e2a6 cabd c127 21be 9e4c 95bc
00000280: c6b8 183d fd84 9cbc f538 533e d149 0fbe
00000290: ee33 23be 4c00 013e e96a 543e 77cf 163e
000002a0: dd73 133c 3cda 2c3d bfe0 143d 1bd7 5f3e
000002b0: 86af 6b3e db9f 8bbd 1c8e 113d f4bd d63d
000002c0: 8022 023e acef 013d 92e1 11be 06f1 293e
000002d0: 64ff 303d 3876 6cbd 1a29 70bd ed62 673b
000002e0: e6b5 c63d a3c2 7c3e ca84 d7bd 9c3f 803d
000002f0: 0073 463d 271c b03d 51b4 24be a9fb 223e
00000300: d224 413e 2559 8fbd 13e3 fabd 9132 343d
00000310: fb83 32be 5848 c03d 5761 bb3c b71f ee3e
00000320: 75ca 9ebd 6560 893e cbcb 803d 8b0b a23d
00000330: e317 95bd 8bad ebbd 4c26 033e 641a a33d
00000340: b03d 293e 32b5 0d3e c082 13be 3744 1bbe
00000350: e014 e7bd ce55 02bd 5aec 863a 1f94 1d3c
00000360: 5c56 883d eaaf 3f3e a814 dfbc 3b06 86be
00000370: 1ce6 2dbe 436a 203c 0b8d 1e3d c0db 1f3e
00000380: a60a 5c3e 82ec 103d 8c69 4a3e 7b27 84bc
00000390: 095d 083d 39ac 17be 1cf4 d8bd 8f87 9e3d
000003a0: 37c6 a43c ab81 023e f445 d03d 68a2 6abd
000003b0: 74a6 ae3d 6ab5 19be b098 15bc e061 b03b
000003c0: 78db 083e acb6 4e3e beb5 c6bd 0c85 833d
000003d0: 95ec 06be e983 7d3d c43d 72be e709 cb3c
000003e0: 84c1 473d 745a 1a3e e820 4fbe 8446 1d3e
000003f0: 311a 883d 1aff bb3b 52d9 1bbe 2ceb 1f3e
-0.0892668 -0.08573917 -0.009986201 -0.025071515 0.022103105 -0.048311245 0.03625883 -0.089168824
0.08192605 -0.02786142 0.18660156 0.09053246 -0.015465246 -0.073096536 0.11540806 -0.30202052
-0.11650355 -0.11303879 0.26975936 -0.17204876 0.14549524 0.3822062 -0.08080251 -0.19460396
0.15661553 -0.012828827 -0.12123179 -0.031254575 -0.15515922 -0.03514053 -0.058433186 -0.066313095
0.052980687 -0.038778007 0.021995306 -0.053371847 0.13154341 0.059446484 -0.13534267 -0.08546563
0.23229387 0.12413604 -0.033662133 0.23668233 -0.24085167 0.29171 0.19325444 -0.17060697
-0.13174748 -0.22652797 -0.0871319 0.0037936342 -0.05831516 -0.027726375 -0.09422167 -0.12075658
-0.0985189 0.004821062 0.07337329 -0.022399843 0.1737162 -0.0515726 0.074810624 0.12782829
0.071555704 0.17969106 0.117960066 -0.18704666 0.13100238 0.01144727 0.18922581 -0.12086768
0.0047580893 0.067941114 0.041491512 -0.15672477 -0.05229721 -0.05133331 0.12856525 -0.24513383
0.112092495 -0.01847085 0.11395855 -0.20515123 -0.13273859 0.1266092 -0.10491254 0.046091005
0.13270974 0.17053577 -0.02109746 0.23277788 0.030718187 -0.098809764 0.154577 0.22926334
0.016878324 0.0783283 -0.06172832 0.01733112 0.036102474 -0.13345309 0.23064162 0.012586363
-0.07940659 -0.065414466 0.10351134 0.10740328 -0.13063733 0.26807573 0.07811471 0.12103534
0.041613236 0.07354665 0.041995585 0.0068698525 -0.003277719 0.1414316 -0.08065934 0.11190006
0.066099785 0.072585195 0.04966625 -0.0027403866 -0.011165709 0.11929391 0.19352166 -0.063752845
0.11843367 0.05459275 -0.011744018 -0.06258929 0.051853966 0.09933574 0.122497864 -0.12889083
0.0072632334 0.063238464 -0.015247975 -0.14466606 0.1790836 -0.13960356 -0.11736619 -0.037497606
-0.15754686 0.091644496 0.1821349 -0.067029014 0.14080998 0.027197286 0.0047420985 0.15356445
0.117563516 -0.1359725 0.120774925 -0.18541268 -0.29305667 -0.098951116 -0.15737821 -0.01822501
0.03728559 -0.019106383 0.20627196 -0.13993002 -0.15937778 0.1259777 0.20743908 0.14727579
0.008999792 0.042200312 0.036347147 0.218594 0.23016176 -0.068175994 0.035535917 0.104854494
0.12708473 0.03172271 -0.14246204 0.1659585 0.04321231 -0.05772993 -0.058632948 0.0035306767
0.09702663 0.24683623 -0.105233744 0.062621325 0.048449516 0.0859912 -0.1608441 0.15916313
0.18861702 -0.06999425 -0.12250342 0.043993536 -0.17433159 0.093887985 0.022873564 0.46508572
-0.07753459 0.26831356 0.062888704 0.07912358 -0.07279947 -0.1150771 0.12807578 0.07964018
0.16527438 0.13838652 -0.14405346 -0.1516274 -0.112832785 -0.03182011 0.0010293827 0.009617834
0.06657097 0.1871945 -0.02723153 -0.26176628 -0.16982311 0.00979096 0.038708728 0.15611172
0.21488437 0.0353818 0.19766825 -0.016132107 0.03329185 -0.14811791 -0.10593435 0.077406995
0.020114047 0.12744777 0.101695925 -0.05728379 0.08527842 -0.1501061 -0.009130642 0.0053827614
0.1336497 0.20186871 -0.09702633 0.06421861 -0.13176186 0.061893377 -0.23656374 0.024784995
0.048768535 0.15073568 -0.20227396 0.15358931 0.066456206 0.0057371976 -0.1521962 0.15617055

network.0.bias f4 [128]
00000000: 441e 4c3e 53f8 27be 2c02 14be 0c35 5ebe
00000010: 1dc4 11bd 5dda 503e 5797 083e 83d4 d1bd
00000020: 8d2c 073d bc38 3f3e 7d3d e0bc e7e4 8abe
00000030: 5451 1d3e dea6 2b3e d8bb 1cbd 7fe1 563d
00000040: 12f5 7c3c e8c7 913e b7fe 7d3e a855 1b3e
00000050: e842 2b3e 36d1 ae3c 4993 15be 7738 30bd
00000060: 815e dfbd 9dd6 16be 8b0d 583d cf4d a23c
00000070: 8c32 5f3e c196 4d3d 048d efbd 133a 093d
00000080: 59ad aabd e940 443e 14e5 803e b2df 87bd
00000090: 4bf6 29bd 6d96 883e 84b7 453e 5d40 0a3c
000000a0: 326d 133e 36ae c0bd 6fe7 afbd fb0d 3d3e
000000b0: bce9 883d 60c5 35be be6c 7abc dc3a fcbc
000000c0: 0767 23be 1123 c33d e544 603e 3285 b43e
000000d0: 792d ab3d 4c57 363e 0bfe fc3d 56a3 623c
000000e0: 0b79 a53d e830 a53d 847c 013e e295 f93d
000000f0: e1c7 f53d ea7f 933e 8bbb c53d d82b 3c3d
00000100: f8be 263c 8918 2dbe cc62 a4bd 5956 3f3c
00000110: 3a94 063e 56e8 b03d 96f6 d7bb 9355 843d
00000120: 0c16 75bc 3fd8 5f3d 83eb 693e 5cca 303e
00000130: 1ccc 35be 3e76 26ba 60d5 5a3c 3cdc 2cbe
00000140: f486 d1b8 9d8a 1dbe 67f4 cd3d 2d0f 573e
00000150: e725 84bd effa 59bc 3c3c b8bd 60d9 823e
00000160: 34df 5f3e 2eb3 173d dd99 0bbe bf4f d3bd
00000170: f6d5 2c3e 92c5 723e 9af8 443e 4fa1 833c
00000180: 91d9 033e 3093 ab3d 2ef2 923d bdf5 853e
00000190: 9907 bebd a216 413e c076 c1bd d02a f4bd
000001a0: 491e 663e b4d1 b63d e7ad 05be 3830 a13d
000001b0: 0490 b83d c82c 16be 6431 0ebe 3c96 0ebc
000001c0: 61b2 893e dd50 103e d2f5 3a3e 47c5 6c3e
000001d0: 7938 17be 8c64 853e cd10 84be 0b4a 0e3e
000001e0: a297 473e b557 4fbe c4cb b13d 6c8e 56be
000001f0: 46f0 7b3d d5f1 2d3e cab6 333d 418a aa3d
0.1993342 -0.16403322 -0.14453954 -0.21699923 -0.03558742 0.20395799 0.13338982 -0.102456115
0.03300147 0.18673986 -0.02737307 -0.27127764 0.15363055 0.16762874 -0.03826508 0.052461144
0.015439289 0.2847283 0.24804197 0.15169394 0.16724741 0.021339994 -0.14606966 -0.0430226
-0.10906697 -0.14730306 0.05274729 0.019812493 0.21796626 0.0501926 -0.116968185 0.03350265
-0.08333845 0.19165386 0.25174773 -0.06634463 -0.04149465 0.26677266 0.19308287 0.008438197
0.14397123 -0.09408228 -0.08589064 0.18462364 0.06685206 -0.17751074 -0.015284715 -0.030789785
-0.1595727 0.09528173 0.21901281 0.3525787 0.083582826 0.17806739 0.12353142 0.013832888
0.08079728 0.08065969 0.12645155 0.12186791 0.120010145 0.28808528 0.096549116 0.04594025
0.010177366 -0.1690389 -0.080266565 0.011678302 0.13142481 0.086380646 -0.0065906746 0.064616345
-0.01495887 0.054649588 0.22843747 0.17264694 -0.17753643 -0.0006350017 0.013356537 -0.16880888
-9.9910336e-05 -0.15384908 0.10056382 0.21001883 -0.06452542 -0.013304456 -0.08995864 0.2555647
0.21862489 0.037036113 -0.13632913 -0.10317945 0.16878495 0.2370818 0.19235459 0.016068129
0.12875964 0.08377683 0.07175098 0.26164046 -0.09278793 0.1885629 -0.09446478 -0.11922228
0.2247249 0.089267164 -0.1305462 0.07870525 0.09011844 -0.1466552 -0.13886029 -0.008702811
0.26893905 0.14093347 0.18257836 0.2312213 -0.14767636 0.26053274 -0.25794068 0.13895433
0.19491437 -0.20248301 0.08681443 -0.20952767 0.06150844 0.16986783 0.043875493 0.08327151

network.2.weight f4 [64, 128]
00000000: dded 923c 9066 1e3c 084e 06bd 72cd 51bc
00000010: 3961 a1bd c2c0 a23c 24e6 82bd c06a 19be
00000020: 01f6 2f3b 259a 553d f6fe 753d 0070 8d3d
00000030: 344d d3bd 7319 36be 2b99 e0bc 895a adbc
00000040: 9a75 8b3a 83f2 133c 7dba 3b3c 52e7 03bd
00000050: ff12 8ebd 35c8 413c df66 6dbd fe07 cb3b
00000060: ec14 a6bd 2a89 c4bd 7bb9 79bd 7f87 edbc
00000070: 6e4a e3bc 567e 4a3d 1969 6d3d 202d a2bd
00000080: 5a41 213c 0745 363b bcf3 683d e23e 02be
00000090: 984d e5bd 3c33 e93c 694b 11be 2cbd 67bd
000000a0: 0657 243d c4c2 23be 10f2 683d 9571 b73b
000000b0: afbf ff3c c4e0 bcbc 1e83 e23c cd60 f0bd
000000c0: a63c a0bd 941f 3c3d 68ac 1bbc c2fe 85bd
000000d0: edb8 fc3b 3e12 e03c cfa6 82bd ef7f 5fbe
000000e0: 267d 33be 595f a7bd 7bf2 9b3d fa69 c4bd
000000f0: d6a2 153d 200f d8bd 75d8 6abe b604 e3bb
00000100: 128b 65bc b05c 81bd d0fd dabd 0680 09bd
00000110: c926 6e3d 1ea7 a1bc 7975 b0bd c06e 833d
00000120: 2a3c 7fbe 7c20 983a 40a9 07bd ec1a 843c
00000130: 3dbb 16be 093b 04be 6be6 c7bc f5e3 32bd
00000140: 911e 63bd 3125 f13c 42c3 a7bd 3911 52bc
00000150: aa09 cf3d 883f 2abe 3cf6 a4bd d926 f0bc
00000160: 488e dfbd a0df e23d d99c 8a3d 50c3 d63b
00000170: c340 6a3b afe5 b53a 1f72 af3c ad5c 753d
00000180: 3b7c 36be 0555 1a3d 105e 46bd c0e7 eb3b
00000190: e006 2fbe 86f9 093d dada 893c cb3b e1bd
000001a0: 5587 6cbd 2d3c 3ebd 566c de3c cc1b 8abd
000001b0: b5b5 4bbe b1c4 e83b cc6c bfbd ecf4 9bba
000001c0: f7be 05be 621a 9c3d b8d5 47bb ab9d 7c3d
000001d0: 7f24 203d 3966 72bd a2d3 983b b8be b5bc
000001e0: ce69 41bd d388 2abd 89ec 1c3d 0250 5bbd
000001f0: 3d25 873d aaee 483c b30f 4ebd 71b5 8ebd
00000200: 205a 5fbc b959 67bc 11c0 ecbd cb7e 91bd
00000210: ed61 3abe a57a e53d 693c 38be 9140 853e
00000220: 3da3 47bd 8d0a 313d 624c 0fbd 97a7 7abd
00000230: 6d07 d0bc 5730 f5bd 6538 163d edca eebd
00000240: 5b9d 083e 2d32 50be 7a65 dc3d e6d6 e33d
00000250: 9cf4 8fbe 76e7 1e3e 4adb b4ba 64e0 4a3e
00000260: 3d99 27be 1eb3 95bd b7f3 05bd 3ba3 45be
00000270: cd90 223e b5ea d43d 3a9b d6bd a12d 38bd
00000280: 182a 023d a727 10be bda2 12bd ed6e eebd
00000290: ef84 68bd da11 f7bc 006f 5fbd e0f3 06bd
000002a0: 419f 2b3d 154a 23be 95a7 053e 9288 953c
000002b0: 5b4a f2bc 7b8e a3bd 5e7c 643c ec12 11bd
000002c0: 0bb8 2c3e 6eb0 47bd 298d 88bd 44c4 37bd
000002d0: 79de 10be 6628 6f3d 8a49 803c 0245 cabc
000002e0: ed4e 51be 5246 75be b5bf c73d f219 1d3d
000002f0: fa31 c2bc 3baa 2ebe a41b 73bc 5203 8dbd
00000300: aa77 9d3d 1b17 693c a46f 05bb 712e f9bd
00000310: 6355 213d 8dd0 8e3d 900a 54be 01c5 19be
00000320: d4b3 de3d be6b 7f3d efca b4bd 7a7e 433d
00000330: 6963 083e 992b 75be c33b 843c 1b1b 02be
00000340: 1833 30be dfee e3bd bbd1 3bbd be6c 90bc
00000350: 0753 c53d 8f8c 5c3b 0379 67bd a800 9c3d
00000360: ef5f 5f3e c62f 9d3d 8c15 84bd ac19 24be
00000370: 1edd 85bd cdcc a9bd 7eb8 bfbc 6853 15bd
00000380: 2df8 5fbe 9a49 1bbe ab51 42bc cfc9 03be
00000390: f00d 4c3d 2659 a43d 8c19 efbd e851 93bd
000003a0: 31dd 183c 19cb 903d d9de edbb 29f2 a43d
000003b0: bc5d 72be 80b5 343d 2e20 4dbd 5548 193e
000003c0: d8d9 8bbe 6b46 123e 5ce0 173e 3209 a0bc
000003d0: 58d4 14be 0b5e ebbc 322e f93d b1bd 2e3c
000003e0: f588 12be 9dd9 1e3d 5069 873d 0319 8ebd
000003f0: b2fb 37bd 2b52 b33d 71c9 b7bd 6dbc bebc
0.017935688 0.0096680075 -0.03278926 -0.01280533 -0.07879872 0.019867305 -0.06391552 -0.14982128
0.002684951 0.052148957 0.060057603 0.06906128 -0.1031746 -0.17783146 -0.027416786 -0.021161335
0.0010639906 0.009029987 0.0114580365 -0.032203026 -0.06937217 0.011827518 -0.057959434 0.006196021
-0.08109459 -0.095964745 -0.060967904 -0.028995274 -0.027745452 0.04943689 0.057961557 -0.07918763
0.009842241 0.002781214 0.05687307 -0.127193 -0.111964405 0.028466813 -0.14188923 -0.056576893
0.040122055 -0.15992266 0.056871474 0.005598257 0.031219332 -0.023056395 0.027650412 -0.11737213
-0.07824068 0.045928553 -0.009501554 -0.06542732 0.0077124746 0.027352449 -0.063794725 -0.21826147
-0.17528209 -0.08172483 0.07614609 -0.09590526 0.036532246 -0.1054976 -0.22934134 -0.006928052
-0.014010208 -0.06316507 -0.10692942 -0.03356936 0.058142457 -0.019733008 -0.08616156 0.06417608
-0.24925295 0.0011606361 -0.033120394 0.016126119 -0.14719863 -0.12913145 -0.024401864 -0.043674428
-0.055449072 0.02943668 -0.08191539 -0.012821489 0.10109265 -0.16625798 -0.08054778 -0.029315399
-0.1091581 0.11077809 0.067681976 0.006554045 0.0035744167 0.0013877655 0.021416722 0.059902836
-0.17820828 0.037678737 -0.04842955 0.0071992576 -0.17092466 0.03368523 0.01682799 -0.10997733
-0.05774625 -0.046444107 0.027151268 -0.06743583 -0.19893534 0.0071035256 -0.09346923 -0.0011898554
-0.13061129 0.076222196 -0.0030492377 0.0616738 0.039097305 -0.05917952 0.0046639005 -0.022185668
-0.047220044 -0.041634392 0.038311515 -0.0535431 0.065988995 0.012263933 -0.05030794 -0.06968201
-0.013632327 -0.014120513 -0.11560071 -0.07104262 -0.18201418 0.11205033 -0.17991795 0.26025823
-0.04873966 0.043222953 -0.034984954 -0.061194982 -0.025394166 -0.11972111 0.036674876 -0.11659799
0.13341276 -0.2033164 0.107615426 0.11124973 -0.2811631 0.15517983 -0.0013798263 0.1981216
-0.1636705 -0.073095545 -0.032703128 -0.19300549 0.1587555 0.10396329 -0.10478826 -0.04496539
0.031778425 -0.14077626 -0.03579973 -0.11642251 -0.0567674 -0.03015988 -0.054549217 -0.03294742
0.041899923 -0.15946229 0.13052209 0.018253598 -0.029576471 -0.0798616 0.013945667 -0.035418436
0.16867082 -0.04875224 -0.06667549 -0.044864908 -0.14147367 0.058388136 0.015660066 -0.024691109
-0.20440264 -0.23952606 0.09753362 0.03835482 -0.023705471 -0.17057125 -0.014838133 -0.06885399
0.0768884 0.0142267 -0.0020360732 -0.12167061 0.03938807 0.06973372 -0.20707154 -0.15016557
0.10874143 0.06235861 -0.08827769 0.04772804 0.13319172 -0.23942412 0.016141778 -0.12705652
-0.1720699 -0.111295454 -0.04585431 -0.017629977 0.09634977 0.0033653115 -0.05651189 0.07617313
0.2181394 0.07675128 -0.06449422 -0.16025418 -0.065363154 -0.08291016 -0.023403402 -0.036456496
-0.21872015 -0.15164796 -0.0118602915 -0.12869953 0.04981798 0.08024816 -0.116747946 -0.07193357
0.00933008 0.07069988 -0.0072592315 0.08054001 -0.2366857 0.044118404 -0.050079517 0.14968999
-0.2731464 0.14284675 0.1483168 -0.019535635 -0.14534128 -0.028731367 0.12167014 0.010665343
-0.14310057 0.03878175 0.06611884 -0.06938364 -0.04491777 0.08755907 -0.08973969 -0.023283208

network.2.bias f4 [64]
00000000: 4f42 5f3d c48a aebd 7ccc 7ebd 3cbe f43d
00000010: cc8f 953c eed3 333e a59f 2a3e 43de 79bd
00000020: 4f43 fabd 41b4 c43d df42 cb3d 2623 b13c
00000030: 42ae 1cbe 6ad7 93bd e1ba 893d 5296 a33d
00000040: 6b8f c83c 4033 b4bd eb8a 8d3d 9a56 173e
00000050: 347d 0d3d b400 16bc 9309 bc3d d239 303e
00000060: ac6e 80bd d2a3 d7bc 5191 efbb 0b1c 31bd
00000070: af48 a9bd ba52 52bb 8a28 94bc 79eb 0cbd
00000080: d832 49bd a973 cabc 3235 f5bb 9caa 3a3e
00000090: 03a0 ac3d 7cce 833d ba04 6dbc 9601 f63d
000000a0: 4957 2dbe b554 093d df5c c93d 8f5d d7bb
000000b0: 4ad1 babc 94c3 b9bd fce2 9abd fa10 433e
000000c0: fa59 78b9 3df5 55bd 7a87 333e 4334 78bd
000000d0: 3e1a 7b3d a26a 043d 6f60 873d b693 0d3e
000000e0: 0725 2dbd bf38 be3d a54d 9bba 3283 683d
000000f0: 7ecc 94bd 12a6 6a3d 160b a0bd b8d0 d03c
0.054506596 -0.08522561 -0.06220673 0.11950347 0.018257044 0.17561314 0.16662462 -0.06100298
-0.12219869 0.09604693 0.09924864 0.021623205 -0.15300849 -0.07218821 0.067250974 0.07987656
0.02448245 -0.08798838 0.06911262 0.1477913 0.03454323 -0.009155441 0.09181514 0.17209557
-0.06271109 -0.026323233 -0.0073110242 -0.043239634 -0.082658164 -0.0032092766 -0.018085737 -0.03440425
-0.049120754 -0.024713354 -0.007483148 0.18229145 0.08428957 0.06435868 -0.014466459 0.12012021
-0.16927828 0.03352805 0.09832167 -0.0065724324 -0.022804875 -0.09070507 -0.07562825 0.19049445
-0.00023684642 -0.05223583 0.17532149 -0.060596716 0.061304323 0.032328255 0.0661019 0.13825879
-0.04227164 0.09288167 -0.0011848701 0.056765743 -0.07265566 0.057287283 -0.078146145 0.02549015

network.4.weight f4 [32, 64]
00000000: 3dcf 5f3b 3f54 f13a 4b37 173d 04e0 513e
00000010: da6e b9bc dbdf 283e 4e19 adbb 96cc 253d
00000020: f03d d4bd 7824 55bd 054b f9bc fb98 f53d
00000030: 5d55 d4bd 6ede c63d ba3f 05bd f644 a83d
00000040: 47b4 343c 6863 cebd e325 34bd 44ca 6e3d
00000050: 52bd 6bbd 7070 0dbe 7542 cdbd 652a 5b3e
00000060: 5333 e13c 8d6d ff3d 2372 80bd 661d ed3d
00000070: 7cfd 273c 8c7d d03d 74dd 353e 464f 93bc
00000080: e91d e13d fa78 dfbd e2fa 9cbe 05ff 9e3d
00000090: e66a 31bd 7f66 3ebd 032e 17be fa7f 423e
000000a0: c933 24bd fac1 3a3d b0fc 9bbd 5e96 043d
000000b0: 01c8 693c b2fb 993d 5733 1f3e 60c9 013c
000000c0: 6799 c9be 39ff 05be 23d5 3cbc e51c c3bc
000000d0: b6e0 de3d 5908 0abe 1f64 8c3e 78ac bbbc
000000e0: 73ee 9bbd f875 e8bd f093 003e e5a6 cebe
000000f0: c73c b13d 2847 013e cb95 20bd 5825 93bd
00000100: f636 e53c be45 513e b01f b2bd adbf 31be
00000110: b8ab a13d 0e31 d5bc 85b8 d03d 5c42 1f3d
00000120: 23fd e5bc 3512 27be dbfe 02be 67f7 3dbd
00000130: ec12 26be 5cc3 e2bd 7cb8 d03c 15d6 6cbe
00000140: 5cf1 a73c f796 68bd ac2a 99bc b745 4ebd
00000150: af25 b3bd 3cd4 4d3d 8c66 843d 6f8c 883d
00000160: 4be5 fcbb 9cd6 81bb 1df7 85bd 0bb8 8f3d
00000170: 8599 bebd 1f57 973d 47f8 933d e799 a63d
00000180: c260 06bd e948 7a3c 75de 073e 25ac f23d
00000190: 4e3d 79bd 387c 863e 1cce 41be f39c 183e
000001a0: 742b 40be 2e6f 4abb 0c38 40bd 6da1 633c
000001b0: 4f1c 6cbe 4a55 363d 3f8f 24be 583d f5ba
000001c0: 8147 7abd dedb a0bc 2ca6 12be 9da4 02be
000001d0: 3898 0d3c f855 0bbd eb44 9e3d 608b 5d39
000001e0: 9c88 16bd 91ee bdbd b3da e6bd 7507 6abe
000001f0: 564e 0f3d 9f14 b3bb ede1 14bd b534 2dbe
00000200: 9345 e03d 1034 21be 0ba1 d63c 5dc4 a73d
00000210: 9c14 1fbd f9eb 463d 6f4d ea3d 1655 103e
00000220: 2c42 953d 29fd 9d3c d58a 193d f23c 873a
00000230: 44a4 d2bd 1ef7 fa3d e5d1 94bd 4bde 603e
00000240: df4c 78bd 07b2 cebd 4a5c a73d 9c45 9c3d
00000250: 4047 32bd 1d7c fdbd 4651 95bd cc25 d73d
00000260: 903f 3ebd 3d66 edbc 29c2 50bc 88eb 8c3c
00000270: 9f7b e33d b480 1ebc 51a5 f93d 63b0 34bd
00000280: c1a8 ae3d 7e9f fb3c 4656 2dbe 6eea 7b3b
00000290: 22ec 64bd 5632 2f3d dda6 17be a527 d33d
000002a0: cca5 29bc ea45 d9bd 6d88 3f3d bc25 da3d
000002b0: aef6 a2bd ea17 5e3d 0b88 113e 5f4e 6abd
000002c0: dab6 8ebe 1ef0 c13d 78c3 cd3d e2ab 9abd
000002d0: 4281 b13d 6c45 77be ac7f 013e 0eae 24bc
000002e0: f0b1 ec3d d93c 09be 9ece 8c3d 7475 aabe
000002f0: 91a2 e23c f27b 893a 5738 ff3d 523f 97bd
00000300: b5eb 8ebc daea e4bd fc73 b23c 5c53 bf3d
00000310: c389 0c3e 9233 c33d e21e 093e c409 b93d
00000320: a2b3 89bc 6b6a 123e 1037 7a3d 2cc9 50bd
00000330: 9007 1f3d c684 a2bd 4af4 f83d e553 4f3b
00000340: 2ac8 fdbd 90dc 03bd 0ad6 273c 92fc 0d3d
00000350: 08fe ea3d 6c86 19be 7766 913c 7dcf ddbc
00000360: 9364 0f3e 7270 b1bd 5e4a c1bd 81da 093e
00000370: 077e bd3c d01f c4bd acaa 473e fa37 023e
00000380: 6086 dd3c 5418 d0bd ec84 98be a6b5 acbd
00000390: fb14 45bd 2adc bcbd 8608 80be f4cb 1b3d
000003a0: 8645 123c 9b1f 20bc 6699 0f3e b022 efbd
000003b0: b11e 1abd eb16 8c3c 9a72 bb3d 211b 90bd
000003c0: 2c85 e6be d820 a33d 67dd 7c3d a338 a6bd
000003d0: 9e42 88bb 118b 7dbe bbb2 863e dbc9 e43d
000003e0: 0068 9e3d 78c6 4cbe c239 5abc 4208 79be
000003f0: 34da 033e 4507 9a3d b4e9 ac3d 9125 06be
0.0034150623 0.0018411948 0.036917966 0.20495611 -0.022635866 0.16491644 -0.0052825576 0.04047831
-0.10363376 -0.052036732 -0.03043128 0.11992069 -0.10367844 0.09710394 -0.032531478 0.08216278
0.01102931 -0.10077554 -0.043981444 0.058298364 -0.057553597 -0.13812423 -0.10022441 0.21402891
0.027490294 0.12472067 -0.0627177 0.11577873 0.0102533065 0.10180196 0.17760259 -0.017982136
0.10992033 -0.10911746 -0.30660158 0.07763485 -0.043314837 -0.046484467 -0.14763646 0.18994132
-0.04008845 0.045595147 -0.07616556 0.032369964 0.014268876 0.0751871 0.15546928 0.007921547
-0.3937485 -0.13085641 -0.011525425 -0.023817489 0.10882704 -0.13479747 0.27420136 -0.022909388
-0.0761384 -0.11350626 0.12556434 -0.40361705 0.086541705 0.126248 -0.039205354 -0.07184857
0.027980309 0.20436761 -0.0869745 -0.17358275 0.07894081 -0.026024368 0.10191444 0.038881645
-0.028074807 -0.16315539 -0.12792532 -0.04637852 -0.16218156 -0.11072418 0.025478594 -0.23128541
0.020500831 -0.056784596 -0.018697105 -0.050359454 -0.08747422 0.05025123 0.06464872 0.066674106
-0.0077177635 -0.003962351 -0.06541274 0.07017525 -0.09306625 0.07389664 0.072250895 0.08134823
-0.03280712 0.015276172 0.13268454 0.1184924 -0.06084948 0.26266646 -0.1892628 0.14903621
-0.18766576 -0.0030889022 -0.04692845 0.013893467 -0.23057674 0.04451493 -0.16070269 -0.0018710298
-0.061103348 -0.01963609 -0.14321202 -0.12758107 0.008642249 -0.034017533 0.07727989 0.00021128124
-0.036751375 -0.092740186 -0.11272182 -0.22854407 0.034986816 -0.0054651047 -0.036348272 -0.16914637
0.1095077 -0.15742517 0.026199838 0.0819175 -0.038838014 0.048564885 0.114405505 0.14094958
0.07288012 0.019285755 0.037485916 0.0010317846 -0.102852374 0.12254165 -0.07266597 0.21959798
-0.060620185 -0.1009255 0.081718996 0.076304644 -0.04352498 -0.12377188 -0.07290892 0.10505256
-0.046447337 -0.028979415 -0.012741604 0.017202154 0.11107563 -0.00967424 0.12189735 -0.044113528
0.08528281 0.0307157 -0.16927442 0.0038439292 -0.055889256 0.042772613 -0.14809747 0.10310296
-0.01035447 -0.10609038 0.046760965 0.106517285 -0.07957207 0.054222025 0.14212053 -0.057203647
-0.2787388 0.09469627 0.10047048 -0.07552315 0.08667232 -0.24147576 0.12646359 -0.0100512635
0.115573764 -0.13402118 0.068753466 -0.33292735 0.027665408 0.0010489209 0.12461918 -0.07385124
-0.017446378 -0.11177607 0.021783821 0.093420714 0.13724427 0.09531321 0.13390687 0.09035066
-0.016809288 0.14298408 0.061087668 -0.050973102 0.03882557 -0.07935481 0.121559694 0.0031635698
-0.12391694 -0.032192767 0.010243902 0.034664698 0.11474234 -0.14992684 0.017749054 -0.027076477
0.1400321 -0.08664025 -0.094380125 0.13462259 0.023131384 -0.0957638 0.194987 0.12716666
0.027041614 -0.1016089 -0.2978891 -0.08433084 -0.04811571 -0.092216805 -0.25006503 0.0380363
0.0089277085 -0.00977316 0.1402336 -0.11676538 -0.037626926 0.017100772 0.09152718 -0.070364244
-0.45023477 0.07965249 0.061734583 -0.08116271 -0.004158332 -0.24760081 0.26308236 0.111713134
0.0773468 -0.19997585 -0.013319435 -0.24319556 0.12876207 0.07520918 0.08443013 -0.13100268
