models/ppo_agent_ep30.pt (torch, 364210 bytes, 45 tensors)

network.0.weight f4 [128, 30]
00000000: 78b4 dbbd f089 0f3e d19b ef3d 5ad6 dfbd
00000010: 130c 73be b397 d3bd c8bc 5bbd d1ed eebd
00000020: d1ca 3fbc c256 b03d 3669 03be 8ae6 39bd
00000030: 061d 123e 7b67 6b3e 3132 083e 600e bb3c
00000040: afd2 e83a 8f84 b63c 4a18 e5bd 223e 81bd
00000050: 9eaa 03bd 28c5 c13d 07d2 0c3e 9840 6db9
00000060: 083d e53d ff03 18be 6802 35be 4007 453d
00000070: 08f8 4cbd 49fc c9bd 1d8c 273d 9eca 05be
00000080: 0d4f 13be 1e90 703d 4a65 6bbe 6ced bf3d
00000090: fe53 303e e9d7 c63d 1260 e6bd 936f da3d
000000a0: b69e 5fbd bb20 033d e8d5 8e3d 7ece 253e
000000b0: dbf0 c93d a935 12be 4184 1c3e 58ac e1bd
000000c0: 5459 2cbd 0692 8a3d 09ba 253e 58f1 203e
000000d0: a035 5ebd fa4f 043e bba2 94bd 80af ab3c
000000e0: 4037 3cbc 606e ae3b 76eb b7bd 90f4 32bd
000000f0: 5437 febd 2b7d 80bd 4f57 133e 2cf2 c1bc
00000100: e40c ccbd 1bde 9e3d 921d 813c 7fd7 203d
00000110: 062e 0e3e 19db a63c 9a47 0a3c 6c38 b63d
00000120: c098 5c3c c748 2bbe 8ea7 f93d 687b b9bd
00000130: 08ba 083e 7f8a e03d bf22 08be ada0 18be
00000140: 8fd6 db3d 74f0 233e 7a83 19be a9c9 173e
00000150: 3e4d 123e cc2d 373e 5753 92bd b83d c83d
00000160: 016a e1bd 9abe b9bd c045 aebd 6c75 c0bd
00000170: 0d8c 313d 13ac 313c 00d5 88be 7ac0 94bd
00000180: 1b74 6cbd ed84 1abe cf04 123e 0ff0 92bd
00000190: 3507 58bd 04e0 153d 2491 bcbd 3b7a ce3d
000001a0: 97d8 ecbd 3f0b 4c3e 0c8d 103e 995d 163d
000001b0: 4d00 a3bd 1ebb 613d 1dd9 50bc 7416 64bd
000001c0: f86c 54be 5349 773e 8693 09be 4443 323e
000001d0: 84de e13d 30db de3d e0a0 423c 3a13 a5bd
000001e0: e08a 093e 59e9 70bd 37af 5aba 76aa 233e
000001f0: e680 313d ffc1 31be 8dc2 31be 14dd da3d
00000200: 03c0 3d3e 85b3 44bd d9b0 553e 76e6 2b3d
00000210: dae4 fa3d 3fea a7bd ca2e 2b3d 41b4 723e
00000220: 43c0 88bd 3f96 78bd 5add 29be a1d8 f43c
00000230: 63f4 1e3e 84ba d0bd 9e4f bebc bb1e d0bd
00000240: d0b7 233c 7e05 843d e972 bfbd 3061 28bd
00000250: 0420 703d 0020 5bbb 7cbe 38bd c922 383d
00000260: 05a5 0dbe 5f5b 30bd 454c 143e 6319 42be
00000270: 2b05 0abe bbb4 6a3d 8ba2 35be f92f a63d
00000280: c5cf b23d 7e95 4bbd 0d66 1ebd bcce 22be
00000290: 1494 6dbc ee13 223c f507 b53d 11cb 9abd
000002a0: 7d30 013e e2e5 91bc fce8 c0bd 421d cfbd
000002b0: 8696 e8bd c9cc ed3d 14f3 543d b4cf 173d
000002c0: 0e22 09be f8d0 d5bc 78a3 e93d 7b20 92bd
000002d0: 061b 043e 0d3f 65bd 30d2 253e 51db 1b3e
000002e0: acd7 e7bd 3df0 28be f5d6 1fbe ec36 373e
000002f0: 8aa5 3bbd 51b9 113c ade8 1d3e c635 f7bc
00000300: 1016 12be a6d0 3d3e dcae 813d 6e5b eb3c
00000310: 7358 d53d 597a b7bb 2f75 143e 1290 03bd
00000320: a6de ab3c 715c ddbd 4ddf 923d 9e35 6e3e
00000330: 88bb 543d 78fc 2a3e 5c23 383e 3bae 28be
00000340: 3a70 e5bd f0cb 35be 9a48 193e 30f2 2cbe
00000350: 322e e2bd 201c 073e 1255 abbd 76a8 86bd
00000360: cd87 55bd 28d3 b2bc 8700 223e 8950 c83c
00000370: ca0f 273e 23ad 40bb 8ad8 223e 3c15 0a3e
00000380: 6f8a 4fbd e7e5 25be 62f1 163e 75de 013e
00000390: 9764 a7bd 5a0a 953c 184a 08be 2391 1e3e
000003a0: cc1e d7bd 741d af3d df71 1dbe a0f0 c13d
000003b0: 00a7 63ba e464 1bbd d05b 413c 7e4a 123e
000003c0: 5208 33be 2516 1e3d dc88 3a3d 2694 d93d
000003d0: 0fe2 64bd edba 12bd 9a05 8abd 96e6 b43c
000003e0: 3c33 9bbd ed48 0b3e 05ab 633e 65e6 c83d
000003f0: a8a3 e2bd 5b2a edbd 35b7 9d3c 3d1e 8c39
-0.10727781 0.14017463 0.116996415 -0.10929556 -0.23735075 -0.10331669 -0.053646833 -0.11666454
-0.01170607 0.08610298 -0.12833104 -0.045385875 0.14268884 0.22988693 0.13300397 0.022834003
0.0017762984 0.022280006 -0.111862734 -0.06310679 -0.032145135 0.09461433 0.13751994 -0.00022626144
0.111932814 -0.14845274 -0.17676699 0.048102617 -0.05004123 -0.09862573 0.040905107 -0.13065574
-0.14385624 0.05873119 -0.22987857 0.093714565 0.1721954 0.0970915 -0.11248793 0.10665812
-0.054594718 0.032013636 0.06974393 0.16192052 0.09860393 -0.14278282 0.15284826 -0.110192
-0.042077377 0.06766133 0.16184248 0.15717065 -0.05425036 0.12921134 -0.07257601 0.020957708
-0.011487782 0.0053232163 -0.089804575 -0.043690264 -0.12412897 -0.06273874 0.14388774 -0.023675047
-0.09963396 0.07757207 0.01576117 0.039268013 0.13884744 0.020368146 0.008439923 0.0889748
0.013464153 -0.16726981 0.12190162 -0.09056741 0.13352215 0.10963916 -0.13294505 -0.14905043
0.10734283 0.16009694 -0.1499156 0.14823021 0.14287278 0.17888564 -0.07144802 0.09777397
-0.11006547 -0.090695575 -0.085093975 -0.093973964 0.043346453 0.010844248 -0.26725006 -0.072632745
-0.057727914 -0.1508977 0.14259647 -0.07174694 -0.05274125 0.03659059 -0.09207371 0.10081907
-0.11564749 0.19926165 0.14116305 0.036710355 -0.07959042 0.05511009 -0.012747076 -0.055685475
-0.20744693 0.24149065 -0.13435182 0.17408472 0.110287696 0.108816504 0.011879176 -0.08060308
0.13431883 -0.058816288 -0.0008342149 0.15982994 0.043335818 -0.1735916 -0.17359371 0.106866986
0.18530278 -0.048022766 0.20868243 0.04196783 0.12250681 -0.08198976 0.04179267 0.23701574
-0.06677296 -0.06069016 -0.16588345 0.029888453 0.15522914 -0.10191825 -0.023231324 -0.10162111
0.009992555 0.0644636 -0.09348089 -0.04110831 0.058624282 -0.0033435822 -0.045103535 0.04495505
-0.13832481 -0.04305589 0.1448222 -0.18954997 -0.13478534 0.057301264 -0.17737786 0.08114619
0.08731035 -0.049703114 -0.038671542 -0.15899175 -0.014500637 0.009892447 0.08839408 -0.07558263
0.12616153 -0.017809812 -0.09419438 -0.10113002 -0.11356835 0.11611325 0.05198963 0.037063316
-0.13391897 -0.02610062 0.11408132 -0.071351014 0.12900934 -0.055968333 0.16193461 0.15220381
-0.11320433 -0.16497894 -0.15609343 0.17892045 -0.045812167 0.0088942805 0.1542079 -0.030177008
-0.14266229 0.18536624 0.0633218 0.02873012 0.10417261 -0.005599302 0.14497827 -0.032119818
0.02098019 -0.108086474 0.071714975 0.23262641 0.051936656 0.16697872 0.17982239 -0.16472714
-0.11203046 -0.17753577 0.14969102 -0.16889262 -0.11043967 0.13194323 -0.08365835 -0.065751
-0.052131463 -0.021829203 0.15820514 0.024452465 0.16314617 -0.0029400073 0.15902916 0.13484663
-0.05066913 -0.16200982 0.14740518 0.12682517 -0.08173483 0.018193413 -0.13309515 0.15485053
-0.10503921 0.085505396 -0.1537547 0.09469724 -0.0008684248 -0.037938014 0.011801675 0.14286229
-0.17483643 0.038595337 0.045540676 0.1062396 -0.05587965 -0.035822798 -0.0673935 0.022082608
-0.075781316 0.13602038 0.22233208 0.09809569 -0.11066371 -0.11580344 0.019252399 0.0002672541

network.0.bias f4 [128]
00000000: 8b01 02be 39d2 c13c cfc5 3d3e 48c5 17be
00000010: 5f4c d53d 9537 01be 9e4f 553c df87 cebd
00000020: 52b3 88bd 183b 343d 23e8 1a3e 369d fc3d
00000030: 3649 d4bd 3964 01bd 2a23 3b3d bb28 273e
00000040: 21a5 18be bc84 303e 59eb 703e 9f5b f1bd
00000050: 10ca bf3d e16c acbd 4590 adbc 8632 873d
00000060: 1d41 08bd c0dd b93b bff4 1a3e f302 113e
00000070: 0ebd de3d 84e8 34be 2115 13be 0e6f 113e
00000080: a65a 9cbd 7c51 bf3d 1381 803d 6e7f 07bd
00000090: 64b1 00bc 7da8 063d f33f 233d ad02 0c3d
000000a0: 173b 5abb b5c3 c43d ff48 3fbc 169a 253e
000000b0: 4081 c4bc b22c 16be f311 243e 077b b83d
000000c0: 78b2 82bc b145 533e e359 15be a122 f2bd
000000d0: 5e63 9b3d fe83 a5bd 3fa7 2b3e c428 7a3d
000000e0: 0cc8 723c 157c 4fba bd58 19be ff8a ab3b
000000f0: 63a3 003e 7ac5 e13b 614d 203e d401 2a3e
00000100: 3508 fc3c 1be1 21be 5dce 8a3d 4c7f b1bd
00000110: 7d0d 61bd b055 4d3d 35fd 6dbd 8d9d 2cbe
00000120: 0699 93bc 2973 b3bc c972 633c 3674 4dbc
00000130: 8f93 623d 34ce e8bd 89bc 1d3e c103 dcbd
00000140: 659a ef3d 1de1 ec3d cac1 a73c d925 563d
00000150: 3f09 163d 9199 c63d 3eb5 383e 0e50 e7bd
00000160: 7a5c d3bd 2f2f fd3d 3454 38be 8af7 25bc
00000170: c46a 3e3e e1fe 85bc c4ec 09be bc0d 04be
00000180: 99ab 13bb 930e ddbd e3c9 cb3d 5e93 52bd
00000190: 8796 253e a99c 323e 2155 9f3d 6271 ba3d
000001a0: ec79 6a3d 76ce f13d ee72 e33d 1c34 ac3d
000001b0: fde8 48bd d271 edbc 33fa f03b 4b81 32bd
000001c0: dc1d aebb 262c e13c 02c7 133e 934f 04be
000001d0: 65e6 f83d d733 d8bc edf5 163e 065d 9a3d
000001e0: c35a 3dbc 20d0 6c3e 0700 c93d afff 1f3e
000001f0: 8956 9f3d 30c4 993d cb36 e0bd de14 463d
-0.12695901 0.023659812 0.18532489 -0.1482135 0.10414957 -0.12618859 0.0130194705 -0.10084509
-0.06674828 0.04400167 0.15127616 0.12334673 -0.103655264 -0.03158972 0.045687832 0.16324131
-0.14906742 0.17238134 0.23527278 -0.117850535 0.09364712 -0.084192045 -0.021186957 0.066014335
-0.033265222 0.0056721866 0.15132426 0.14161281 0.10875903 -0.17666823 -0.14363529 0.1420252
-0.07634477 0.09341714 0.06274619 -0.03308051 -0.007854793 0.032875527 0.03985591 0.03418224
-0.003329938 0.09607641 -0.0116751185 0.1617206 -0.023987412 -0.14665487 0.16022472 0.090078406
-0.015954241 0.20632054 -0.1458507 -0.11823011 0.07587312 -0.08081816 0.16763018 0.061074033
0.014818203 -0.0007914913 -0.14975257 0.0052350755 0.12562327 0.006889996 0.15654518 0.1660226
0.030765632 -0.15808527 0.06777642 -0.08666858 -0.054944504 0.050130546 -0.058102805 -0.16856976
-0.018017303 -0.021905499 0.013882347 -0.012539914 0.055316504 -0.11367455 0.15403952 -0.107429035
0.1169937 0.115663745 0.020478148 0.052282188 0.03662991 0.09697259 0.18037888 -0.11294566
-0.10320373 0.12362515 -0.18000871 -0.010129819 0.18595415 -0.016356887 -0.13469225 -0.12895864
-0.00225327 -0.107937954 0.09950616 -0.05141007 0.16170703 0.17442574 0.07779909 0.09103657
0.05724518 0.118069574 0.111059055 0.084083766 -0.04905032 -0.028984938 0.007354045 -0.043580335
-0.005313618 0.027486872 0.14431384 -0.1292098 0.12153319 -0.026391907 0.1474225 0.07537274
-0.011557284 0.23126268 0.09814458 0.1562488 0.07780177 0.07508123 -0.10947951 0.048359744

network.2.weight f4 [64, 128]
00000000: 3623 db3d ad75 923d 48a3 2b3d fcc8 3c3d
00000010: 638c 1d3d 3d8f 1dbc e53d 59bd 1db3 a3bc
00000020: 673f 743d 3ccc acbb dc16 7ebd 2396 ab3b
00000030: a212 78bd 8f28 3bbb 8dc3 b1bd f1ea 23bd
00000040: b14d e5bc a1d3 d63d 6650 1bbc 2f99 6e3d
00000050: 3e39 6dbc 86a0 9f3d a3d0 313d 701d f23c
00000060: aa6f f93d 69ff 5d3c 4a48 943d 1bb1 02bd
00000070: 6661 ba3d 8475 d43d ac87 a23b 10c7 eb3c
00000080: 8c1a 813d 934e 103d 5bb8 8c3d 95f5 3ebd
00000090: 1568 7e3d 605a 293d 8297 dc3d ff6d d33c
000000a0: 06e3 9a3d 464c 773d 7c51 84bc ed1e b7bb
000000b0: 569c 74bd 7c03 12bc 2f86 8f3d 78e1 56bd
000000c0: c936 333d fb51 77bc 00fc 10bd c848 ab3d
000000d0: fa6f a83d d394 b1bc a2e2 ad3d 288e 063b
000000e0: 8765 c03d 76ef 8eba b6ad 2b3d 6cd4 80b9
000000f0: 2252 2fbd 2162 763d 91ef af3d 2ca8 96bd
00000100: 5a2d 443c cfd2 073d 7d6c 363d a36a 9abc
00000110: 069c 78bd d72d 47bd 7559 c0bc cab8 49bc
00000120: 08bb 32bd 6ff3 97bd af91 8bbc 9580 943d
00000130: 5ad2 4f3d 0d41 5d3d e5e9 273c f552 223d
00000140: 69b2 e83d cee5 513d 7aa9 883b 688e 8bbc
00000150: 6123 603c 0bdc 30bc 5c42 f4ba 49e9 a5bc
00000160: e8a7 68bd 8d5c 163e b0dc 033d 8c00 a9bd
00000170: 9f75 c83d 686c 103d 61cc ebbc 1f92 a5bc
00000180: a691 933d d435 1a3d 50b9 0bbd c9ab cfbb
00000190: f83c 8bbd 9015 52bd f4ed b6bc 225e 9dbc
000001a0: 3dad cb3d 47d5 2d3c 139b 9a3d 5888 ee3d
000001b0: 13e5 f33c f111 9f3a 517f f63c e24d afbc
000001c0: 6a77 003d e60d a6bc 2ee7 f83b 433c bd3b
000001d0: 53ab 87bc 2845 583c 427b febc 03a4 923d
000001e0: 1d68 003d 612b b23d 5d81 48ba f45f 373c
000001f0: 7b5c fd3c f222 19bd 13bc aa3d 7a74 e23d
00000200: 1c72 2d3d 8dcd 1b3d cfcd b439 87b6 433d
00000210: a772 77bd eaed 6a3d b6b7 16bd 57f6 373d
00000220: b8a9 9ebd 00b3 a53d b88d ba3d 3635 f0bc
00000230: 3532 703d 4d94 56bd 8d82 043c 2840 bc3c
00000240: d3fe 35bc 8e34 423d acd5 8f3d f014 7fbb
00000250: 7be3 82bd bb94 8f39 fb04 913b 1f47 0fbd
00000260: 2ae2 8dbd 1231 94bb 56f2 033e de4d 223d
00000270: 3038 b33d 2f9d 19bd 267a a93c 6b7d ee3d
00000280: c1b5 31bb 51f9 823d ac48 5ebd bb8a 5ebb
00000290: 0fcb 9cbd a18a ff3d de86 e53d 2811 903c
000002a0: 6d7b 153d c7df 4cbd 8f9e 933d 107e ccbd
000002b0: af85 d3bc ebbb bd3b 1fb8 003c 808f 82ba
000002c0: 3979 183d 9479 1abc 3cd5 57bc 8598 59bc
000002d0: a212 733d bc74 57bc 0078 1a3d 4e1e 47bd
000002e0: 1e3b 1bbc 7ab2 983d d842 05bd 4c77 fc3c
000002f0: 326e 3cbd 7be1 253d 61e4 9a3d ab29 aa3d
00000300: aad5 803c 0d82 bb3c 942b 123d 1937 3f3d
00000310: d12d 1dbc bb1e cc3c c402 b0bd ab7c 17bd
00000320: 2d12 4c3d 523b 8d3d 2959 a9bd 18a5 4dba
00000330: 1f8a 503d b977 e73d c043 e63c 88aa 363e
00000340: 9645 c93c 6322 f83d a2cc 183d 988a f83d
00000350: 7cac 0dbd 3f0b 0d3e 1194 fdbb bd56 21bd
00000360: be3a b03d 067d d63c 33a9 b5bd ad71 28bc
00000370: f111 053e 8a24 06be b671 e8bd 2936 07bd
00000380: 3bd9 7a3d 69b7 a2bd 69e7 b9bc 89bb 883d
00000390: 27cf d03c e921 ee3d 14f3 803d ba12 8dbd
000003a0: d98f 95bd 92bf febd 16cf f6bc 34c7 a73d
000003b0: 817c 1d3c 956b 4c3d 204d feba 3e99 62bd
000003c0: 67cd df3c 7b3a c3bd 426e d43d c1ba 5c3d
000003d0: 55c2 2e3d 3cdc 6ab9 1616 083d 6aa3 c83b
000003e0: e892 e93c 044d 08bc c955 6cbd c939 493d
000003f0: f2be 833d b440 7bbd b9b9 9e3d 8253 90bc
0.10700075 0.07151351 0.041903764 0.04609011 0.03846396 -0.00961667 -0.053037543 -0.019982869
0.059630778 -0.00527337 -0.06203352 0.0052364036 -0.060564645 -0.002855811 -0.086798765 -0.04001898
-0.027991148 0.10489584 -0.009479618 0.058251556 -0.01447898 0.07794289 0.043411862 0.029555053
0.12179501 0.013549664 0.072403505 -0.031907182 0.091006085 0.10373977 0.004960021 0.028781444
0.063038915 0.035231184 0.068711005 -0.046620924 0.06211098 0.041345954 0.10771085 0.025809286
0.075628325 0.060375474 -0.016152136 -0.0055884034 -0.059719406 -0.008911964 0.07008015 -0.052461118
0.04375342 -0.015095229 -0.035396576 0.08363491 0.08224483 -0.02167741 0.084904924 0.002053151
0.09394365 -0.0010905105 0.04191371 -0.0002457233 -0.042802937 0.060152177 0.085906155 -0.07356295
0.011973703 0.033160027 0.044537056 -0.018849676 -0.06069567 -0.0486277 -0.023480156 -0.012312124
-0.0436354 -0.07419478 -0.01703724 0.072510876 0.050737716 0.054017115 0.010248636 0.039629895
0.11362154 0.05124455 0.004170594 -0.017035678 0.01368031 -0.01079465 -0.0018635499 -0.02025284
-0.056800753 0.14683743 0.032192886 -0.082520574 0.097880594 0.035259634 -0.028783979 -0.020211278
0.072055146 0.03764899 -0.034112275 -0.006337617 -0.06798738 -0.051290095 -0.022330262 -0.019209925
0.09945152 0.010609931 0.07549109 0.11647099 0.029772317 0.0012136084 0.030090006 -0.021399442
0.031363882 -0.0202703 0.007595918 0.005775006 -0.016561186 0.013200082 -0.031064633 0.07160189
0.03134929 0.0869968 -0.0007648671 0.011192311 0.030927887 -0.037386842 0.083366536 0.110573724
0.04234515 0.038037825 0.00034485615 0.047781494 -0.060412075 0.0573558 -0.036796294 0.044912662
-0.07747215 0.08090782 0.09109062 -0.029322248 0.05864163 -0.052387524 0.008087766 0.02297981
-0.011108118 0.0474134 0.070231766 -0.0038922392 -0.06391045 0.00027385898 0.0044256425 -0.034979936
-0.06927903 -0.004522451 0.12885413 0.03962504 0.08750951 -0.037503418 0.020688128 0.11645015
-0.002711639 0.063952096 -0.054268524 -0.0033957202 -0.07655918 0.12477613 0.112073645 0.017586306
0.03649466 -0.0500181 0.07207977 -0.09984982 -0.025820581 0.005790224 0.007856398 -0.0009960979
0.037224982 -0.009428401 -0.013173398 -0.013280992 0.05934394 -0.01315039 0.037712097 -0.048612885
-0.009474544 0.07455917 -0.03253445 0.030818604 -0.046003528 0.040498238 0.07563091 0.08308729
0.015726883 0.022889161 0.03568609 0.046683405 -0.009593443 0.024916997 -0.085942775 -0.036984127
0.04982202 0.0689608 -0.08268959 -0.000784473 0.050912973 0.11302132 0.028108478 0.1783849
0.024569314 0.12115934 0.037304528 0.1213581 -0.034588322 0.13773821 -0.007738598 -0.03938936
0.08604954 0.026182663 -0.08870163 -0.010281009 0.12995125 -0.13099876 -0.11349814 -0.033010636
0.061242323 -0.07945139 -0.022693353 0.066763945 0.025489403 0.116275616 0.062963635 -0.068883374
-0.073028274 -0.12438883 -0.030128043 0.08192292 0.009612204 0.049907286 -0.0019401647 -0.055321924
0.027319623 -0.09532639 0.103725925 0.05388904 0.0426658 -0.00022398023 0.033224188 0.006122996
0.028512433 -0.008319143 -0.057699 0.049127374 0.06432904 -0.061341003 0.077502675 -0.017617945

network.2.bias f4 [64]
00000000: 45a8 2a3c 0f0e 35bd 7874 583d bcb6 d03c
00000010: 1c5b 1abc 5ecc c9bc 6d97 a3bb 2dc6 ab3d
00000020: 432d 8dbb 2d7c 983d 232e 3e3d 6780 b83d
00000030: 8f2e e7bc 6235 c0bc 2f54 2f3d a792 dbbc
00000040: e952 69bc 81e6 583b bf0f 1fbd d6ba e2bb
00000050: a9e6 62bd 2575 83bc 5ed8 64bd a153 92bc
00000060: 00be b73c efaa 3f3d 09c5 8bbd 6c63 6bbd
00000070: 66d0 48bd 72c0 a7bd bb47 20bd ee06 11bd
00000080: c51c 8abd 7561 403d c1c1 8c3c 5033 093d
00000090: e639 053d 97ec 8c3d 73fc 27bc 0f12 2e3b
000000a0: e4ce e93c a666 813d 10b4 b93d d7dd 6fbd
000000b0: b285 b5bc b377 8dbd 94d8 943d 1451 963d
000000c0: 8a50 2abd 9264 703d 60c5 f13b 7bf1 ae3d
000000d0: bda3 8dbd 090c 133c 980e bb3b 33e6 693c
000000e0: 97d6 1abd afbc 9c3c 3504 c33a 2301 083c
000000f0: 58cc b13d 6dd2 303c acd4 973d 4c96 d23a
0.010416095 -0.04420286 0.05284545 0.02547776 -0.009421136 -0.024633583 -0.0049924166 0.083874084
-0.004308374 0.0744556 0.04643072 0.09008866 -0.028220443 -0.023462955 0.042804893 -0.026803328
-0.014240959 0.0033096375 -0.038833376 -0.0069192452 -0.055395756 -0.01604707 -0.055870406 -0.017862143
0.022429466 0.046793874 -0.06824691 -0.057467863 -0.04902687 -0.08191003 -0.039130908 -0.035407
-0.067437686 0.046967942 0.017182233 0.0334962 0.03252592 0.068810634 -0.01025306 0.0026561057
0.028541036 0.06318407 0.09067547 -0.058561172 -0.022158477 -0.069075964 0.072678715 0.07339683
-0.041580714 0.05868966 0.0073782653 0.085421525 -0.06915996 0.008975037 0.005708527 0.014276075
-0.037802305 0.01913294 0.0014878573 0.008301052 0.086815536 0.010792357 0.07413611 0.001606652

network.4.weight f4 [32, 64]
00000000: 5492 a6bd c7f4 863d 9c84 e83d 3cf5 6dbd
00000010: 3620 a438 5bfb e43d 25dd 8d3c fd89 163e
00000020: 7493 e7bd 2b81 14bc 03c3 373d c899 c43c
00000030: 37b6 e0bd e918 d8bc 5d6e 8b3b 9bd9 de3d
00000040: 34ba f5bd c9cd 183e f1aa 0abd c299 c2bd
00000050: f064 023e 1c6b 893d 9ec1 f83c df26 323c
00000060: e575 063e 42d5 82bc bd03 14bd 3fce a4bb
00000070: 76e3 2d3e 55ce 183e c0a4 bebd 5956 57bd
00000080: e0f1 dbbd bcac f23c 0965 0b3e 63c0 4ebc
00000090: aefb 1e3e 55e0 133d 6c80 9f3c 6483 1b3e
000000a0: f32f 943d aa8e 893d 2d34 c13d 18dc 16bd
000000b0: 2d4b 28be ee83 1c3e db27 c6bd d366 7b3d
000000c0: c2ad b63d abda abbd d8d6 3f3e 1393 0b3e
000000d0: 196e ca3d a993 acbd 2ad2 0d3e 1e8b 043d
000000e0: d2d5 83bb ce3a 403e fc93 63bd b195 28be
000000f0: efa4 09be a25f 263e bbbd bc3d 4cbe 053d
00000100: 5ddd f8bd 23c5 e43b 0832 11bd b207 603d
00000110: 5200 bbbd 26e8 b93d 5e89 da3d 1301 d43d
00000120: a68c c13d ce72 bfbb a71f 883d 8556 87bd
00000130: 4acf 0e3d f809 b6bc 84b5 873d dd0e 81bd
00000140: 69b2 f3bd 705a 3bbd 2c24 9d3d 4994 0d3c
00000150: 0f29 edbc 3975 05bd c8c2 3cbd 0dee e23d
00000160: dcd2 09be bb8b dc3b 3870 973d c0db 4d3d
00000170: 7ffd 0e3d e396 b8bc 0a01 913d 302a 243d
00000180: e05b cd3d 1901 59bd 17c7 a7bd 8c65 a1bd
00000190: 34fe a8bd ba36 26bd 3588 8ebc 2ab6 94bc
000001a0: 79d2 0bbe d477 5e3c 23fe 99bd 75d2 10bb
000001b0: 48c5 27bd 878f e13d 9cbd 88bc 407f 1e3d
000001c0: 3fee d2bc dc16 7b3d a82d 30bb 1c57 bdbd
000001d0: b534 83bd 9b60 bdbd f71d af3d 0db8 06be
000001e0: 4f3b 45bd e097 16bc 9615 233d adfc 2d3d
000001f0: 5cc7 9a3d 94d5 29bd c291 4a3d 7547 82bd
00000200: cc52 85ba 3c85 43bc 21f0 1e3d 2569 ed3d
00000210: 05b7 6a3d cdd9 9a3d 2968 bf3d de5b 2d3d
00000220: e90b ec3d 0ad6 bc3d de1a e43d 803e 973c
00000230: d667 353d fca4 20bc d26a 6ebc b3ac 4abc
00000240: c534 eebc aa41 1cbd e9ed bdbc 478c c43d
00000250: 4af1 1c3e 0fb7 313d 44b4 b03c 8ff3 47bd
00000260: 87fd f43d 8953 b1bb 5d8f 9f3d ffad f93d
00000270: e896 3abd b1e6 7bba 9974 33bd de92 fdbc
00000280: 5107 be3d 0a20 7ebd 7110 b6bd b5c3 15bc
00000290: 1ab2 1abc 4b26 f93d 8073 65bd 3a1e d03d
000002a0: 7aec bfbd 4312 933d 3b13 ae3d 1459 3bbd
000002b0: 2d1c bdbc dfa2 dcbd 42c2 343b 8592 723d
000002c0: d1ad 9cbd 26fc 6ebd 171f 6a3d bed5 5f3d
000002d0: 78ca a23d 2f8c 06be 46c0 fd3d 4e97 6aba
000002e0: f45e aabb 783d ea3c 1c43 563e 96eb a63c
000002f0: ed5d 283d 9ba6 07be 8002 eebd a16a c03c
00000300: 17dc 123d 3dfd 07bd a2e7 8ebd 535d a23d
00000310: 4107 da3d a91a a53d 1e5f c2bd e887 11bd
00000320: f478 9a3d abcd 83bd b4b9 b73c dc53 14bd
00000330: a927 a43d faa1 13bc 8062 83bc 0016 ffbd
00000340: c02b 2dbd d862 a9bc f1f5 c8bc eb8b e73c
00000350: ceb8 babc 37c1 b53c f5b7 70bd d330 59bd
00000360: f826 d7bd dbff 2b3c 1f1d 07be ea18 903d
00000370: 728a 8d3d 2b3c 95bc 163b 77bd 5805 783d
00000380: 339b b23d b96e 4e3d 9420 04bd 2fdb 86bd
00000390: 5ad0 09bc 8795 7c3c 4dc7 7d3d 2095 8a3b
000003a0: b211 783d 85fe 973d 909b d53d 3f1d 84bd
000003b0: d031 8f3d 86d8 a93d ee96 b73d df2e f4bc
000003c0: f0a4 ac3d db12 c43d b1c5 51bd 6212 e93d
000003d0: 4835 a93d 4706 b53c 91aa 89bd 7c7a 81bd
000003e0: 6a07 853c 5a02 313d 2920 0bbe 3d41 9cbc
000003f0: 220f ca3d 6dd8 493c 3bfe a83d 0c1e c7bd
-0.081333786 0.06589656 0.11353418 -0.0580952 7.826129e-05 0.11180755 0.017317364 0.14701076
-0.11307421 -0.009063999 0.044863712 0.02399911 -0.10972255 -0.026379066 0.0042550997 0.10881349
-0.11998406 0.14922251 -0.03385443 -0.09501983 0.12733817 0.067098826 0.030365761 0.010873525
0.1313091 -0.01597083 -0.036136378 -0.0050294693 0.169813 0.1492246 -0.09308767 -0.052572582
-0.10739493 0.029623382 0.1361276 -0.012619111 0.15525696 0.03610261 0.019470416 0.1518684
0.07235708 0.06716664 0.0943378 -0.03683099 -0.16434927 0.15284702 -0.096755706 0.061377358
0.089198604 -0.08391317 0.187343 0.13630323 0.09884281 -0.084266014 0.13849702 0.032359235
-0.004023292 0.18772432 -0.05556105 -0.16463353 -0.13441823 0.16247419 0.09215876 0.032652184
-0.12151597 0.0069815083 -0.035448104 0.05469484 -0.091309205 0.09077482 0.10670732 0.103517674
0.09450655 -0.005842543 0.06646662 -0.06608299 0.034865655 -0.02222155 0.06626418 -0.06301663
-0.118992634 -0.045740545 0.07672915 0.008641311 -0.028950242 -0.032582495 -0.046084195 0.11080561
-0.13459343 0.0067305244 0.07394451 0.050258398 0.03490972 -0.022532886 0.07080276 0.040079296
0.100272894 -0.052979562 -0.0819227 -0.07880697 -0.082516104 -0.040579535 -0.017398933 -0.018153269
-0.13654508 0.013578374 -0.07519176 -0.0022098098 -0.040959626 0.11013704 -0.016691975 0.038695574
-0.02574837 0.061301097 -0.0026882682 -0.092451304 -0.064065374 -0.09246942 0.08550637 -0.13156147
-0.048152264 -0.009191483 0.039815508 0.0424773 0.07557556 -0.04146345 0.04945541 -0.063612856
-0.001017177 -0.011933621 0.038803224 0.1159232 0.057303447 0.075610735 0.09346039 0.04232394
0.11525709 0.09220512 0.11137937 0.01846242 0.04428848 -0.00980496 -0.014551835 -0.012370276
-0.029077897 -0.03814856 -0.023184733 0.09597068 0.1532642 0.04338747 0.021570332 -0.04881626
0.11962419 -0.0054115695 0.07791016 0.1219139 -0.04555407 -0.0009609266 -0.043812368 -0.03095382
0.09278739 -0.062042274 -0.08889855 -0.0091408985 -0.009441877 0.12165507 -0.056018353 0.10162015
-0.09371276 0.071812175 0.08499762 -0.04573925 -0.023084724 -0.10773253 0.0027581607 0.059221763
-0.0765034 -0.058345936 0.057158556 0.0546472 0.07948774 -0.13139413 0.12390189 -0.0008948938
-0.0051993076 0.028593764 0.20924038 0.020376008 0.0411052 -0.13247149 -0.116215706 0.023488345
0.035854425 -0.03320049 -0.06977774 0.079279564 0.10645915 0.08061726 -0.094907984 -0.03553
0.07542601 -0.064357124 0.022427417 -0.036212787 0.08015377 -0.009010786 -0.01603818 -0.12455368
-0.04227805 -0.020677015 -0.024531337 0.02826496 -0.0227932 0.022186859 -0.058769185 -0.053025078
-0.105054796 0.010498012 -0.13194703 0.07036002 0.06911172 -0.018217167 -0.060359083 0.06055197
0.08721008 0.050398562 -0.03225763 -0.06584775 -0.008411491 0.0154165095 0.061957646 0.004229203
0.06056375 0.074215926 0.10430062 -0.06450891 0.06991923 0.08293252 0.089643344 -0.029807506
0.08429897 0.09573909 -0.051213924 0.11380459 0.08262116 0.02209772 -0.06721986 -0.0632219
0.016238887 0.043215133 -0.13586487 -0.019074077 0.098661676 0.012319666 0.082516156 -0.09722528

network.4.bias f4 [32]
00000000: 8972 903d 5e7f d3bd b05b 153e eaf3 8bbd
00000010: 8531 433d 2abd 98bd 9e96 82bd 1be0 ffbd
00000020: 71e4 873d 07ad cd3d 56d1 c93d 2390 173e
00000030: 00bf 8ebd 3d77 57bd 5638 fd3c e5f9 c4bd
00000040: c3bd 083e eb34 e63c f71f 97bd d831 65bd
00000050: b61d 953d 4cc6 96bc c689 a7bc 8300 e23c
00000060: 1024 c0bd a126 903d 2efc abbc e2b6 143e
00000070: f859 e23d 1a15 53bc 530a 243d cb56 a13d
0.07053096 -0.10327028 0.14585757 -0.06833632 0.047654647 -0.07457955 -0.06376384 -0.124939166
0.066353686 0.10042768 0.09854381 0.14801078 -0.06970024 -0.05260395 0.030910652 -0.09617976
0.13353638 0.028101405 -0.07379144 -0.055955738 0.072810575 -0.018405102 -0.020451438 0.027588135
-0.093818784 0.07038618 -0.020994272 0.1452289 0.110523164 -0.012883449 0.04004891 0.078778826

network.6.weight f4 [3, 32]
00000000: 99c0 a53d 0912 3abd 2220 91bd 0b08 28be
00000010: 282c f53d eb46 613e a6ff e33d 5344 f23d
00000020: fec2 6e3e c584 5d3e cf75 42bc 379c c5bc
00000030: 4a44 c7bd d194 70be 2426 4bbd 4821 44bd
00000040: a8fd 443d 9444 8cbc 4e87 46bd 8ad9 b43d
00000050: 78ac 1abe a10c 0fbd 897f 2a3e 4944 be3d
00000060: 0022 0cbb 3dae ad3d 8ad0 7a3e 2249 3e3e
00000070: 0cf0 2b3e 0983 f7bc d630 503d feaf 203e
00000080: 6823 fbbc 7024 06be 2bf7 12be 1494 923d
00000090: 0cb9 ebbd e1e6 0c3d 1434 103d 3105 07be
000000a0: e3e4 673d 8473 86be 609b e2bd d864 753e
000000b0: a53c 5b3e d533 6c3d 59d6 2cbe 697a 51bd
000000c0: 2630 133e 6561 fb3d 4212 083e 5266 37be
000000d0: 21d9 cb3d bae2 06be 9470 0cbe 29fa 353d
000000e0: d0e6 333c dce6 943d 3ecd 75be 43a6 50bd
000000f0: b8c2 343e 6d01 4fbd 5091 cf3d 6428 253e
00000100: cdb2 5abe 0158 ca3c fb07 2a3e 2e2d f03c
00000110: 50e5 623d 29d4 e5bd b03b 1b3c bf2a 17be
00000120: de75 ecbd afee ac3d 6b89 34be a017 103e
00000130: 2364 1d3e 8548 783e 4165 e13d 9ef9 d4bc
00000140: a46e 02be 0266 fb3d d1f1 5e3d 083e 67bd
00000150: b790 7cbd 0b10 fa3d 07d3 1ebe c2ce 0ebe
00000160: aa75 a53d 9c1a 09be 336b b7bc acbd 29be
00000170: 1393 8ebd 7ec3 e53d b2aa 11be d915 6ebe
0.08093376 -0.045427356 -0.07086207 -0.16409318 0.11971313 0.2199971 0.111327454 0.11829438
0.23316571 0.21632679 -0.011868908 -0.02412234 -0.09729822 -0.23494269 -0.04959692 -0.047883302
0.048093468 -0.017122544 -0.04846888 0.08830555 -0.15104854 -0.034924153 0.16650213 0.09290368
-0.002138257 0.08480499 0.24493614 0.18582585 0.1679079 -0.03021385 0.050827824 0.15692136
-0.030656531 -0.13099837 -0.143521 0.0715715 -0.11509904 0.03439987 0.035205916 -0.13185574
0.056614768 -0.26260006 -0.11064792 0.2396425 0.21409853 0.05766662 -0.16878642 -0.05114213
0.14373836 0.12274436 0.13288215 -0.17910126 0.099535234 -0.13172427 -0.1371482 0.044428024
0.010980323 0.072705954 -0.24004075 -0.05093981 0.17652404 -0.05053847 0.10135138 0.16128689
-0.2135727 0.024700167 0.16604607 0.029318418 0.05539447 -0.11222107 0.00947468 -0.147624
-0.11545919 0.08443963 -0.17630546 0.14071512 0.1537023 0.24246414 0.11005641 -0.025997933
-0.12737519 0.12275316 0.054429833 -0.056455642 -0.06166145 0.12210091 -0.15510188 -0.1394606
0.08079083 -0.13389057 -0.022389984 -0.1657626 -0.06961646 0.11218928 -0.14225271 -0.23250522

network.6.bias f4 [3]
00000000: 3c52 283e 079c d9bd 78cb 9e3c
0.1643762 -0.10625463 0.01938413

network.0.weight f4 [128, 30]
00000000: 5f77 88bc 260f bdbc fe70 753d 70c4 2b3d
00000010: f2c3 43bd 8952 78bc 9c25 103d 1fa7 c3bd
00000020: 88bf 0c3e 6ff2 02bd 1735 8c3e 0a29 cf3d
00000030: ecde 3cbc 31a3 48bd a19d c5bc d1d3 87bd
00000040: eedf 72bd 7468 34bd 6b9c 783e c8b3 4dbe
00000050: 61c2 b63d 14fd 733e d465 31be 8a51 4cbd
00000060: d25f 203e 0030 52bc 5f48 f8bd cc04 00bd
00000070: 0fe2 1ebe 84ef 0fbd 0323 48bd 6b2c 78bd
00000080: 27a9 843d 0371 e4bc 4d46 5f3d 5a46 29bd
00000090: 72eb f03d d663 a23d 0051 01be d4f5 8ebd
000000a0: f850 653e 4d1d 0b3e b5e3 61bc a4d7 5b3e
000000b0: f46a 5abe 9711 8a3e 6306 3e3e b6a1 11be
000000c0: c504 08be 0249 70be 058f 9ebd 7614 80bc
000000d0: 9ea4 b3bd a5c7 26bd 4af7 c0bd 3a4f f7bd
000000e0: 47c4 c9bd 00fa 9d3b bc44 963d e07f b7bc
000000f0: 063e 2e3e a904 5fbd 3b79 913d 96af fe3d
00000100: cead 883d d956 443e c3fe fa3d cff2 4bbe
00000110: 088d 273e b2ca 9e3a 1f52 5f3e 9455 f8bd
00000120: 9c52 083c 1622 5c3d 1926 3a3d f125 35be
00000130: 2119 84bd 6f5f 5cbd 76d3 1b3e b605 5ebe
00000140: 36b5 003e d8c0 87bc d423 bb3d b966 59be
00000150: a0ec 07be d8a5 013e 63dc d6bd ecc9 3c3d
00000160: 10e5 073e eea0 2e3e 86f5 9cbc 373a 6f3e
00000170: 9c16 033d 0836 c7bd 39bd 263e eaa4 713e
00000180: f1cf 9e3c 43e5 953d 7463 4ebd 9609 853c
00000190: a058 613d 14e7 04be cd36 723e c23b f53b
000001a0: fc1b abbd 3b6c 7dbd ef45 cb3d 91de da3d
000001b0: 38f8 e0bd b618 8a3e 6226 903d 652d da3d
000001c0: 6f36 233d 2e6d 8b3d 9003 2c3d 801c e13b
000001d0: 00cf 56bb 72d3 103e b930 a5bd dc2b e53d
000001e0: bb52 a03d 33bb af3d 1ccb 7b3d 7b5e 1e3c
000001f0: 77e3 15bc a9d0 123e 2684 4e3e 7517 81bd
00000200: 0009 193e d3f0 7d3d 4501 653c 69a6 56bd
00000210: 3361 883d 936c be3d 6f8f 023e 1518 0cbe
00000220: 34a8 f93b 3b14 953d 1f76 883c 81b8 e0bd
00000230: 3e8e 423e 4056 01be ab78 fabd 07de f8bc
00000240: f753 21be 1cb0 bb3d 9281 3a3e 8246 89bd
00000250: 7e30 103e d8cc de3c 3668 3a3c 6ce1 223e
00000260: a26b fe3d 0951 04be 7c33 f73d 3d53 3fbe
00000270: 2014 96be 0b5f b4bd 981d 23be ca73 9abc
00000280: 12ef 093d 7d80 7cbc 3308 523e adb0 02be
00000290: 5833 21be b9de 193e 6556 633e bd8a 1f3e
000002a0: e819 b73c 31b5 483d 700f 803c 4f2b 513e
000002b0: ac1b 813e 4f97 bebd 1c8e 113d f4bd d63d
000002c0: 8022 023e acef 013d 92e1 11be 06f1 293e
000002d0: 0ed1 bb3c 4344 9bbd 7757 a3bd 9478 88bc
000002e0: 0446 c43d 3f40 673e c3bd d6bd de26 913d
000002f0: 5838 df3c f8ab 893d 4f26 2ebe 321f 203e
00000300: bc4f 313e 8b2e 37bd 0df6 f1bd 976b 063d
00000310: a7a7 26be 8a8a 973d b72a 813d 21fa f33e
00000320: c8de c9bd e4e6 863e 3402 bf3d 4115 033d
00000330: e317 95bd 8bad ebbd 4c26 033e 641a a33d
00000340: b03d 293e 32b5 0d3e 0dd0 0cbe f245 16be
00000350: 8fb0 d7bd 1ce3 cabc 55a2 083c dd5a c63c
00000360: 3356 903d ad55 333e d0a7 3cbc 7d6c 7fbe
00000370: 9d12 1ebe b4fc 203c d4b2 573d c0b5 ff3d
00000380: 2693 663e 8dd2 f73c 3b1c 363e 71a6 44bc
00000390: cfe8 a53c 144b 22be cb80 c7bd 3ef9 8a3d
000003a0: fec4 f73a a792 0b3e f445 d03d 68a2 6abd
000003b0: 74a6 ae3d 6ab5 19be b098 15bc e061 b03b
000003c0: 139d 033e 9e53 473e 35de d4bd 37df 6c3d
000003d0: 225b 0fbe b4b2 153d 7f19 84be 95ae 6f3d
000003e0: ea50 ec3c 39c6 f53d 3610 49be bf79 473e
000003f0: f758 ba3d 739a 513d fbb1 2abe 3e8a 203e
-0.016658483 -0.023078512 0.05992221 0.041935384 -0.04779429 -0.015156397 0.035192117 -0.0955336
0.13744938 -0.031969484 0.27384254 0.101152495 -0.011527758 -0.048983756 -0.024123015 -0.06632198
-0.059295587 -0.044044927 0.24278419 -0.20088112 0.089237936 0.2382701 -0.17324 -0.04988245
0.15661553 -0.012828827 -0.12123179 -0.031254575 -0.15515922 -0.03514053 -0.048861515 -0.060589235
0.06477576 -0.02788592 0.054510403 -0.041326858 0.11763658 0.079291984 -0.12628555 -0.06980482
0.22394168 0.13585396 -0.0137872 0.21468979 -0.21329862 0.26966545 0.18557124 -0.14221844
-0.1328307 -0.2346535 -0.077421226 -0.015634757 -0.087716326 -0.04071774 -0.09422167 -0.12075658
-0.0985189 0.004821062 0.07337329 -0.022399843 0.17015848 -0.054447804 0.07103201 0.12435834
0.066737756 0.19173755 0.12255623 -0.19916843 0.16362393 0.0012114851 0.2180867 -0.12125698
0.008320477 0.053743444 0.04544649 -0.17690255 -0.064501055 -0.05380195 0.15217385 -0.21681866
0.12569126 -0.016571447 0.09137693 -0.21230592 -0.13273859 0.1266092 -0.10491254 0.046091005
0.13270974 0.17053577 -0.019160043 0.23362051 0.032003984 -0.097271025 0.1628312 0.23598066
0.019386264 0.07319119 -0.050387815 0.016239922 0.05501616 -0.12978774 0.23653717 0.0074839303
-0.08354947 -0.061870795 0.09925448 0.106869824 -0.10984844 0.26971978 0.07038571 0.106531896
0.039846834 0.06807934 0.041995585 0.0068698525 -0.003277719 0.1414316 -0.08065934 0.11190006
0.078282796 0.08580627 0.061472997 0.009666081 -0.00914847 0.1433741 0.20167598 -0.06303302
0.1494484 0.061997246 0.013977353 -0.052404795 0.06659164 0.09298053 0.12750028 -0.13681062
0.0076189283 0.07279249 0.016657887 -0.10972691 0.18999574 -0.12630558 -0.12230047 -0.030379308
-0.15754686 0.091644496 0.1821349 -0.067029014 0.14080998 0.027197286 0.011377385 0.15906304
0.12422873 -0.12921537 0.12070367 -0.18684097 -0.2931223 -0.088071905 -0.15929258 -0.01885404
0.03367526 -0.015411493 0.2051094 -0.12762709 -0.15742242 0.15026368 0.22200926 0.15580268
0.02235122 0.049000923 0.015632361 0.20426677 0.25216424 -0.093062036 0.035535917 0.104854494
0.12708473 0.03172271 -0.14246204 0.1659585 0.022926833 -0.07581379 -0.07975667 -0.016659059
0.09583667 0.22583102 -0.10485413 0.070874915 0.027248546 0.067222536 -0.17006801 0.156369
0.17315573 -0.04472212 -0.118145086 0.03281745 -0.16274892 0.07399471 0.06306975 0.4765177
-0.09856945 0.2634803 0.09326592 0.03200269 -0.07279947 -0.1150771 0.12807578 0.07964018
0.16527438 0.13838652 -0.1375124 -0.1467512 -0.10531723 -0.024766497 0.008339484 0.024213249
0.07047691 0.17513151 -0.011514619 -0.24943729 -0.15436788 0.009825874 0.05266078 0.12485838
0.2251707 0.030251766 0.17784207 -0.012002573 0.020252613 -0.15848953 -0.09741362 0.067858204
0.0018903313 0.13630162 0.101695925 -0.05728379 0.08527842 -0.1501061 -0.009130642 0.0053827614
0.12852888 0.19465491 -0.10393945 0.05783006 -0.13999608 0.036547378 -0.25800702 0.058516104
0.028847177 0.120006986 -0.1963509 0.19480036 0.09099 0.051172685 -0.16669457 0.15677735

network.0.bias f4 [128]
00000000: 642d 193e 75ac 17be 1568 04be 6622 51be
00000010: bf32 3dbc f1cd 613e 7425 2a3e 0710 e8bd
00000020: fa09 653d 7cc9 3c3e 572e 8c3c 78b2 88be
00000030: b9f7 263e af76 423e 630f 47bd 93eb 3e3d
00000040: f394 ff3c 37c3 b13e 9545 803e bfab 203e
00000050: e255 423e 0692 0e3c 5f97 0ebe f1c0 47bd
00000060: 119c c0bd 8b5e ddbd 760b dc3d 2547 8c3c
00000070: 30df 653e 2d34 893d 72a2 56bd 6662 fe3c
00000080: fe37 87bd ad32 713e 74a3 8b3e f960 3dbd
00000090: 1b57 02bc a44d 8d3e e585 563e 383e 3f3c
000000a0: bb21 253e 1b13 a8bd 35c1 98bd 3049 4a3e
000000b0: c78d b63d 7d42 d7bd a6d0 d7bb 5435 f8ba
000000c0: 2e7c 1cbe 53bd e13d 9ca2 6a3e 8500 bb3e
000000d0: 194a 893d ffc1 433e 209b 213e 4d08 c23b
000000e0: 5658 ad3d 76a4 073e 9285 053e e771 e43d
000000f0: 1942 133e 8928 a23e f01e e53d 861d 4e3d
00000100: 3898 2e3c 3a59 1cbe d750 47bd c239 2f3d
00000110: b6b6 1d3e 6ae5 0c3e b5d2 c53b 8d4b fd3d
00000120: 797f a3bc efa2 a93d 7581 6b3e 2bba 3e3e
00000130: ffd7 33be 4ed1 4d3d 2075 153d d3ec 07be
00000140: a95f cb3c f69a eabd ebde cd3d 33f2 5d3e
00000150: 48b0 10bd 9ddb c8bb fe14 abbd 9720 8b3e
00000160: c3f0 673e b707 ef3c 090f a9bd 7757 34bd
00000170: f726 563e d06c 703e 4700 5b3e a378 08bc
00000180: f0aa 093e 84ec 0c3e fde4 fd3d f73a ac3e
00000190: b926 c2bd d7a2 543e 6fe6 43bd ca97 f1bd
000001a0: 4695 723e d935 8f3d c7cf 04be e99a c33d
000001b0: 5861 cb3d 4578 fcbd b5f9 09be b5e7 ff3c
000001c0: f4f9 6c3e c610 153e 620f 483e d9e3 873e
000001d0: 4401 14be d133 993e af3b 65be 4b58 193e
000001e0: ef15 683e 3240 4bbe efec b93d 4c28 38be
000001f0: 8cd0 8a3d ea94 303e 4cbc 3c3d ca06 c83d
0.14958721 -0.14811881 -0.12930329 -0.20423278 -0.011547743 0.22051217 0.1661585 -0.11331182
0.055917718 0.18436235 0.01711194 -0.2669866 0.16305436 0.18990587 -0.04859866 0.04661138
0.031198954 0.3471925 0.25053087 0.15690516 0.18978074 0.008701807 -0.13924931 -0.048767988
-0.09404767 -0.10809048 0.107443735 0.017123768 0.2244842 0.06699405 -0.052401014 0.03105278
-0.066024765 0.23554488 0.27273142 -0.04623506 -0.007955338 0.27598298 0.20949514 0.011672549
0.16126148 -0.08206769 -0.07458726 0.19754481 0.08913761 -0.105107285 -0.006586152 -0.0018936791
-0.15281746 0.11022439 0.22913593 0.36523834 0.06703586 0.19116972 0.15781832 0.0059213997
0.08464114 0.1324633 0.13039234 0.11154538 0.14380683 0.3167155 0.111875415 0.050321124
0.010656409 -0.15268412 -0.04866108 0.04277969 0.1540173 0.1375939 0.006037081 0.12367926
-0.019958245 0.0828303 0.22998603 0.18625705 -0.17562865 0.050248437 0.036488652 -0.13273935
0.024825888 -0.11455338 0.10052284 0.21674423 -0.035324365 -0.0061296956 -0.08353613 0.27173302
0.22650437 0.029178483 -0.08254821 -0.044028725 0.20913301 0.23479009 0.21386825 -0.008329543
0.13444114 0.13762099 0.12397192 0.33638737 -0.09480042 0.20765243 -0.04782718 -0.117965296
0.23689756 0.069926925 -0.12969886 0.09551031 0.09930676 -0.12327627 -0.13474162 0.031238416
0.23142225 0.1455718 0.19537118 0.2654102 -0.14453608 0.29922345 -0.22386049 0.14975087
0.22664617 -0.19848707 0.090783946 -0.17984122 0.067780584 0.17244306 0.04607801 0.0976692

network.2.weight f4 [64, 128]
00000000: dded 923c 9066 1e3c 084e 06bd 72cd 51bc
00000010: 3961 a1bd c2c0 a23c 24e6 82bd c06a 19be
00000020: 01f6 2f3b 259a 553d f6fe 753d 0070 8d3d
00000030: 344d d3bd 7319 36be 2b99 e0bc 895a adbc
00000040: 9a75 8b3a 83f2 133c 7dba 3b3c 52e7 03bd
00000050: ff12 8ebd 35c8 413c df66 6dbd fe07 cb3b
00000060: ec14 a6bd 2a89 c4bd 7bb9 79bd 7f87 edbc
00000070: 6e4a e3bc 567e 4a3d 1969 6d3d 202d a2bd
00000080: 5a41 213c 0745 363b bcf3 683d e23e 02be
00000090: 984d e5bd 3c33 e93c 694b 11be 2cbd 67bd
000000a0: 0657 243d c4c2 23be 10f2 683d 9571 b73b
000000b0: afbf ff3c c4e0 bcbc 1e83 e23c cd60 f0bd
000000c0: a63c a0bd 941f 3c3d 68ac 1bbc c2fe 85bd
000000d0: edb8 fc3b 3e12 e03c cfa6 82bd ef7f 5fbe
000000e0: 267d 33be 595f a7bd 7bf2 9b3d fa69 c4bd
000000f0: d6a2 153d 200f d8bd 75d8 6abe b604 e3bb
00000100: 128b 65bc b05c 81bd d0fd dabd 0680 09bd
00000110: c926 6e3d 1ea7 a1bc 7975 b0bd c06e 833d
00000120: 2a3c 7fbe 7c20 983a 40a9 07bd ec1a 843c
00000130: 3dbb 16be 093b 04be 6be6 c7bc f5e3 32bd
00000140: 911e 63bd 3125 f13c 42c3 a7bd 3911 52bc
00000150: aa09 cf3d 883f 2abe 3cf6 a4bd d926 f0bc
00000160: 488e dfbd a0df e23d d99c 8a3d 50c3 d63b
00000170: c340 6a3b afe5 b53a 1f72 af3c ad5c 753d
00000180: 3b7c 36be 0555 1a3d 105e 46bd c0e7 eb3b
00000190: e006 2fbe 86f9 093d dada 893c cb3b e1bd
000001a0: 5587 6cbd 2d3c 3ebd 566c de3c cc1b 8abd
000001b0: b5b5 4bbe b1c4 e83b cc6c bfbd ecf4 9bba
000001c0: f7be 05be 621a 9c3d b8d5 47bb ab9d 7c3d
000001d0: 7f24 203d 3966 72bd a2d3 983b b8be b5bc
000001e0: ce69 41bd d388 2abd 89ec 1c3d 0250 5bbd
000001f0: 3d25 873d aaee 483c b30f 4ebd 71b5 8ebd
00000200: 1a78 113c 12da c7bc cbf3 edbd 6fa9 8ebd
00000210: ed61 3abe 47cc ec3d 7631 2cbe 6c68 733e
00000220: 385c 1fbd d66c 523d e0f0 0cbd 527a 6abd
00000230: 949f 94bc 332d 00be 57c1 f73c 4c95 d4bd
00000240: 4539 0a3e 0d4e 4dbe e73f f63d 4b4b cb3d
00000250: 9c2b 95be 5eff 0e3e 34f9 9939 2b66 333e
00000260: ceac 1fbe 1eb3 95bd 0dc1 13bd 918f 3dbe
00000270: 7d25 283e affb c23d 3a9b d6bd 0693 a0bd
00000280: ed24 ec3c 92ce 12be d3c8 06bd 5b71 eebd
00000290: f177 81bd 2e23 9cbc b591 36bd e31f 15bd
000002a0: 6c65 3b3d 31ac 1ebe 2107 063e a81d bd3c
000002b0: 0717 a6bc 4d94 a1bd f5a3 453c e807 12bd
000002c0: 146c 2b3e 521b 41bd 4317 74bd 83b6 4ebd
000002d0: 7074 dfbd b279 803d 6706 ab3c b9b5 85bd
000002e0: df9c 50be fd1c 67be 3e28 b83d af84 cb3b
000002f0: b814 cfbc 237a 28be 9878 f7bb 4800 9cbd
00000300: a928 983d df6f 823c ac6c 313c 712e f9bd
00000310: ad51 453d 4759 923d da30 54be 21b8 1abe
00000320: 5c52 f53d bd22 863d dcb1 bdbd 3033 3d3d
00000330: c669 f23d 2c91 70be 1848 6b3c 1b1b 02be
00000340: 6be0 2abe dfee e3bd 6980 34bd 3d74 99bc
00000350: c6f8 bc3d cd5d 70bc cb3c 56bd 245e 9e3d
00000360: c0e5 623e 1dd7 8d3d 503e 86bd ac19 24be
00000370: c2ff 8abd 1077 9ebd 32fb 99bc be9e 52bd
00000380: 02df 63be 5d33 1fbe ae8a 44bc 305a 01be
00000390: 491f 533c a7d0 b73d 8e4d efbd 73db 88bd
000003a0: 000f e13b c870 a03d 6059 16bc 99e6 ae3d
000003b0: f759 70be 9907 363d 3864 3fbd 5664 183e
000003c0: 60d8 7fbe 576a 103e fc2f 273e d903 acbc
000003d0: 0ba4 14be 2e14 1fbd 4d48 d33d aee3 dc3c
000003e0: 29d9 0cbe e126 1b3d c789 9c3d 2f36 8ebd
000003f0: 0dca 32bd 484b cb3d 1832 a8bd 0449 c0bc
0.017935688 0.0096680075 -0.03278926 -0.01280533 -0.07879872 0.019867305 -0.06391552 -0.14982128
0.002684951 0.052148957 0.060057603 0.06906128 -0.1031746 -0.17783146 -0.027416786 -0.021161335
0.0010639906 0.009029987 0.0114580365 -0.032203026 -0.06937217 0.011827518 -0.057959434 0.006196021
-0.08109459 -0.095964745 -0.060967904 -0.028995274 -0.027745452 0.04943689 0.057961557 -0.07918763
0.009842241 0.002781214 0.05687307 -0.127193 -0.111964405 0.028466813 -0.14188923 -0.056576893
0.040122055 -0.15992266 0.056871474 0.005598257 0.031219332 -0.023056395 0.027650412 -0.11737213
-0.07824068 0.045928553 -0.009501554 -0.06542732 0.0077124746 0.027352449 -0.063794725 -0.21826147
-0.17528209 -0.08172483 0.07614609 -0.09590526 0.036532246 -0.1054976 -0.22934134 -0.006928052
-0.014010208 -0.06316507 -0.10692942 -0.03356936 0.058142457 -0.019733008 -0.08616156 0.06417608
-0.24925295 0.0011606361 -0.033120394 0.016126119 -0.14719863 -0.12913145 -0.024401864 -0.043674428
-0.055449072 0.02943668 -0.08191539 -0.012821489 0.10109265 -0.16625798 -0.08054778 -0.029315399
-0.1091581 0.11077809 0.067681976 0.006554045 0.0035744167 0.0013877655 0.021416722 0.059902836
-0.17820828 0.037678737 -0.04842955 0.0071992576 -0.17092466 0.03368523 0.01682799 -0.10997733
-0.05774625 -0.046444107 0.027151268 -0.06743583 -0.19893534 0.0071035256 -0.09346923 -0.0011898554
-0.13061129 0.076222196 -0.0030492377 0.0616738 0.039097305 -0.05917952 0.0046639005 -0.022185668
-0.047220044 -0.041634392 0.038311515 -0.0535431 0.065988995 0.012263933 -0.05030794 -0.06968201
0.008878732 -0.024395976 -0.116187654 -0.06965911 -0.18201418 0.115624 -0.16815743 0.23770303
-0.038906306 0.051373325 -0.034409404 -0.05724556 -0.018142499 -0.12517242 0.030243559 -0.103800386
0.13498409 -0.20049305 0.12023907 0.0992647 -0.29134834 0.13964602 0.00029368105 0.17519443
-0.15593264 -0.073095545 -0.03607278 -0.18511797 0.1642055 0.09520661 -0.10478826 -0.078405425
0.028826201 -0.14336613 -0.032906365 -0.116427146 -0.06321705 -0.019059744 -0.04457255 -0.036407363
0.04575102 -0.15495373 0.13088657 0.02308543 -0.020274652 -0.07889614 0.012063016 -0.03565207
0.16740447 -0.047145195 -0.059592497 -0.050467025 -0.109108806 0.062732115 0.020877076 -0.065288015
-0.20372342 -0.22569652 0.089920506 0.0062108855 -0.025278434 -0.16452841 -0.0075522177 -0.07617241
0.0742963 0.015922485 0.010829132 -0.12167061 0.048173595 0.071459346 -0.2072176 -0.15109302
0.119785994 0.065495946 -0.092624396 0.046191394 0.11836581 -0.23492879 0.01436045 -0.12705652
-0.16687171 -0.111295454 -0.044067774 -0.018732185 0.09227137 -0.014670801 -0.05230407 0.077328
0.22157955 0.06925795 -0.06554854 -0.16025418 -0.06787063 -0.07737553 -0.018796537 -0.05142092
-0.2225304 -0.15546937 -0.011995954 -0.1263206 0.012885877 0.08975344 -0.11684714 -0.066824816
0.006868243 0.07834011 -0.009176582 0.08540077 -0.23471819 0.04444084 -0.046726435 0.14882025
-0.24984884 0.14103065 0.16326898 -0.020997928 -0.14515702 -0.038837604 0.10316525 0.026964035
-0.13754715 0.037878875 0.076434664 -0.069439285 -0.043649722 0.09926468 -0.082126796 -0.023472317

network.2.bias f4 [64]
00000000: 4f42 5f3d c0a3 b5bd f996 60bd eefd f33d
00000010: 3e05 a63c 0789 573e 8e4b 433e ce41 75bd
00000020: 4216 eebd 6dda f53d 6078 fb3d 2623 b13c
00000030: e5be 05be 6ad7 93bd 4e55 793d aaa2 a83d
00000040: 6d2a bf3c 4f32 b4bd e9a7 a03d 3b0f 123e
00000050: 347d 0d3d a817 99bd 109f da3d b09e 453e
00000060: ac6e 80bd d2a3 d7bc 6cfc 323d 0b1c 31bd
00000070: 3ebf a8bd ba52 52bb 7928 9bbc 79eb 0cbd
00000080: d832 49bd a973 cabc 8edf f1ba ab3e 3f3e
00000090: 3951 e43d d14a 6c3d 4e1d 8c39 9d1e 153e
000000a0: 7bd6 19be b554 093d e6f0 933d e3b2 d6bb
000000b0: c791 66bd 0e64 cabd 6219 b2bd 2544 e33d
000000c0: cdda 353b 7af2 54bd 43ac 443e 4334 78bd
000000d0: a01d 6a3d de88 1f3d adc3 993d aecb 043e
000000e0: 0725 2dbd 9273 0e3e ec7a 853c 322d 853d
000000f0: 2ea1 94bd 12a6 6a3d 311c 9dbd 67fc 703b
0.054506596 -0.088691235 -0.05483148 0.119136676 0.020266172 0.21048366 0.1907179 -0.05987721
-0.11625339 0.12004552 0.12278819 0.021623205 -0.13061102 -0.07218821 0.06087237 0.08234151
0.02333566 -0.08798658 0.07844526 0.14263622 0.03454323 -0.07475215 0.1067487 0.19298816
-0.06271109 -0.026323233 0.04369776 -0.043239634 -0.082396016 -0.0032092766 -0.018940197 -0.03440425
-0.049120754 -0.024713354 -0.0018453465 0.1867625 0.111483045 0.057688538 0.00026724715 0.1456246
-0.15023224 0.03352805 0.07223682 -0.0065520867 -0.056291368 -0.09882365 -0.08696248 0.11096982
0.0027748824 -0.051989056 0.19206338 -0.060596716 0.05715716 0.038948886 0.07508025 0.12968323
-0.04227164 0.13911274 0.016293965 0.06502761 -0.07257305 0.057287283 -0.07671393 0.0036771537

network.4.weight f4 [32, 64]
00000000: 3dcf 5f3b 4697 fbb9 1fff 143d 8f48 563e
00000010: da6e b9bc 83e9 2c3e 8277 c7ba 216c 253d
00000020: f03d d4bd ec5c 45bd b94c d4bc fb98 f53d
00000030: 5d55 d4bd 6ede c63d 6726 02bd 543f b03d
00000040: 47b4 343c 6863 cebd 9634 25bd 74b5 7d3d
00000050: 52bd 6bbd 54de 0bbe 5721 c6bd b752 5f3e
00000060: 5333 e13c 8d6d ff3d 203a b43d 661d ed3d
00000070: 7cfd 273c 8c7d d03d 74dd 353e 464f 93bc
00000080: e91d e13d fa78 dfbd a2df 9abe 781d a43d
00000090: eeea 10bd 3654 4dbd 2177 12be 53f3 453e
000000a0: c933 24bd fac1 3a3d e913 9abd 3416 043d
000000b0: 165d b13c b2fb 993d b382 1d3e fd82 413b
000000c0: 936e c7be 39ff 05be 0237 07bc e51c c3bc
000000d0: 8ab0 df3d f030 06be 8af8 8b3e 6603 9dbc
000000e0: 73ee 9bbd f412 e8bd f093 003e 3ede ccbe
000000f0: c73c b13d 2847 013e e209 21bd 77c3 92bd
00000100: f636 e53c be45 513e b01f b2bd adbf 31be
00000110: b8ab a13d 0e31 d5bc 85b8 d03d 5c42 1f3d
00000120: 23fd e5bc 3512 27be dbfe 02be 67f7 3dbd
00000130: ec12 26be 5cc3 e2bd 7cb8 d03c 15d6 6cbe
00000140: 5cf1 a73c f796 68bd ac2a 99bc b745 4ebd
00000150: af25 b3bd 3cd4 4d3d 8c66 843d 6f8c 883d
00000160: 4be5 fcbb 9cd6 81bb 1df7 85bd 0bb8 8f3d
00000170: 8599 bebd 1f57 973d 47f8 933d e799 a63d
00000180: c260 06bd e948 7a3c 75de 073e 25ac f23d
00000190: 4e3d 79bd 387c 863e 1cce 41be f39c 183e
000001a0: 742b 40be 2e6f 4abb 0c38 40bd 6da1 633c
000001b0: 4f1c 6cbe 4a55 363d 3f8f 24be 583d f5ba
000001c0: 8147 7abd dedb a0bc 2ca6 12be 9da4 02be
000001d0: 3898 0d3c f855 0bbd eb44 9e3d 608b 5d39
000001e0: 9c88 16bd 91ee bdbd b3da e6bd 7507 6abe
000001f0: 564e 0f3d 9f14 b3bb ede1 14bd b534 2dbe
00000200: 9345 e03d bdaa 28be bead cb3c 99d2 be3d
00000210: 9e52 20bd 99ca 703d 766f fd3d 1745 103e
00000220: 2c42 953d 7165 e73c cc67 343d f23c 873a
00000230: 44a4 d2bd 1ef7 fa3d d2fb 90bd 297c 6b3e
00000240: df4c 78bd 07b2 cebd a2aa b73d dd1f b03d
00000250: 4047 32bd 1b28 ffbd c84e 88bd b46b ed3d
00000260: 903f 3ebd 3d66 edbc 5ae0 b23d 88eb 8c3c
00000270: b47b e33d b480 1ebc 2301 f93d 63b0 34bd
00000280: c1a8 ae3d 7e9f fb3c f6b6 23be 11a7 1b3c
00000290: 764a 2ebd 8831 133d 7fd5 0bbe d368 e43d
000002a0: cca5 29bc ea45 d9bd 4d5a 3c3d 867b d73d
000002b0: 3f55 9bbd ea17 5e3d f094 0c3e 69eb 90bd
000002c0: 96b9 88be 1ef0 c13d 1150 dd3d e2ab 9abd
000002d0: 9ede b23d 7883 6ebe 4121 fb3d c613 0e3a
000002e0: f0b1 ec3d 01b5 07be f3ce 8c3d ed4f a6be
000002f0: 91a2 e23c f27b 893a a504 ff3d 30d5 96bd
00000300: b5eb 8ebc a69f dcbd fc73 b23c 407a bf3d
00000310: c389 0c3e 8496 c53d 89e0 093e c409 b93d
00000320: a2b3 89bc d7e8 133e 2c62 813d 2cc9 50bd
00000330: 9007 1f3d c684 a2bd 4af4 f83d e553 4f3b
00000340: 2ac8 fdbd 90dc 03bd 72a1 403c 92fc 0d3d
00000350: 08fe ea3d 1d8c 07be 91b6 a03c a4a9 dcbc
00000360: 9364 0f3e 7270 b1bd 1cd5 c0bd 81da 093e
00000370: 077e bd3c d01f c4bd acaa 473e fa37 023e
00000380: 6086 dd3c 5418 d0bd 207a 98be 2644 acbd
00000390: 6263 3cbd 9247 babd eafc 7fbe c50a 1e3d
000003a0: 8645 123c 9b1f 20bc a07c 103e 4dbd eebd
000003b0: 00d1 15bd eb16 8c3c 9a72 bb3d ec05 36bd
000003c0: 2816 e6be d820 a33d dabb 813d a338 a6bd
000003d0: e74f 35bb 4825 7cbe 7804 8a3e dbc9 e43d
000003e0: 0068 9e3d 7828 4abe 8e38 5abc a000 76be
000003f0: 34da 033e 4507 9a3d b4e9 ac3d c3ce 05be
0.0034150623 -0.00047987158 0.036376115 0.20926116 -0.022635866 0.16885953 -0.0015218111 0.040386323
-0.10363376 -0.04818432 -0.02591549 0.11992069 -0.10367844 0.09710394 -0.031774905 0.08605829
0.01102931 -0.10077554 -0.040333353 0.061940625 -0.057553597 -0.1365903 -0.09674328 0.21808897
0.027490294 0.12472067 0.08800149 0.11577873 0.0102533065 0.10180196 0.17760259 -0.017982136
0.10992033 -0.10911746 -0.30248743 0.08013433 -0.035380296 -0.050129138 -0.14303257 0.19331102
-0.04008845 0.045595147 -0.07523329 0.032247737 0.021650832 0.0751871 0.15381889 0.0029527538
-0.3895155 -0.13085641 -0.008252861 -0.023817489 0.10922344 -0.13104606 0.27338058 -0.01916666
-0.0761384 -0.1133174 0.12556434 -0.40013307 0.086541705 0.126248 -0.039316066 -0.07166188
0.027980309 0.20436761 -0.0869745 -0.17358275 0.07894081 -0.026024368 0.10191444 0.038881645
-0.028074807 -0.16315539 -0.12792532 -0.04637852 -0.16218156 -0.11072418 0.025478594 -0.23128541
0.020500831 -0.056784596 -0.018697105 -0.050359454 -0.08747422 0.05025123 0.06464872 0.066674106
-0.0077177635 -0.003962351 -0.06541274 0.07017525 -0.09306625 0.07389664 0.072250895 0.08134823
-0.03280712 0.015276172 0.13268454 0.1184924 -0.06084948 0.26266646 -0.1892628 0.14903621
-0.18766576 -0.0030889022 -0.04692845 0.013893467 -0.23057674 0.04451493 -0.16070269 -0.0018710298
-0.061103348 -0.01963609 -0.14321202 -0.12758107 0.008642249 -0.034017533 0.07727989 0.00021128124
-0.036751375 -0.092740186 -0.11272182 -0.22854407 0.034986816 -0.0054651047 -0.036348272 -0.16914637
0.1095077 -0.16471381 0.02486312 0.09317512 -0.03914129 0.058786962 0.12374775 0.14088856
0.07288012 0.028246613 0.0440443 0.0010317846 -0.102852374 0.12254165 -0.07079281 0.22996582
-0.060620185 -0.1009255 0.089680925 0.085998274 -0.04352498 -0.124588214 -0.06655651 0.11592808
-0.046447337 -0.028979415 0.08734198 0.017202154 0.11107579 -0.00967424 0.1215842 -0.044113528
0.08528281 0.0307157 -0.15987763 0.009500281 -0.04255148 0.03593591 -0.13655661 0.11152806
-0.01035447 -0.10609038 0.045984555 0.10521607 -0.07584619 0.054222025 0.1372869 -0.07076151
-0.2670409 0.09469627 0.10806287 -0.07552315 0.08733867 -0.23292339 0.12262202 0.00054198166
0.115573764 -0.13252641 0.0687541 -0.32482854 0.027665408 0.0010489209 0.12452058 -0.07364881
-0.017446378 -0.10772638 0.021783821 0.09349489 0.13724427 0.09647849 0.1346456 0.09035066
-0.016809288 0.1444429 0.06317553 -0.050973102 0.03882557 -0.07935481 0.121559694 0.0031635698
-0.12391694 -0.032192767 0.011757242 0.034664698 0.11474234 -0.13237043 0.019618304 -0.02693636
0.1400321 -0.08664025 -0.094156474 0.13462259 0.023131384 -0.0957638 0.194987 0.12716666
0.027041614 -0.1016089 -0.29780674 -0.08411436 -0.045993216 -0.09095682 -0.24998823 0.03858449
0.0089277085 -0.00977316 0.1411004 -0.116572 -0.03657627 0.017100772 0.09152718 -0.04443924
-0.4493878 0.07965249 0.06334658 -0.08116271 -0.0027666034 -0.24623597 0.26956534 0.111713134
0.0773468 -0.19742 -0.013319148 -0.24023676 0.12876207 0.07520918 0.08443013 -0.13067155
