models/ppo_agent_ep100.pt (torch, 364278 bytes, 45 tensors)

network.0.weight f4 [128, 30]
0	0xbde8dfc5	-0.11370806
1	0x3e0e6573	0.13905887
2	0x3de01705	0.109418906
3	0xbdee1ba1	-0.116263635
4	0xbe97e522	-0.29667002
5	0xbdbdb445	-0.09262899
6	0xbd8bcc4b	-0.06826075
7	0xbe18e18d	-0.14929791
8	0x3bf175c1	0.0073687737
9	0x3da97d97	0.082759075
10	0xbdd77c35	-0.105217375
11	0xbcfc4934	-0.030796625
12	0x3e2a5069	0.16632237
13	0x3e507283	0.20356183
14	0x3e0198ff	0.1265602
15	0xbd4291fd	-0.047502507
16	0xbcd3e689	-0.025866764
17	0x3cdc2faf	0.026878206
18	0xbcaf0598	-0.021364972
19	0xbc2e224c	-0.010628294
20	0xbce47f97	-0.02789287
21	0x3e236d7b	0.15959732
22	0x3e3134ba	0.1730527
23	0xbc2629bf	-0.010141789
24	0x3de53d08	0.111932814
25	0xbe1803ff	-0.14845274
26	0xbe350268	-0.17676699
27	0x3d450740	0.048102617
28	0xbd4cf808	-0.05004123
29	0xbdc9fc49	-0.09862573
30	0x3d8303b7	0.06397193
31	0xbde047a9	-0.10951168
32	0xbdfc8e01	-0.123317726
33	0x3da65a60	0.081227064
34	0xbe7fa907	-0.24966823
35	0x3defd799	0.11711044
36	0x3e49cfa3	0.19708113
37	0x3db759b9	0.0895266
38	0xbdaf4b35	-0.085592665
39	0x3dfbdfb9	0.12298531
40	0xbd175584	-0.03694679
41	0x3d4c4a29	0.049875412
42	0x3db3a65b	0.08771964
43	0x3e234c0f	0.15946983
44	0x3dbb1ba4	0.091361314
45	0xbdeabd86	-0.1146193
46	0x3e24c584	0.16090971
47	0xbdab12dc	-0.083532065
48	0x3bcf8ee5	0.006334173
49	0x3d8e99e8	0.06962949
50	0x3e2675dc	0.16255897
51	0x3e47b3f6	0.19502243
52	0xbcc01952	-0.023449574
53	0x3e27ab16	0.16373858
54	0xbd94a2bb	-0.07257601
55	0x3cabaf80	0.020957708
56	0xbc3c3740	-0.011487782
57	0x3bae6e60	0.0053232163
58	0xbdb7eb76	-0.089804575
59	0xbd32f490	-0.043690264
60	0xbe01541a	-0.12629738
61	0xbd83ef44	-0.06442121
62	0x3e0b8069	0.13623203
63	0xbce250a7	-0.027626349
64	0xbdd3117a	-0.10306068
65	0x3daecaa5	0.08534745
66	0x3d0d70f2	0.03453154
67	0x3d17437c	0.036929592
68	0x3e0fbd24	0.14036995
69	0x3d120fa3	0.035659444
70	0xbbd802b0	-0.0065921172
71	0x3d998fe0	0.07498145
72	0x3c06e943	0.008234325
73	0xbe3e93a1	-0.18611003
74	0x3db508ea	0.08839591
75	0xbd4cf643	-0.05003954
76	0x3dfc5331	0.12320555
77	0x3db900a2	0.09033324
78	0xbe1bbe0f	-0.1520922
79	0xbe4f7001	-0.2025757
80	0x3df8fc26	0.121574685
81	0x3e24f558	0.16109216
82	0xbe3d1abc	-0.1846723
83	0x3e03105c	0.1279921
84	0x3e124d3e	0.14287278
85	0x3e372dcc	0.17888564
86	0xbd925357	-0.07144802
87	0x3dc83db8	0.09777397
88	0xbde16a01	-0.11006547
89	0xbdb9be9a	-0.090695575
90	0xbdf68bfb	-0.12038418
91	0xbe01fe33	-0.12694626
92	0x3b705935	0.0036674265
93	0xbcdf3238	-0.027245626
94	0xbe98848b	-0.29788622
95	0xbda778a0	-0.08177304
96	0xbdc016d9	-0.09379358
97	0xbe3c1ae6	-0.18369636
98	0x3e0ae1e1	0.13562728
99	0xbdacf01f	-0.08444237
100	0xbd3b27a1	-0.04569209
101	0x3d04be6d	0.032408167
102	0xbda65792	-0.081221715
103	0x3d77a65d	0.06046139
104	0xbe25d5d1	-0.16194846
105	0x3e5cfa57	0.21579872
106	0x3de96f9a	0.113982394
107	0x3d0b2757	0.033973064
108	0xbd37e460	-0.04489553
109	0x3d8edb92	0.069754735
110	0x3d0535e1	0.032522086
111	0x3c3e3f89	0.011611828
112	0xbe49c918	-0.19705617
113	0x3e72de3a	0.23717585
114	0xbe099386	-0.13435182
115	0x3e324344	0.17408472
116	0x3de1de84	0.110287696
117	0x3ddedb30	0.108816504
118	0x3c42a0e0	0.011879176
119	0xbda5133a	-0.08060308
120	0x3e149a19	0.14511909
121	0xbd432fb9	-0.047652934
122	0x3c7b09d1	0.015322165
123	0x3e323b55	0.17405446
124	0x3d037cac	0.03210132
125	0xbe1e659d	-0.1546845
126	0xbe360a0c	-0.1777727
127	0x3dcf1302	0.10111047
128	0x3e4ed826	0.20199642
129	0xbce5a189	-0.028031128
130	0x3e5b4046	0.21411237
131	0x3d851d37	0.06499713
132	0x3e1cde88	0.15319264
133	0xbdd17d6e	-0.10229002
134	0x3de1b737	0.110212736
135	0x3e659d32	0.22423247
136	0xbd8afed9	-0.067868896
137	0xbd2a6163	-0.04159678
138	0xbe0efc16	-0.1396335
139	0x3d19539e	0.03743326
140	0x3e125568	0.14290392
141	0xbdb97ceb	-0.09057029
142	0x3be65e7e	0.0070303073
143	0xbda23859	-0.07920904
144	0x3c23b7d0	0.009992555
145	0x3d84057e	0.0644636
146	0xbdbf72e9	-0.09348089
147	0xbd286130	-0.04110831
148	0x3d702004	0.058624282
149	0xbb5b2000	-0.0033435822
150	0xbdbd2271	-0.09235085
151	0x3a1acfc0	0.0005905591
152	0xbe3960ee	-0.18103382
153	0xbda85c3c	-0.08220717
154	0x3e0641f9	0.13111104
155	0xbe4a13dd	-0.1973414
156	0xbde3c528	-0.11121589
157	0x3cc5ad70	0.024130553
158	0xbe3bb507	-0.18330775
159	0x3d9165b4	0.070994765
160	0x3db2c1d8	0.08728379
161	0xbde7c7d1	-0.11317409
162	0xbdc29bda	-0.095023826
163	0xbe3c0993	-0.18363027
164	0x3dfe025f	0.12402796
165	0x3d44c68a	0.048040904
166	0x3d1aaa67	0.037760165
167	0xbe0fb539	-0.14033975
168	0x3e2877a3	0.16451888
169	0xbd2ddac9	-0.042444978
170	0xbdc6491b	-0.096819125
171	0xbdb38e28	-0.087673485
172	0xbddbe7ab	-0.107375465
173	0x3dc0b588	0.09409624
174	0x3d54f314	0.05198963
175	0x3d17cfb4	0.037063316
176	0xbe09220e	-0.13391897
177	0xbcd5d0f8	-0.02610062
178	0x3de9a378	0.11408132
179	0xbd92207b	-0.071351014
180	0x3e16b14c	0.14716071
181	0xbd0421c0	-0.03225875
182	0x3e38e997	0.18057857
183	0x3e2eb9ac	0.17063016
184	0xbe67371f	-0.22579621
185	0xbe1041a2	-0.14087537
186	0xbe24b441	-0.16084386
187	0x3e3e0223	0.18555503
188	0xbc641496	-0.013920924
189	0x3ca63755	0.020290056
190	0x3e3f0429	0.1865393
191	0xbb80f3e1	-0.0039353226
192	0xbddd9b1e	-0.10820602
193	0x3e290910	0.16507363
194	0x3d89ffff	0.067382805
195	0xbcb353a4	-0.021890469
196	0x3dbd00c7	0.09228664
197	0x3c649426	0.013951337
198	0x3e317538	0.17329872
199	0xbd394cb0	-0.04523915
200	0x3c53cc36	0.012927106
201	0xbdca6a3d	-0.098835446
202	0x3daa5d75	0.08318607
203	0x3e85d8c9	0.26141956
204	0x3d54bb88	0.051936656
205	0x3e2afc78	0.16697872
206	0x3e38235c	0.17982239
207	0xbe28ae3b	-0.16472714
208	0xbde5703a	-0.11203046
209	0xbe35cbf0	-0.17753577
210	0x3e094ccc	0.13408202
211	0xbe39253a	-0.18080607
212	0xbdfd4e67	-0.1236847
213	0x3df464bb	0.11933275
214	0xbddb4775	-0.10706989
215	0xbd727351	-0.059192006
216	0xbd6c494a	-0.05768708
217	0xbcf725bb	-0.030169358
218	0x3e2b8fac	0.16754025
219	0x3ccf03b6	0.025270324
220	0x3e32afb2	0.17449835
221	0x3bbb03de	0.005707248
222	0x3e375f1a	0.17907372
223	0x3dd4c463	0.1038902
224	0x3c9bca80	0.019017458
225	0xbe3f0415	-0.18653901
226	0x3de51adb	0.11186763
227	0x3de604ed	0.11231408
228	0xbdcb1d96	-0.099177524
229	0xbcec7376	-0.02886365
230	0xbda44f02	-0.08022882
231	0x3e263136	0.1622971
232	0xbe276d9e	-0.1635041
233	0x3da2ebee	0.07955156
234	0xbe1d71df	-0.1537547
235	0x3dc1f0a0	0.09469724
236	0xba63a700	-0.0008684248
237	0xbd1b64e4	-0.037938014
238	0x3c415bd0	0.011801675
239	0x3e124a7e	0.14286229
240	0xbe5f2e38	-0.21794975
241	0xbba5f779	-0.0050649014
242	0x3b4a12a3	0.0030833862
243	0x3d8a1341	0.06741954
244	0xbccfc7de	-0.025363859
245	0xbd567e94	-0.052366808
246	0xbdbc1910	-0.09184468
247	0x3b8e8942	0.0043498585
248	0xbda7f184	-0.08200362
249	0x3dd9ad9a	0.10628815
250	0x3e82679b	0.2546967
251	0x3daf652a	0.085642174
252	0xbddde2b2	-0.10834254
253	0xbe15b94c	-0.14621466
254	0x3dcf5b5e	0.10124849
255	0xbb3e3ee0	-0.0029029176

network.0.bias f4 [128]
0	0xbd3e0214	-0.0463887
1	0x3d8b6085	0.06805519
2	0x3e2cbd41	0.1686907
3	0xbdeac47c	-0.11463258
4	0x3e0583ff	0.13038634
5	0xbdd5e75b	-0.10444518
6	0x3ce006f2	0.027347062
7	0xbe07e0e5	-0.13269384
8	0xbda4fe0e	-0.080562696
9	0x3dced4dd	0.10099194
10	0x3e183bb4	0.14866525
11	0x3dc2cfe8	0.09512311
12	0xbdd6eae7	-0.10494023
13	0xbcd5485e	-0.026035484
14	0x3cf7e947	0.030262602
15	0x3df8d398	0.12149733
16	0xbe270770	-0.16311431
17	0x3e2eb678	0.17061794
18	0x3e8fa047	0.2805197
19	0xbdd5983d	-0.10429428
20	0x3da2772a	0.07932885
21	0xbd926d69	-0.071497746
22	0x3a7f1791	0.00097309897
23	0x3d97a4c4	0.074044734
24	0xbd81ba76	-0.06334393
25	0x3b244a60	0.0025068745
26	0x3dfcfbc4	0.12352708
27	0x3e0b7650	0.13619351
28	0x3da458e8	0.0802477
29	0xbe2f4723	-0.1711698
30	0xbe059aa9	-0.1304728
31	0x3e16af8b	0.14715402
32	0xbdb1a918	-0.0867483
33	0x3d9d29de	0.07674001
34	0x3d67aad4	0.0565594
35	0xbbc21007	-0.0059223208
36	0x3d4ac881	0.04950762
37	0x3d4d230e	0.05008226
38	0x3d2c1e14	0.042020872
39	0x3d65ecfc	0.05613421
40	0xbb67e584	-0.0035384605
41	0x3de1c13e	0.11023186
42	0xba757af6	-0.0009364331
43	0x3e18991a	0.14902154
44	0xbd0c5836	-0.034263812
45	0xbdff4f91	-0.12466348
46	0x3e266c34	0.16252214
47	0x3db682f3	0.08911695
48	0xbc721d37	-0.014777473
49	0x3e49c01e	0.19702193
50	0xbe225842	-0.1585398
51	0xbdea587a	-0.11442657
52	0x3dd7e2ca	0.105413035
53	0xbdb72160	-0.08941913
54	0x3e33dc3b	0.1756448
55	0x3bd958c3	0.0066328957
56	0x3d26aa0b	0.04068951
57	0xbc0cfd06	-0.008605247
58	0xbe1804f1	-0.14845635
59	0xbc1691a6	-0.009189999
60	0x3dce7f75	0.10082904
61	0xbcfff61a	-0.03124528
62	0x3e290624	0.16506249
63	0x3e0e713c	0.13910383
64	0x3d5e0e08	0.0542126
65	0xbe27e46f	-0.16395734
66	0x3d8ad2a6	0.06778459
67	0xbdc89bde	-0.09795354
68	0xbd9ba27c	-0.07599351
69	0x3d104b81	0.035228256
70	0xbd8f8005	-0.0700684
71	0xbe24c015	-0.16088898
72	0xbd02344e	-0.031788163
73	0xbd167961	-0.03673685
74	0x3b8c61bc	0.004284112
75	0x3b9bceb8	0.0047548674
76	0x3d946044	0.07244924
77	0xbdf15849	-0.11784417
78	0x3e221616	0.15828738
79	0xbdf0843d	-0.117439725
80	0x3e17ba90	0.14817262
81	0x3dd45392	0.10367502
82	0x3bc19a3d	0.005908279
83	0x3d5cd1d5	0.05391105
84	0x3d563b06	0.052302383
85	0x3e0729a9	0.13199486
86	0x3e0eef95	0.13958581
87	0xbe0855ef	-0.13314031
88	0xbde265e5	-0.11054591
89	0x3e107483	0.14106946
90	0xbe427c74	-0.18992788
91	0xbcdcb7f7	-0.02694319
92	0x3e6d8e0d	0.2319872
93	0x3c8ce380	0.017198324
94	0xbe1b101d	-0.15142865
95	0xbdbfff2d	-0.09374843
96	0xbbec663f	-0.007214337
97	0xbdbf18d6	-0.09330909
98	0x3d92de2e	0.07171284
99	0xbd1c9c93	-0.03823526
100	0x3e2222c0	0.15833569
101	0x3e2bd0e3	0.16778903
102	0x3de7a698	0.11311072
103	0x3db21e4c	0.08697185
104	0x3d79b41e	0.06096279
105	0x3deef415	0.11667649
106	0x3dd36934	0.103228
107	0x3dd528e3	0.10408189
108	0xbd615cb5	-0.055020053
109	0xbcdc2b05	-0.026875982
110	0x3ac2dfb2	0.0014867692
111	0xbd4976b2	-0.049185462
112	0xbcf94331	-0.030427547
113	0x3cf9cf89	0.030494468
114	0x3de5875f	0.112074606
115	0xbe2122a8	-0.15735877
116	0x3e0047c2	0.12527373
117	0xbd87241a	-0.06598683
118	0x3e1f6ba7	0.1556841
119	0x3da52af5	0.08064834
120	0xbb5f8c25	-0.0034110632
121	0x3e692dca	0.22771373
122	0x3dca574c	0.09879932
123	0x3e34a2b0	0.17640185
124	0x3d987529	0.074442215
125	0x3d3576e7	0.044302847
126	0xbe0e7309	-0.1391107
127	0x3d277bb0	0.040889442

network.2.weight f4 [64, 128]
0	0x3e171bbd	0.14756675
1	0x3d85b73f	0.06529092
2	0x3d2c341b	0.04204188
3	0x3d0766b1	0.03305692
4	0x3d422809	0.04740146
5	0xbcb9aee9	-0.022666411
6	0xbccdf477	-0.025140984
7	0x3c8ab399	0.016931342
8	0x3c8675c3	0.016413575
9	0x3d7e370a	0.062064208
10	0xbd6b47fe	-0.057441704
11	0x3c2976c2	0.0103432555
12	0xbd928f92	-0.0715629
13	0xbcecd8de	-0.028912004
14	0xbde91deb	-0.113826595
15	0xbd42a38c	-0.04751925
16	0xbd3c88fe	-0.046029083
17	0x3dba357e	0.09092234
18	0x3cd3dc03	0.025861746
19	0x3d805935	0.06267015
20	0xbcb6bb6f	-0.022306172
21	0x3d4c5c8f	0.04989296
22	0x3d171f2d	0.036894966
23	0x3d1b97b0	0.037986457
24	0x3de5d4b5	0.11222211
25	0x3d25fdc7	0.040525224
26	0x3d316b11	0.043314997
27	0xbd20e958	-0.039285034
28	0x3e008252	0.12549713
29	0x3dac36c2	0.08408882
30	0x3cda3b96	0.02663974
31	0x3d0a0e2a	0.033704914
32	0x3d8dac65	0.06917647
33	0x3d678461	0.05652273
34	0x3d9b59e7	0.07585507
35	0xbdae512c	-0.08511576
36	0x3d36d3c4	0.04463555
37	0x3d102946	0.03519561
38	0x3dc48d2f	0.09597241
39	0x3d59416d	0.05304091
40	0x3da19ed7	0.078916244
41	0x3d543791	0.051810805
42	0x3cca4488	0.024690881
43	0xbbffd4d8	-0.0078073554
44	0xbd7a05c9	-0.061040673
45	0x3c8b073b	0.016971221
46	0x3db8fe2a	0.09032853
47	0xbd98e02a	-0.07464631
48	0x3d18427a	0.037172772
49	0xbc2e9dac	-0.010657709
50	0xbd588e4d	-0.052870084
51	0x3d564969	0.052316103
52	0x3da7c2af	0.0819143
53	0xbd87e91c	-0.06636259
54	0x3d9b351e	0.07578491
55	0xbc918e50	-0.017768055
56	0x3de8c7fd	0.1136627
57	0xbbd7172f	-0.006564043
58	0x3dc1e3b3	0.09467258
59	0xbcd9e686	-0.02659918
60	0xbd189446	-0.03725078
61	0x3d45328e	0.048143916
62	0x3dd3e613	0.103466175
63	0xbdccf3a9	-0.10007412
64	0x3c85e52b	0.016344627
65	0x3d8edc9f	0.06975674
66	0x3d3b0577	0.04565951
67	0xbd0fc7a0	-0.035102487
68	0xbda4cab1	-0.08046473
69	0xbd4c1b38	-0.049830645
70	0xbc8e5a8d	-0.017377162
71	0xbc429b07	-0.011877782
72	0xbd8274e5	-0.06369952
73	0xbdc07d86	-0.09398942
74	0xbc6c81f8	-0.014435284
75	0x3dc91825	0.09819058
76	0x3d223290	0.039599
77	0x3d7487a6	0.059699677
78	0xbb9f49c3	-0.004861088
79	0x3d465d90	0.048429072
80	0x3dd49f08	0.10381895
81	0x3daa8a5e	0.08327173
82	0xbca21ce1	-0.019789161
83	0x3b00a199	0.001962757
84	0x3cc3d18a	0.023903627
85	0x3c1e4f0b	0.0096624
86	0xbbde7a9c	-0.0067895185
87	0xbd8087e6	-0.062759206
88	0xbd6079f4	-0.054803804
89	0x3e3a1d73	0.18175296
90	0x3d5a7e5d	0.053343166
91	0xbde48545	-0.11158232
92	0x3df268d2	0.11836399
93	0x3bc60fe1	0.0060443734
94	0xbd38a485	-0.045078773
95	0xbcbf1283	-0.023324257
96	0x3d8dc82a	0.06922944
97	0x3d3352a6	0.04377999
98	0xbc9c8258	-0.019105121
99	0xbcea5e73	-0.02860949
100	0xbd8e9584	-0.069621116
101	0xbdc2edbc	-0.095180005
102	0xbd1313a4	-0.035907403
103	0xbd58756b	-0.052846354
104	0x3dd417c5	0.10356096
105	0xbb862619	-0.004093897
106	0x3d8a19f6	0.06743233
107	0x3dfa056c	0.122080654
108	0x3ca87166	0.020561885
109	0xbc31f75c	-0.010862198
110	0x3d12e8d2	0.035866566
111	0xbcffb557	-0.0312144
112	0xbc19166d	-0.009343726
113	0xbcafdef7	-0.021468623
114	0xbd10225a	-0.03518901
115	0xb90a80e6	-0.00013208724
116	0xbc8e1ef5	-0.017348746
117	0x3badf680	0.005308926
118	0xbcb4ea9a	-0.022084523
119	0x3d8df98a	0.069323614
120	0x3d4407a1	0.047858838
121	0x3dd4009b	0.10351678
122	0xba3360ec	-0.00068427506
123	0x3be5caba	0.0070126923
124	0x3d1a335e	0.037646644
125	0xbcff29a1	-0.03114778
126	0x3da529e8	0.080646336
127	0x3dc5d7a1	0.096602686
128	0x3d6355ab	0.05550162
129	0x3d1909ea	0.03736297
130	0xbbfa35f2	-0.0076358253
131	0x3d05eaab	0.0326945
132	0xbd450405	-0.048099536
133	0x3c8b2d1c	0.016989283
134	0xbb47e028	-0.0030498598
135	0x3d96cadd	0.07362912
136	0xbda5e56a	-0.08100398
137	0x3dae43f6	0.08509056
138	0x3dd592ef	0.10428416
139	0x3c385e82	0.011253001
140	0x3d6fd10b	0.05854897
141	0xbc632e27	-0.013865984
142	0xbbf0bf87	-0.0073470506
143	0x3d2f7042	0.042831667
144	0x3bf99cc4	0.007617565
145	0x3d9e2ebf	0.0772376
146	0x3d933993	0.07188716
147	0xbc282fc4	-0.010265294
148	0xbd1d14f3	-0.038350057
149	0xbc6aecd8	-0.0143386945
150	0x3b97a68f	0.0046280096
151	0xbd698381	-0.057010178
152	0xbdb34e6c	-0.08755192
153	0xbcb20668	-0.02173157
154	0x3dce9f63	0.10088994
155	0x3d31fa50	0.043451607
156	0x3de2a875	0.11067287
157	0xbdcaf3f1	-0.099098094
158	0x3d01644a	0.031589784
159	0x3db801fd	0.08984754
160	0x3ccd3045	0.02504743
161	0x3d6aecc1	0.057354692
162	0xbcb02461	-0.021501722
163	0xbc5ba596	-0.013406178
164	0xbda4b422	-0.0804217
165	0x3dccd101	0.10000802
166	0x3dadd039	0.08486981
167	0x3d32732d	0.04356687
168	0x3d91b06f	0.0711373
169	0xbcfd28cb	-0.03090324
170	0x3dbb009f	0.09130978
171	0xbdc6498a	-0.09681995
172	0xbcbdd6bf	-0.023173688
173	0x3d61532e	0.055010967
174	0x3c2af5be	0.010434566
175	0xbcf68fa6	-0.030097794
176	0x3d41ed2d	0.04734533
177	0xbb4352a4	-0.0029803896
178	0xbc4bbd89	-0.012435325
179	0xbd3f8587	-0.0467582
180	0x3d90fbe5	0.07079295
181	0xbd15f474	-0.03661008
182	0x3d9e8f16	0.07742135
183	0xbda5915a	-0.08084364
184	0x3c61d59c	0.013783839
185	0x3d9a3a9a	0.075307086
186	0xbd397f1e	-0.045287244
187	0x3cb10166	0.021607112
188	0xbd111e4b	-0.03542928
189	0x3d5ea57c	0.054357037
190	0x3d9713d8	0.07376832
191	0x3d7d99d0	0.061914265
192	0x3d12edfc	0.03587149
193	0x3cfdf1cb	0.030999085
194	0x3c8641ac	0.016388737
195	0x3dd88240	0.10571718
196	0x3c769f5b	0.015052642
197	0xbbaa5fcc	-0.005199408
198	0xbdf2550a	-0.11832626
199	0xbc342eed	-0.010997516
200	0x3d4440f8	0.04791352
201	0x3d8db163	0.069185995
202	0xbd9bbbd5	-0.076041855
203	0x3cb2fdd5	0.021849552
204	0x3d488e2e	0.048963718
205	0x3db69fb8	0.08917183
206	0x3ad5eb24	0.0016320688
207	0x3e1cb03c	0.15301603
208	0xbc2ac0da	-0.010421956
209	0x3df6f92e	0.12059246
210	0x3d47c5ff	0.04877281
211	0x3dd18265	0.10229949
212	0xbb2f177f	-0.0026716886
213	0x3df3eae8	0.11910039
214	0xbce9d527	-0.028544022
215	0xbd78d376	-0.06074854
216	0x3da67c0e	0.0812913
217	0x3d488705	0.04895689
218	0xbd924811	-0.07142652
219	0xbd2f7a73	-0.042841386
220	0x3e13bae9	0.1442677
221	0xbe2d2912	-0.16910198
222	0xbe12e797	-0.14346157
223	0xbd33fee9	-0.043944273
224	0x3dbe0216	0.092777416
225	0xbc932325	-0.017961094
226	0xbc2053b9	-0.009785586
227	0x3d1fa8a7	0.0389792
228	0x3d22446d	0.039616037
229	0x3d97c1b1	0.074099906
230	0x3dd522f2	0.10407056
231	0xbd9b3106	-0.0757771
232	0xbd483133	-0.048875045
233	0xbdd80d41	-0.10549403
234	0xbd4e5292	-0.050371714
235	0x3d968a9e	0.07350658
236	0x3d4ee24b	0.05050878
237	0x3da05b88	0.07829958
238	0x3c1b713c	0.009487446
239	0xbd001f6f	-0.031279977
240	0x3bbbf3dd	0.005735858
241	0xbdad471d	-0.084608294
242	0x3d8dcebe	0.069241986
243	0x3d8c1074	0.06839076
244	0x3d5f58a3	0.05452789
245	0x3cdd6e64	0.027030177
246	0x3ccddea0	0.02513057
247	0x3b809637	0.003924157
248	0x3cf6ee0a	0.030142803
249	0x3bcefc90	0.006316729
250	0xbd69de01	-0.057096485
251	0x3d4a716d	0.049424578
252	0x3d1bfe2d	0.038084198
253	0xbd5dcadb	-0.054148536
254	0x3db7a1a6	0.08966379
255	0x3d14954e	0.0362752

network.2.bias f4 [64]
0	0x3c0fd260	0.008778185
1	0xbd080ea9	-0.033217106
2	0x3d3e0de7	0.046399977
3	0x3d314a30	0.04328364
4	0xbc612726	-0.013742244
5	0x3ba50514	0.0050360058
6	0xbbd8f61f	-0.006621137
7	0x3dad4086	0.084595725
8	0xbcb2f53a	-0.021845449
9	0x3d702218	0.058626264
10	0x3d5aaac3	0.053385507
11	0x3dd3c86a	0.1034096
12	0xbd0a0800	-0.033699036
13	0xbcda265a	-0.026629616
14	0x3d194d30	0.037427127
15	0xbcb42921	-0.021992268
16	0xbbee0be3	-0.0072646006
17	0xbb5cd1de	-0.0033694427
18	0xbd1f0fbf	-0.038833376
19	0xbc9a94c1	-0.01886976
20	0xbcec31ff	-0.028832434
21	0xbc732248	-0.014839716
22	0xbd6117d6	-0.054954372
23	0xbca60be6	-0.020269345
24	0x3c872fef	0.016502349
25	0x3d4e4ab4	0.05036421
26	0xbd69f79a	-0.057120897
27	0xbd52f64a	-0.05150441
28	0xbd7cc058	-0.06170687
29	0xbde1905c	-0.110138625
30	0xbd36bda2	-0.04461444
31	0xba499252	-0.0007689345
32	0xbd8a1cc5	-0.067437686
33	0x3d39ae80	0.04533243
34	0x3c912dfa	0.017722119
35	0x3cfdf2c0	0.030999541
36	0x3d3d4543	0.04620863
37	0x3d55d5a3	0.052205693
38	0xbc167b64	-0.009184692
39	0x3c6faaa9	0.014628091
40	0x3ca5ecb8	0.020254478
41	0x3d6ee84a	0.058326997
42	0x3dcaa896	0.098954365
43	0xbd80bcff	-0.06286048
44	0xbd3728a0	-0.044716477
45	0xbd039a25	-0.032129426
46	0x3daaadc6	0.08333926
47	0x3d9b29b5	0.07576314
48	0xbd49e16a	-0.049287237
49	0x3d6ad0fb	0.057328206
50	0x3ccc79f8	0.024960503
51	0x3dc3db0c	0.09563264
52	0xbd29e0a4	-0.041474
53	0xb7de6290	-2.6510359e-05
54	0xbadcb3be	-0.0016838235
55	0xbb2df607	-0.0026544349
56	0xbc678131	-0.014129923
57	0x3c429cbf	0.0118781915
58	0xb80b312a	-3.318597e-05
59	0x3c17f530	0.009274766
60	0x3da3d4ed	0.07999597
61	0xbc13f485	-0.009030466
62	0x3db2fe5e	0.08739923
63	0xbb76f3e1	-0.0037681984

network.4.weight f4 [32, 64]
0	0xbdc4ecbe	-0.096154675
1	0x3d31a259	0.043367717
2	0x3dc93406	0.09824376
3	0xbdb93a29	-0.09044296
4	0xbcf47976	-0.029843073
5	0x3dc26a95	0.09492985
6	0x3c8e3288	0.01735808
7	0x3e098d1b	0.13432734
8	0xbe1697bc	-0.1470632
9	0xbce8032a	-0.028321821
10	0x3d12bce1	0.03582466
11	0x3c822f86	0.015891802
12	0xbe1a51e9	-0.15070309
13	0xbd348910	-0.044076025
14	0xbcbfb157	-0.023399992
15	0x3de6bf36	0.11266939
16	0xbe390b0c	-0.1807062
17	0x3e225c6b	0.15855567
18	0xbd0aaaf1	-0.03385443
19	0xbdcf3c06	-0.101188704
20	0x3db3a100	0.08770943
21	0x3d43538a	0.04768709
22	0xbc89acbf	-0.016806005
23	0xb83c467b	-4.4888333e-05
24	0x3e044b17	0.1291927
25	0xbcfb4cca	-0.030676264
26	0xbd80f1bf	-0.062961094
27	0xbd3b5dd3	-0.045743775
28	0x3e2887d1	0.1645806
29	0x3e2d13da	0.16902104
30	0xbdcd3566	-0.100199506
31	0xbdba4312	-0.09094824
32	0xbddbf1e0	-0.10739493
33	0x3d29cbda	0.041454174
34	0x3e05e63e	0.13076112
35	0xbd6bfdac	-0.057614967
36	0x3e1157af	0.14193605
37	0x3d808a61	0.06276394
38	0xbd523547	-0.05132034
39	0x3e163c22	0.14671376
40	0x3db093e4	0.08621958
41	0x3d31ad70	0.043378294
42	0x3d6648cb	0.056221765
43	0xbd97b368	-0.07407266
44	0xbe50af86	-0.20379457
45	0x3e22bc7e	0.15892217
46	0xbde7ed7f	-0.11324596
47	0x3cea94fe	0.028635498
48	0x3dcb0581	0.09913159
49	0xbdabfa4d	-0.083973505
50	0x3e5b5188	0.2141782
51	0x3e0e4f2a	0.13897386
52	0x3d9d2b64	0.07674292
53	0xbd94d025	-0.07266263
54	0x3e15136d	0.14558192
55	0x3bf5b93b	0.007498888
56	0x3c672f77	0.014110438
57	0x3e55721a	0.20844308
58	0xbd9e6e29	-0.07735855
59	0xbe46d4b0	-0.19417071
60	0xbe2cdf39	-0.16882028
61	0x3e21a76f	0.15786527
62	0x3da617bf	0.08109998
63	0x3cd62c09	0.026144044
64	0xbdc36b60	-0.095419645
65	0x3dac737e	0.08420466
66	0xbc792e7c	-0.015208837
67	0x3da24baf	0.07924592
68	0xbdc2afc9	-0.095061846
69	0x3e109156	0.14117941
70	0x3dda895e	0.10670732
71	0x3e1cd2e7	0.15314828
72	0x3df45937	0.11931079
73	0x3cc93cdc	0.024565153
74	0x3e0b6ac9	0.13614954
75	0xbc3cf90d	-0.011533988
76	0x3d3b9a5e	0.045801513
77	0xbe14ca47	-0.14530288
78	0x3dcd5ead	0.100278236
79	0x3c379700	0.011205435
80	0xbe03c682	-0.12868693
81	0x3c72fb97	0.0148304915
82	0x3d9d242c	0.07672915
83	0x3c19f957	0.009397826
84	0x3d6f3afd	0.058405865
85	0xba8d2c40	-0.0010770634
86	0xbd624193	-0.055238318
87	0x3e450f5d	0.19244142
88	0xbdc027be	-0.0938258
89	0x3e02e18c	0.12781352
90	0x3de4e4e0	0.11176467
91	0x3d31b8ef	0.043389257
92	0x3e150e55	0.14556248
93	0x3c44876b	0.011995177
94	0x3d110e96	0.0354143
95	0x3dc23623	0.09482982
96	0x3dcd5be0	0.100272894
97	0xbcb5b808	-0.02218248
98	0x3ce2a808	0.027668014
99	0xbd985f3e	-0.07440041
100	0xbd290ea5	-0.04127373
101	0x3ba1dcc2	0.0049396465
102	0xbd2fba60	-0.04290235
103	0x3cf15172	0.029457781
104	0xbd9431b2	-0.07236041
105	0x3d4baed4	0.049727276
106	0xbd0915d0	-0.033468068
107	0xbd720de9	-0.059095297
108	0xbd21eaf2	-0.039530702
109	0x3de9043d	0.113777615
110	0x3d0b2343	0.033969175
111	0x3d9ed1bc	0.077548474
112	0xbc4b28ce	-0.012399865
113	0x3d7b16dc	0.061301097
114	0xbd16b601	-0.036794666
115	0xbde2d284	-0.11075309
116	0xbc4a339f	-0.012341409
117	0xbdec6f00	-0.11544609
118	0x3def2835	0.11677591
119	0xbe3e9ecf	-0.18615268
120	0xbd75077f	-0.059821602
121	0x3d89f113	0.067354344
122	0x3d8011f9	0.06253428
123	0xba8942ff	-0.0010472237
124	0x3e0f0186	0.13965425
125	0xbd75a77b	-0.059974175
126	0x3e0d11e4	0.13776356
127	0x3cd9d2c7	0.026589764
128	0x3cd1627e	0.02555966
129	0x3d274ec3	0.040846597
130	0x3d7a5188	0.06111291
131	0x3dc7b34d	0.09750996
132	0x3cd041ae	0.025421944
133	0x3dd29da3	0.10283973
134	0x3dbf4fcc	0.09341392
135	0x3d980bfc	0.07424161
136	0x3dffc287	0.12488275
137	0x3e046a39	0.12931146
138	0x3e0c1190	0.13678575
139	0x3d0c6ba7	0.034282353
140	0x3cdd2c95	0.026998797
141	0xbd8df949	-0.06932313
142	0xbd11715e	-0.035508506
143	0xbaf6ffda	-0.001884456
144	0xbd42092b	-0.047372025
145	0xbd591af0	-0.053004205
146	0xbcbdede9	-0.023184733
147	0x3e10a68c	0.14126033
148	0x3e618dfd	0.2202682
149	0x3d823422	0.063576
150	0x3bc83354	0.0061096344
151	0xbc7914f5	-0.01520275
152	0x3e09e9ac	0.13468045
153	0x3cc5e881	0.024158718
154	0x3dd8123f	0.10550355
155	0x3dca3c38	0.09874767
156	0xbd14088e	-0.03614097
157	0xbd0fbbbe	-0.035091154
158	0xbd2cd431	-0.04219455
159	0xbccfc2fd	-0.025361532
160	0x3dbe0751	0.09278739
161	0xbd70e628	-0.058813244
162	0xbd95f74b	-0.07322558
163	0xbbe40a72	-0.006959253
164	0x3c0856e2	0.008321496
165	0x3e041971	0.1290033
166	0xbdc73ef2	-0.09728803
167	0x3de4ac22	0.11165644
168	0xbdc61a33	-0.09672966
169	0x3d8ced9d	0.06881259
170	0x3da405b1	0.08008898
171	0xbd8d316d	-0.06894193
172	0xbd197327	-0.037463333
173	0xbe239038	-0.15972984
174	0x3c8ad350	0.016946465
175	0x3dc6ccaf	0.09707009
176	0xbdaea78b	-0.0852805
177	0xbd6f1e58	-0.058378547
178	0x3c9adc52	0.018903885
179	0x3ca01be5	0.019544551
180	0x3daf121a	0.085483745
181	0xbe05378f	-0.13009475
182	0x3e0bdd41	0.1365862
183	0xbcae6d2b	-0.02129229
184	0xbcdd875a	-0.02704208
185	0xbb269f8f	-0.0025424694
186	0x3e4fb34d	0.20283242
187	0xbcb76bb6	-0.022390228
188	0x3c835d55	0.016035715
189	0xbdf98a0c	-0.121845335
190	0xbdb506e8	-0.08839208
191	0x3d91616b	0.07098659
192	0x3c9cdfbb	0.019149652
193	0xbd83354c	-0.0640665
194	0xbdaa43ae	-0.0831369
195	0x3db61cbc	0.088921994
196	0x3e08cdc1	0.13359739
197	0x3db0a7a7	0.08625727
198	0xbdc25f1e	-0.094907984
199	0xbd520484	-0.051273838
200	0x3d9c42d8	0.07629937
201	0xbdad7b18	-0.08470744
202	0x3c84a278	0.016190752
203	0xbd60cee1	-0.054884795
204	0x3dd0fb1c	0.10204145
205	0x3d29ad97	0.041425314
206	0xbb2cff54	-0.0026397305
207	0xbe073981	-0.1320553
208	0x3b394695	0.002827083
209	0xbcb7209b	-0.022354415
210	0xbcc8f5f1	-0.024531337
211	0xb8201d57	-3.8174298e-05
212	0xbd79e852	-0.061012574
213	0x3c4f8905	0.012666945
214	0xbd2ece0c	-0.04267697
215	0xbd771350	-0.060321152
216	0xbdf2b0fc	-0.11850163
217	0x3be524e7	0.0069929245
218	0xbe248057	-0.16064583
219	0x3dc1c3d8	0.09461182
220	0x3d882588	0.066477835
221	0xbc8f1a33	-0.017468547
222	0xbd8b3739	-0.06797642
223	0x3d8febae	0.07027374
224	0x3db29b33	0.08721008
225	0x3d39f7ca	0.045402326
226	0xbd5139cb	-0.051080506
227	0xbd6a8b2b	-0.057261627
228	0xbbc5efbb	-0.006040541
229	0xbca1965b	-0.019725015
230	0x3e0dfd3a	0.1386613
231	0x3b89316b	0.0041867993
232	0x3d2c753b	0.042103987
233	0x3db20938	0.086931646
234	0x3def37eb	0.116805874
235	0xbd59466b	-0.05304567
236	0x3de07716	0.10960214
237	0x3ddb5ef9	0.10711474
238	0x3dc3f9bb	0.09569117
239	0xbd120c7b	-0.035656434
240	0x3dbe48dc	0.092912406
241	0x3dc412db	0.09573909
242	0xbd3edbe4	-0.046596423
243	0x3dfbea4b	0.12300547
244	0x3dad3532	0.08457412
245	0x3b39bf24	0.0028342688
246	0xbdd703fa	-0.10498805
247	0xbd2dabd8	-0.04240021
248	0x3ccbcf74	0.024879195
249	0x3d2ad3cf	0.041705903
250	0xbdfbb576	-0.1229047
251	0x3c1d9a26	0.009619271
252	0x3e0a3f5c	0.13500732
253	0x3c021172	0.00793873
254	0x3d904106	0.07043652
255	0xbe075520	-0.13216066

network.4.bias f4 [32]
0	0x3d701311	0.058611933
1	0xbda7e7fc	-0.081985444
2	0x3e0381fb	0.12842552
3	0xbd6ef102	-0.05833531
4	0x3d5f4614	0.05451019
5	0xbdb6a4f5	-0.08918182
6	0xbd95207b	-0.07281586
7	0xbd805e00	-0.06267929
8	0x3d6bbd99	0.05755386
9	0x3e06d984	0.13168913
10	0x3dd0f629	0.10203201
11	0x3e13b884	0.14425856
12	0xbdbf487d	-0.09339998
13	0xbd580cb8	-0.052746505
14	0x3c592931	0.01325445
15	0xbdb8c52d	-0.09021983
16	0x3e0ee8f9	0.1395606
17	0x3d6ecd73	0.0583014
18	0xbd9b146d	-0.07572255
19	0xbd044df9	-0.032300923
20	0x3dd50c59	0.10402746
21	0x3bceb69b	0.0063083894
22	0xbd02d18f	-0.031938132
23	0x3cf2e160	0.029648483
24	0xbdc02410	-0.093818784
25	0x3daba5c1	0.083812244
26	0xbca77c99	-0.020445155
27	0x3e113a02	0.14182284
28	0x3dfc9dec	0.12334809
29	0xbc53151a	-0.012883449
30	0x3d4ea47b	0.05044983
31	0x3d9aaa92	0.07552065

network.6.weight f4 [3, 32]
0	0x3db9c8ee	0.090715274
1	0xbdcd4ea8	-0.10024768
2	0xbda6b711	-0.08140386
3	0xbe418005	-0.18896492
4	0x3ddc1870	0.107468486
5	0x3e68d992	0.22739246
6	0x3dd1eb42	0.1024995
7	0x3e79f241	0.24408819
8	0x3e80f948	0.25190187
9	0x3e5a44e3	0.2131534
10	0x3c80ccea	0.01572271
11	0xbc822dee	-0.015891042
12	0xbdddd85d	-0.10832284
13	0xbe8a31c0	-0.2699108
14	0xbd676bda	-0.05649934
15	0xbc5f1ce5	-0.013617729
16	0x3d8ae655	0.067822136
17	0xbd94997f	-0.072558396
18	0xbd80d7ac	-0.06291136
19	0x3dab4045	0.08361868
20	0xbe21c9e5	-0.15799673
21	0xbdaa305d	-0.08310006
22	0x3e3199cd	0.17343827
23	0x3de79e38	0.11309475
24	0xbb0c2200	-0.002138257
25	0x3dee0c57	0.116234474
26	0x3e7984c0	0.24367046
27	0x3e522352	0.20521286
28	0x3e29c02e	0.16577217
29	0xbcf78309	-0.03021385
30	0x3d9e577e	0.077315316
31	0x3e2a10e3	0.16608004
32	0xbd0316e3	-0.03200425
33	0xbe41df40	-0.1893282
34	0xbe18e725	-0.14931925
35	0x3df06c70	0.11739433
36	0xbe224d60	-0.15849829
37	0x3cb1e630	0.021716207
38	0x3d353ad6	0.044245563
39	0x3cee5446	0.02909292
40	0x3d7da7c0	0.061927557
41	0xbe9b886b	-0.30377516
42	0xbdea1c52	-0.11431183
43	0x3e8b38bd	0.27191725
44	0x3e7440af	0.238528
45	0x3db294cc	0.08719787
46	0xbe327066	-0.17425689
47	0xbe09a2d4	-0.1344102
48	0x3e220270	0.15821242
49	0x3e794875	0.24344046
50	0x3e1d7952	0.15378311
51	0xbe55f9d2	-0.2089608
52	0x3e1a3dcc	0.15062636
53	0xbe0c48d6	-0.1369966
54	0xbe30f515	-0.17280991
55	0x3d2fe109	0.04293922
56	0x3c33e6d0	0.010980323
57	0x3da22f42	0.0791917
58	0xbe8a28db	-0.26984295
59	0xbd8c3d7f	-0.06847667
60	0x3e58e39f	0.2118058
61	0xbd4f016d	-0.05053847
62	0x3dd2dcb6	0.102960035
63	0x3e4090ee	0.18805286
64	0xbe66704c	-0.22503775
65	0x3dc492e9	0.095983334
66	0x3e384c12	0.17997769
67	0x3c28836c	0.01028524
68	0x3dbe51f9	0.09292979
69	0xbde3c5d3	-0.11121716
70	0x39f423f1	0.00046566085
71	0xbeb205e1	-0.3477011
72	0xbe138183	-0.14404874
73	0x3dd6a46b	0.10480579
74	0xbe568fde	-0.20953318
75	0x3dd6fc30	0.1049732
76	0x3e1000d3	0.14062814
77	0x3e80c106	0.25147265
78	0x3df83dd8	0.12121171
79	0x3d5d99ad	0.054101635
80	0xbe32fcb2	-0.17479208
81	0x3d149192	0.03627164
82	0x3d45d1d4	0.04829581
83	0xbce157b6	-0.027507644
84	0xbde4c60c	-0.11170587
85	0x3e3300df	0.17480801
86	0xbe1309c6	-0.14359197
87	0xbe295a7c	-0.16538423
88	0x3da575aa	0.08079083
89	0xbe3ee802	-0.18643191
90	0xbc343690	-0.010999337
91	0xbe34a363	-0.17640452
92	0xbe031ccb	-0.12803952
93	0x3de5c37e	0.11218928
94	0xbe3ad818	-0.18246496
95	0xbe98973b	-0.2980288

network.6.bias f4 [3]
0	0x3e33f9ba	0.17575732
1	0xbdcd3299	-0.10019416
2	0x3b623163	0.00345143

network.0.weight f4 [128, 30]
0	0xbe0c2aa5	-0.13688143
1	0xbe0c5403	-0.13703923
2	0xbd7eb6e8	-0.06218615
3	0xbd986382	-0.074408546
4	0x3d672ce9	0.056439314
5	0xbd88c8c9	-0.06678922
6	0x3e74683b	0.23867886
7	0xbdc5763c	-0.09641692
8	0x3d17d053	0.037063908
9	0xbb58fc3e	-0.0033109332
10	0x3d40a8c8	0.047035962
11	0xbdf455a4	-0.11930397
12	0xbe7c4610	-0.24636102
13	0xbcbd2648	-0.023089543
14	0x3d82cd33	0.06386795
15	0xbe7e165b	-0.24813215
16	0xbe157573	-0.14595585
17	0xbeacd0de	-0.33753103
18	0x3e7422da	0.2384142
19	0xbeb68859	-0.356509
20	0x3e656601	0.22402193
21	0x3edfa7a3	0.43682584
22	0xbdf1350d	-0.11777697
23	0xbea2ec29	-0.318208
24	0x3e205fd2	0.15661553
25	0xbc523000	-0.012828827
26	0xbdf8485f	-0.12123179
27	0xbd0004cc	-0.031254575
28	0xbe1ee20f	-0.15515922
29	0xbd0fef84	-0.03514053
30	0xbc32140f	-0.01086904
31	0xbca5325a	-0.020165611
32	0x3dbf70f2	0.093477145
33	0x3c026d90	0.007960692
34	0x3d343cfa	0.044003464
35	0xbd763db2	-0.06011743
36	0x3e2f728d	0.17133541
37	0x3e275b1b	0.16343348
38	0xbe25ce8e	-0.16192076
39	0xbd7a323e	-0.06108307
40	0x3e00ed7f	0.12590598
41	0x3e00a1cc	0.1256172
42	0xbd915182	-0.070956245
43	0x3eb44539	0.35209063
44	0xbe8bb329	-0.27285126
45	0x3ee79c4e	0.4523644
46	0x3eab5c07	0.3346865
47	0xbe182af1	-0.14860131
48	0xbe43351e	-0.19063231
49	0xbedfae2e	-0.43687576
50	0xbc7ba474	-0.015359033
51	0x3d5c2810	0.053749144
52	0xbdb6512f	-0.08902203
53	0xbda6d9d4	-0.08147016
54	0xbdc0f74a	-0.09422167
55	0xbdf74f3a	-0.12075658
56	0xbdc9c447	-0.0985189
57	0x3b9dfa00	0.004821062
58	0x3d9644bc	0.07337329
59	0xbcb77fe0	-0.022399843
60	0x3e1cd236	0.15314564
61	0xbd90ec3c	-0.07076308
62	0x3d7eeac7	0.06223562
63	0x3de575c4	0.11204103
64	0xbd2a0261	-0.041506175
65	0x3e681af4	0.22666532
66	0x3e8ff8a3	0.28119382
67	0xbe842455	-0.2580897
68	0x3e4e935b	0.20173399
69	0x3d1c1d94	0.038114145
70	0x3e6826d5	0.22671063
71	0xbe41f02e	-0.18939278
72	0xbd94ac8f	-0.072594754
73	0x3d88b50f	0.06675159
74	0x3e1b1baa	0.15147272
75	0xbe78d467	-0.24299775
76	0xbde929a9	-0.11384899
77	0xbe05b570	-0.13057494
78	0x3e20377c	0.15646166
79	0xbe5f8ba4	-0.21830612
80	0xbc7d5099	-0.0154611105
81	0xbd2b895d	-0.041879047
82	0x3e8d78bf	0.27631184
83	0xbeef7353	-0.46767673
84	0xbe07eca0	-0.13273859
85	0x3e01a5d8	0.1266092
86	0xbdd6dc63	-0.10491254
87	0x3d3cc9ec	0.046091005
88	0x3e07e510	0.13270974
89	0x3e2ea0ee	0.17053577
90	0x3d11bb7a	0.035579182
91	0x3e947bd5	0.29000726
92	0x3dbbf9c1	0.09178496
93	0xbcf63a35	-0.030057052
94	0x3e1bed4a	0.15227237
95	0x3eb9773d	0.36223784
96	0x3d5bb9a5	0.05364384
97	0xbbd540dc	-0.006507976
98	0x3dfe94fb	0.124307595
99	0x3d54ea2f	0.051981147
100	0x3e943af0	0.28951216
101	0xbe2fb83e	-0.17160127
102	0x3e76229d	0.24036641
103	0xbe1b60c0	-0.15173626
104	0x3e03cab8	0.128703
105	0x3bea1c3e	0.00714448
106	0x3d214cb5	0.039379794
107	0x3e096776	0.13418373
108	0x3da995db	0.08280536
109	0x3e807ed0	0.2509675
110	0x3e03819c	0.12842411
111	0x3e9dcb31	0.30819085
112	0x3e01914f	0.12653087
113	0x3e6d2435	0.23158343
114	0x3d2c0390	0.041995585
115	0x3be11c80	0.0068698525
116	0xbb56cf00	-0.003277719
117	0x3e10d372	0.1414316
118	0xbda530b9	-0.08065934
119	0x3de52bdc	0.11190006
120	0x3e1a7877	0.15085016
121	0x3e1f950a	0.15584198
122	0x3e1132b0	0.14179492
123	0x3db55ed9	0.088559814
124	0xbd054f0e	-0.032546096
125	0x3e642fa0	0.22283792
126	0x3e9706bb	0.29497322
127	0xbd378093	-0.044800352
128	0x3e968d52	0.29404694
129	0x3d059fe2	0.03262318
130	0x3e932475	0.28738752
131	0x3b8af2b0	0.0042403564
132	0x3df89c96	0.121392414
133	0x3dd2eace	0.10298692
134	0x3ea7cfd8	0.3277576
135	0xbdbed418	-0.093177974
136	0x3d71e7d1	0.059058968
137	0x3e09e588	0.13466465
138	0x3e5c439f	0.2151017
139	0xbc57531d	-0.013142374
140	0x3e19a801	0.15005495
141	0x3d9a272c	0.07527003
142	0x3d80e896	0.06294362
143	0xbe4009bf	-0.18753718
144	0xbe2153f7	-0.15754686
145	0x3dbbb01c	0.091644496
146	0x3e3a8192	0.1821349
147	0xbd894682	-0.067029014
148	0x3e10307e	0.14080998
149	0x3cdeccd8	0.027197286
150	0x3d27da92	0.04097993
151	0x3e4c24ee	0.19935963
152	0x3e152495	0.14564736
153	0xbdd19b45	-0.102346934
154	0x3e275944	0.16342646
155	0xbe211e73	-0.15734272
156	0xbe3f8e6c	-0.18706673
157	0xbd862118	-0.06549281
158	0xbe0c502e	-0.13702461
159	0x3c99c113	0.018768823
160	0x3d1e40ae	0.038635902
161	0xbd946eb5	-0.07247678
162	0x3e10f192	0.14154652
163	0xbdf9be20	-0.121944666
164	0xbe5d7c61	-0.21629478
165	0x3e23a43c	0.15980619
166	0x3e785332	0.24250486
167	0x3dcc588a	0.09977825
168	0xbc52fba1	-0.012877376
169	0xbd99a673	-0.07502451
170	0x3d4895c4	0.048970953
171	0x3e850654	0.2598139
172	0x3e827af4	0.2548443
173	0xbdc678d8	-0.09691018
174	0x3d118e1c	0.035535917
175	0x3dd6bdf4	0.104854494
176	0x3e022280	0.12708473
177	0x3d01efac	0.03172271
178	0xbe11e192	-0.14246204
179	0x3e29f106	0.1659585
180	0x3c06fd74	0.008239139
181	0xbdb1847a	-0.08667846
182	0xbdb92a6a	-0.09041293
183	0xbd039d4a	-0.032132424
184	0x3da07913	0.07835593
185	0x3e5ff714	0.21871597
186	0xbe030234	-0.12793809
187	0x3d887160	0.066622496
188	0x3cdd3ff3	0.027008032
189	0x3d5110c9	0.0510414
190	0xbe046a42	-0.12931159
191	0x3e324149	0.17407717
192	0x3e3c5905	0.18393333
193	0xbcec91a7	-0.028878046
194	0xbe07f4bd	-0.13276954
195	0xbd7f73a8	-0.062366158
196	0xbe358eab	-0.17730205
197	0x3db0ef26	0.08639364
198	0x3d3a7edf	0.04553115
199	0x3f1238f5	0.5711816
200	0xbd7c9a38	-0.061670512
201	0x3ea2bd0e	0.31784862
202	0x3db1cd5e	0.08681749
203	0x3d4fd310	0.050738394
204	0xbd9517e3	-0.07279947
205	0xbdebad8b	-0.1150771
206	0x3e03264c	0.12807578
207	0x3da31a64	0.07964018
208	0x3e293db0	0.16527438
209	0x3e0db532	0.13838652
210	0xbd283a83	-0.041071426
211	0xbd3bbdc2	-0.045835264
212	0xbc4a904b	-0.012363504
213	0x3d8f6e0c	0.07003412
214	0x3d6d486e	0.057930402
215	0x3d77c4c7	0.060490396
216	0x3e4df021	0.20111133
217	0x3e93915f	0.28821847
218	0x3d21ae15	0.03947266
219	0xbe74904b	-0.23883168
220	0xbd4fe2a9	-0.05075327
221	0x39474ddc	0.00019007124
222	0xbc46230a	-0.012093315
223	0x3e8c7dac	0.2743963
224	0x3e32604e	0.1741955
225	0x3e1e31aa	0.15448633
226	0x3e9cb620	0.306077
227	0xbd87f4b0	-0.06638467
228	0xbcf19fba	-0.029495109
229	0xbe9b8bbf	-0.30380055
230	0xbc708110	-0.014679208
231	0x3e139a63	0.14414363
232	0xbd39d9a6	-0.04537358
233	0x3da80b04	0.08205226
234	0x3dd045f4	0.101695925
235	0xbd6aa268	-0.05728379
236	0x3daea674	0.08527842
237	0xbe19b56a	-0.1501061
238	0xbc1598b0	-0.009130642
239	0x3bb061e0	0.0053827614
240	0x3d8f1823	0.069870256
241	0x3e163f3e	0.14672562
242	0xbe28dd66	-0.16490707
243	0xbbc608ed	-0.0060435445
244	0xbd93b6b6	-0.07212584
245	0x3cb36697	0.021899505
246	0xbe87f9d7	-0.265578
247	0x3c9e451e	0.019320067
248	0x3cab30c8	0.020897284
249	0x3dc5cd07	0.096582465
250	0xbe09ffec	-0.13476533
251	0x3e301fe0	0.1719966
252	0x3dbd5064	0.09243849
253	0xbca44937	-0.020054443
254	0xbe8b304a	-0.2718528
255	0x3d83ca4a	0.06435068

network.0.bias f4 [128]
0	0x3e4770a3	0.19476561
1	0xbe40d3c7	-0.18830787
2	0xbe07d581	-0.13265039
3	0xbd9d630b	-0.076849066
4	0x3dfcdc16	0.123466656
5	0x3e32612f	0.17419885
6	0x3e1798ec	0.14804429
7	0xbe441c37	-0.19151388
8	0x3dd3094d	0.10304508
9	0x3e377049	0.17913927
10	0x3bfb3886	0.00766665
11	0xbd568d81	-0.052381042
12	0x3de078b1	0.1096052
13	0x3e1c0575	0.15236457
14	0xbda7b685	-0.0818911
15	0x3e28b418	0.1647495
16	0xbd69cce4	-0.057080165
17	0x3e5b38da	0.21408406
18	0x3e727d5c	0.23680633
19	0x3c8abd87	0.016936077
20	0x3ddfba27	0.109241776
21	0x3d0bae6c	0.03410189
22	0xbe0c73bb	-0.13716023
23	0xbdbf9406	-0.09354405
24	0xbdb442b1	-0.08801783
25	0xbe4d8a9e	-0.2007241
26	0x3d655e09	0.055997882
27	0x3e170ecc	0.14751738
28	0x3e4396e4	0.19100529
29	0xbc601963	-0.013677928
30	0xbda357e0	-0.07975745
31	0x3d1a0b43	0.037608396
32	0xbda977e0	-0.082748175
33	0x3e29c8d7	0.1658052
34	0x3e539e72	0.20665911
35	0xbd98be24	-0.074581414
36	0x3e1e8384	0.15479857
37	0x3e80d11c	0.25159538
38	0x3e4f3e51	0.20238616
39	0xbd43796b	-0.047723215
40	0x3e12d3a2	0.14338544
41	0xbcc2954d	-0.023752833
42	0xbe26294f	-0.16226695
43	0x3e1e288a	0.15445152
44	0x3d1ad479	0.037800286
45	0xbe884d7c	-0.26621616
46	0xbd7562e2	-0.059908755
47	0x3cdad21e	0.02671152
48	0xbe1c7073	-0.15277271
49	0x3e03c8b4	0.12869531
50	0x3e4ce702	0.20009997
51	0x3e9f804d	0.31152573
52	0x3deeb73f	0.11656045
53	0x3da235e3	0.07920434
54	0x3da63fc7	0.08117633
55	0xbd3a83ad	-0.045535732
56	0x3e023fbe	0.12719628
57	0x3dcc96d2	0.09989704
58	0x3dfbbe9e	0.12292217
59	0x3dda1f2d	0.106504776
60	0x3df31699	0.118695445
61	0x3e977a64	0.29585564
62	0x3da5b19e	0.080905184
63	0x3d441716	0.04787358
64	0xbd8c745e	-0.06858133
65	0xbdc36347	-0.0954042
66	0xbe2053e1	-0.15656997
67	0x3ce6838e	0.028138902
68	0x3e21dddc	0.15807289
69	0x3e1bb52f	0.15205835
70	0x3d873e95	0.066037335
71	0x3e357189	0.17719091
72	0xbca9cbfd	-0.020727152
73	0x3d3bfb6a	0.045894064
74	0x3e419c4b	0.18907277
75	0x3e1997c8	0.14999306
76	0xbeab332a	-0.33437473
77	0x3bb488fe	0.005509495
78	0x3baf91c1	0.0053579514
79	0xbde74f5f	-0.11294436
80	0x3dfa8f5e	0.12234376
81	0xbe553b8d	-0.20823498
82	0x3bfe8bcb	0.0077681295
83	0x3e422719	0.18960227
84	0xbd809831	-0.06279028
85	0x3d200620	0.03906834
86	0x3d6200dd	0.055176605
87	0x3e3fc780	0.18728447
88	0x3e333558	0.17500818
89	0xbcc4fd8f	-0.024046687
90	0xbe44518a	-0.1917173
91	0xbd293635	-0.04131146
92	0x3dc78108	0.09741408
93	0x3e7848f8	0.24246585
94	0x3e1329f0	0.14371467
95	0xbe03f581	-0.12886621
96	0x3e24569b	0.16048662
97	0x3e7a64ce	0.24452516
98	0xbb93ff8b	-0.004516547
99	0x3e50f33d	0.20405288
100	0xbd4e2af5	-0.050333936
101	0x3de89208	0.11355978
102	0xbcc10966	-0.023564052
103	0xbd46aa5e	-0.04850232
104	0x3e4ff3d5	0.20307858
105	0x3e609e6f	0.21935438
106	0xbe4c4893	-0.1994956
107	0x3b3e45a2	0.0029033204
108	0x3e1372bc	0.14399236
109	0xbdedfbcc	-0.11620292
110	0xbe1b6c34	-0.15177995
111	0x3ccb7663	0.024836725
112	0x3e96b3b9	0.29433993
113	0x3d91a99d	0.07112429
114	0x3df6a575	0.12043277
115	0x3e406c4f	0.18791316
116	0xbe3559a4	-0.17709976
117	0x3e50f13a	0.2040452
118	0xbec48927	-0.3838589
119	0x3e027c0b	0.12742631
120	0x3e8e1c71	0.27756074
121	0xbe20e4c0	-0.15712261
122	0x3da807f4	0.08204642
123	0xbe5abc92	-0.21360996
124	0x3d594443	0.053043615
125	0x3e5aee9f	0.21380089
126	0x3e0bc47a	0.13649169
127	0x3da4c5b4	0.080455214

network.2.weight f4 [64, 128]
0	0x3c92eddd	0.017935688
1	0x3c1e6690	0.0096680075
2	0xbd064e08	-0.03278926
3	0xbc51cd72	-0.01280533
4	0xbda16139	-0.07879872
5	0x3ca2c0c2	0.019867305
6	0xbd82e624	-0.06391552
7	0xbe196ac0	-0.14982128
8	0x3b2ff601	0.002684951
9	0x3d559a25	0.052148957
10	0x3d75fef6	0.060057603
11	0x3d8d7000	0.06906128
12	0xbdd34d34	-0.1031746
13	0xbe361973	-0.17783146
14	0xbce0992b	-0.027416786
15	0xbcad5a89	-0.021161335
16	0x3a8b759a	0.0010639906
17	0x3c13f283	0.009029987
18	0x3c3bba7d	0.0114580365
19	0xbd03e752	-0.032203026
20	0xbd8e12ff	-0.06937217
21	0x3c41c835	0.011827518
22	0xbd6d66df	-0.057959434
23	0x3bcb07fe	0.006196021
24	0xbda614ec	-0.08109459
25	0xbdc4892a	-0.095964745
26	0xbd79b97b	-0.060967904
27	0xbced877f	-0.028995274
28	0xbce34a6e	-0.027745452
29	0x3d4a7e56	0.04943689
30	0x3d6d6919	0.057961557
31	0xbda22d20	-0.07918763
32	0x3c21415a	0.009842241
33	0x3b364507	0.002781214
34	0x3d68f3bc	0.05687307
35	0xbe023ee2	-0.127193
36	0xbde54d98	-0.111964405
37	0x3ce9333c	0.028466813
38	0xbe114b69	-0.14188923
39	0xbd67bd2c	-0.056576893
40	0x3d245706	0.040122055
41	0xbe23c2c4	-0.15992266
42	0x3d68f210	0.056871474
43	0x3bb77195	0.005598257
44	0x3cffbfaf	0.031219332
45	0xbcbce0c4	-0.023056395
46	0x3ce2831e	0.027650412
47	0xbdf060cd	-0.11737213
48	0xbda03ca6	-0.07824068
49	0x3d3c1f94	0.045928553
50	0xbc1bac68	-0.009501554
51	0xbd85fec2	-0.06542732
52	0x3bfcb8ed	0.0077124746
53	0x3ce0123e	0.027352449
54	0xbd82a6cf	-0.063794725
55	0xbe5f7fef	-0.21826147
56	0xbe337d26	-0.17528209
57	0xbda75f59	-0.08172483
58	0x3d9bf27b	0.07614609
59	0xbdc469fa	-0.09590526
60	0x3d15a2d6	0.036532246
61	0xbdd80f20	-0.1054976
62	0xbe6ad875	-0.22934134
63	0xbbe304b6	-0.006928052
64	0xbc658b12	-0.014010208
65	0xbd815cb0	-0.06316507
66	0xbddafdd0	-0.10692942
67	0xbd098006	-0.03356936
68	0x3d6e26c9	0.058142457
69	0xbca1a71e	-0.019733008
70	0xbdb07579	-0.08616156
71	0x3d836ec0	0.06417608
72	0xbe7f3c2a	-0.24925295
73	0x3a98207c	0.0011606361
74	0xbd07a940	-0.033120394
75	0x3c841aec	0.016126119
76	0xbe16bb3d	-0.14719863
77	0xbe043b09	-0.12913145
78	0xbcc7e66b	-0.024401864
79	0xbd32e3f5	-0.043674428
80	0xbd631e91	-0.055449072
81	0x3cf12531	0.02943668
82	0xbda7c342	-0.08191539
83	0xbc521139	-0.012821489
84	0x3dcf09aa	0.10109265
85	0xbe2a3f88	-0.16625798
86	0xbda4f63c	-0.08054778
87	0xbcf026d9	-0.029315399
88	0xbddf8e48	-0.1091581
89	0x3de2dfa0	0.11077809
90	0x3d8a9cd9	0.067681976
91	0x3bd6c350	0.006554045
92	0x3b6a40c3	0.0035744167
93	0x3ab5e5af	0.0013877655
94	0x3caf721f	0.021416722
95	0x3d755cad	0.059902836
96	0xbe367c3b	-0.17820828
97	0x3d1a5505	0.037678737
98	0xbd465e10	-0.04842955
99	0x3bebe7c0	0.0071992576
100	0xbe2f06e0	-0.17092466
101	0x3d09f986	0.03368523
102	0x3c89dada	0.01682799
103	0xbde13bcb	-0.10997733
104	0xbd6c8755	-0.05774625
105	0xbd3e3c2d	-0.046444107
106	0x3cde6c56	0.027151268
107	0xbd8a1bcc	-0.06743583
108	0xbe4bb5b5	-0.19893534
109	0x3be8c4b1	0.0071035256
110	0xbdbf6ccc	-0.09346923
111	0xba9bf4ec	-0.0011898554
112	0xbe05bef7	-0.13061129
113	0x3d9c1a62	0.076222196
114	0xbb47d5b8	-0.0030492377
115	0x3d7c9dab	0.0616738
116	0x3d20247f	0.039097305
117	0xbd726639	-0.05917952
118	0x3b98d3a2	0.0046639005
119	0xbcb5beb8	-0.022185668
120	0xbd4169ce	-0.047220044
121	0xbd2a88d3	-0.041634392
122	0x3d1cec89	0.038311515
123	0xbd5b5002	-0.0535431
124	0x3d87253d	0.065988995
125	0x3c48eeaa	0.012263933
126	0xbd4e0fb3	-0.05030794
127	0xbd8eb571	-0.06968201
128	0x3e4ca898	0.19986188
129	0x3e406d0e	0.18791601
130	0xbe309df1	-0.1724775
131	0xbe0f1c1a	-0.13975564
132	0xbea2de22	-0.318101
133	0x3e67d425	0.2263952
134	0xbe078c47	-0.13237105
135	0x3ee66876	0.45001572
136	0xbc15c174	-0.009140361
137	0x3e3b47e7	0.18289147
138	0x3dac9c4c	0.08428249
139	0xbc37bd16	-0.011214515
140	0x3d486f83	0.04893447
141	0xbd0871df	-0.03331172
142	0x3e085df3	0.13317089
143	0x3e369b36	0.17832646
144	0x3e5ee2df	0.21766232
145	0xbd56a39e	-0.05240213
146	0x3e702af6	0.23453888
147	0x3e1f7967	0.15573655
148	0xbe01c7ca	-0.1267387
149	0x3e99f485	0.30069366
150	0x3cc01c61	0.023451032
151	0x3eb78638	0.35844588
152	0x3d16cada	0.036814548
153	0xbe4ce9ad	-0.20011015
154	0xbdccbdcd	-0.09997139
155	0xbe8f56fe	-0.27996057
156	0x3ea2a0ab	0.31763205
157	0x3dfa8ef1	0.12234295
158	0xbe1da9c3	-0.1539679
159	0x3cf1e710	0.029529124
160	0x3e0f9567	0.14021836
161	0x3d4ad410	0.049518645
162	0x3d9e8a8a	0.07741268
163	0xbd2fcde3	-0.04292096
164	0xbe280d0f	-0.16411231
165	0xbcf6b001	-0.030113222
166	0x3bf376a5	0.007429915
167	0xbd2a584f	-0.041588124
168	0x3df8fa59	0.12157125
169	0xbe8e231c	-0.2776116
170	0x3e7cf50c	0.24702853
171	0x3dd3956b	0.103312336
172	0xbd1535b0	-0.036428154
173	0x3cf2f99b	0.029660037
174	0x3e79237e	0.24329945
175	0xbe29109b	-0.1651024
176	0x3d3958ad	0.045250583
177	0x3d84813e	0.064699635
178	0x3d024f3d	0.03181385
179	0x3e0a4e27	0.13506375
180	0x3e6867f8	0.22695911
181	0x3dd2d7dd	0.10295079
182	0xbb8b1ab8	-0.0042451285
183	0x3dfbfd3a	0.123041585
184	0xbd1d5b7e	-0.038417332
185	0x3c8f3c9f	0.017484961
186	0x3e3eb317	0.18623005
187	0x3e380eac	0.17974347
188	0x3ce14b00	0.027501583
189	0xbcf2bfba	-0.029632438
190	0x3e9547a8	0.29156232
191	0x3cf7efa3	0.030265635
192	0x3e5017c6	0.20321569
193	0x3e0575d0	0.13033223
194	0x3e1736e7	0.14767037
195	0xbdd14a26	-0.10219221
196	0x3e5c7e4d	0.21532555
197	0x3e1cdc81	0.1531849
198	0x3d1ccdd9	0.03828225
199	0xbe9c2f5b	-0.3050488
200	0x3e437b4a	0.1909
201	0x3e3ca9ba	0.1842412
202	0x3d47b575	0.048757035
203	0x3dab2fa0	0.08358693
204	0x3ec00e1a	0.3751076
205	0xbe0044b2	-0.12526205
206	0x3e57e963	0.21085124
207	0xbe8d7e3f	-0.2763538
208	0xbe6ebb0b	-0.23313539
209	0x3c13db51	0.009024457
210	0x3d3c1063	0.045914065
211	0x3d8bbf51	0.068236
212	0x3e607f14	0.21923476
213	0x3e2f3f5f	0.17114018
214	0x3e5c5ec6	0.21520528
215	0x3e044032	0.12915114
216	0x3ec50fdd	0.38488665
217	0x3e6dd3b1	0.23225285
218	0x3dbe5940	0.09294367
219	0xbe7243fa	-0.23658744
220	0xbc660eda	-0.014041627
221	0x3d873d6e	0.06603514
222	0x3e46064c	0.1933834
223	0x3de8e5d1	0.11371959
224	0xbe8a34b7	-0.26993343
225	0xbea0301e	-0.3128671
226	0x3d625d80	0.05526495
227	0x3df66e05	0.12032703
228	0x3e3e8cd6	0.18608412
229	0x3e131eae	0.14367172
230	0xbe61d079	-0.22052182
231	0x3dc8cc87	0.098046355
232	0x3d988255	0.07446734
233	0xbe8522d2	-0.26003128
234	0xbe1c816d	-0.15283747
235	0x3e340e68	0.1758362
236	0xbe9086c8	-0.2822783
237	0x3d831e8e	0.06402312
238	0xbd8310ca	-0.06399687
239	0x3e348884	0.17630202
240	0xbca50989	-0.020146148
241	0x3e5e82e4	0.21729618
242	0x3e33867c	0.1753177
243	0x3dfc01e5	0.12305049
244	0xbe95320c	-0.29139745
245	0x3e091fd1	0.13391043
246	0x3f01072f	0.50401586
247	0x3e65ec4b	0.2245342
248	0xbe62f093	-0.22162084
249	0x3e53a93e	0.2067003
250	0x3dfa62a0	0.122258425
251	0xbdad486f	-0.08461081
252	0xbd549790	-0.051902354
253	0x3e01205b	0.12609999
254	0xbdecf762	-0.11570622
255	0x3da68b0a	0.08131988

network.2.bias f4 [64]
0	0x3d5f424f	0.054506596
1	0x3d3c066f	0.045904573
2	0xbd84408e	-0.06457625
3	0x3e16c493	0.14723425
4	0x3c9e9522	0.019358221
5	0x3e2c3295	0.1681617
6	0x3e27c4b7	0.16383635
7	0xbd81334e	-0.06308614
8	0xbdd6dfdf	-0.10491919
9	0x3d7f607a	0.062347867
10	0x3de370f4	0.111055285
11	0x3cb12326	0.021623205
12	0xbe2660f3	-0.1624792
13	0xbd93d76a	-0.07218821
14	0x3d8fdf28	0.070249856
15	0x3dfdbbcb	0.12389334
16	0xbca19a61	-0.019726934
17	0xbe0c532a	-0.137036
18	0x3ce695e8	0.028147653
19	0x3dea3a0c	0.11436853
20	0x3d0d7d34	0.03454323
21	0xbd910b15	-0.07082192
22	0x3d8d6715	0.06904427
23	0x3df6c738	0.12049717
24	0xbd805828	-0.062668145
25	0x3e47832b	0.1948363
26	0xbd4c15ac	-0.049825355
27	0x3c9a8452	0.018861923
28	0xbdaacfc4	-0.083404094
29	0xbc8588f0	-0.016300648
30	0xbc86260b	-0.016375562
31	0xbd0ceb79	-0.03440425
32	0xbc844763	-0.016147321
33	0xbcca73a9	-0.024713354
34	0xbd8ad163	-0.067782186
35	0x3e453ddf	0.19261883
36	0x3e1648d3	0.14676218
37	0x3d007733	0.031363677
38	0xbcedcacb	-0.029027363
39	0x3db6d32a	0.08926995
40	0xbe35c193	-0.17749624
41	0x3d05b680	0.03264475
42	0x3d863db4	0.06554738
43	0x3ba9a3ec	0.0051770117
44	0xba90eaf1	-0.0011056346
45	0xbd87e8cd	-0.066362
46	0xbde6ab74	-0.11263171
47	0x3e27581f	0.1634221
48	0x3af7078f	0.0018846857
49	0xbc8ee701	-0.017444136
50	0x3e4253bf	0.18977259
51	0xbd783443	-0.060596716
52	0x3da98f2f	0.08279263
53	0x3d12eedf	0.035872336
54	0x3d9d419d	0.0767853
55	0x3def5661	0.11686397
56	0xbd824864	-0.06361464
57	0x3db2eebb	0.087369405
58	0xbbe0b3ef	-0.0068573873
59	0x3d863e40	0.06554842
60	0xbd94cc7e	-0.07265566
61	0x3d6affc5	0.057372827
62	0xbdbbcd0e	-0.091699705
63	0x3dacef77	0.08444112
