models/ppo_agent_ep60.pt (torch, 364210 bytes, 45 tensors)

network.0.weight f4 [128, 30]
000000 9f 03 b0 bd 80 d3 28 3e bb fe 0f 3e a6 69 b3 bd
       -0.08594441 0.16486931 0.14062016 -0.08760385
000010 33 b9 8e be a6 cc b0 bd b3 c4 38 bd a3 fe e4 bd
       -0.2787567 -0.086327836 -0.045109462 -0.111813806
000020 44 e8 57 3c 8e 9d b6 3d 68 33 c6 bd 94 bc ec bc
       0.013177935 0.0891677 -0.09677774 -0.028898515
000030 ca f6 22 3e b1 fc 6e 3e af 08 10 3e 01 b2 1f 3c
       0.15914455 0.23338582 0.14065813 0.009747029
000040 cc ac 10 3c 19 07 21 3d ae f8 88 bd 3d a0 38 bd
       0.0088302605 0.03931341 -0.06688057 -0.04507469
000050 c9 0c 9a bc c8 06 f5 3d 74 34 0e 3e 00 6b c0 3b
       -0.018804925 0.11964184 0.13887197 0.0058721304
000060 08 3d e5 3d ff 03 18 be 68 02 35 be 40 07 45 3d
       0.111932814 -0.14845274 -0.17676699 0.048102617
000070 08 f8 4c bd 49 fc c9 bd c8 ea 89 3d c1 0d d8 bd
       -0.05004123 -0.09862573 0.06734234 -0.10549498
000080 d2 ca ef bd 44 8b ab 3d 5d da 4b be 13 cf d3 3d
       -0.11708607 0.08376172 -0.19907518 0.10342231
000090 62 1e 48 3e ee aa f5 3d 5c fc d0 bd 8e 2d eb 3d
       0.1954284 0.11995493 -0.10204384 0.11483298
0000a0 81 6c 3c bd da 04 15 3d f5 92 7b 3d 90 02 4e 3e
       -0.046001915 0.03638158 0.061419446 0.20118165
0000b0 3e 32 8f 3d 31 63 f4 bd 41 53 3b 3e 7d a8 c8 bd
       0.06992005 -0.11932982 0.18293478 -0.097977616
0000c0 46 4f 29 bd 1b 43 53 3d 51 fa 26 3e 11 1f 24 3e
       -0.041335367 0.05157767 0.16306426 0.16027476
0000d0 81 d7 41 bd e8 62 11 3e bb a2 94 bd 80 af ab 3c
       -0.04732466 0.14197886 -0.07257601 0.020957708
0000e0 40 37 3c bc 60 6e ae 3b 76 eb b7 bd 90 f4 32 bd
       -0.011487782 0.0053232163 -0.089804575 -0.043690264
0000f0 b2 bd dc bd e6 58 41 bd a3 5d 20 3e c2 6b 0e bc
       -0.10778369 -0.04720392 0.1566072 -0.008692684
000100 f1 1a 99 bd 69 43 92 3d 38 c3 63 3c 5e 50 92 3d
       -0.07475842 0.07141764 0.013901524 0.07144235
000110 09 27 04 3e 17 46 a4 3c 89 86 c8 bb 1f d2 d3 3d
       0.12905516 0.020052953 -0.0061195535 0.10342812
000120 3c 20 82 3c 56 29 11 be 0c 35 bd 3d eb ba 36 bd
       0.015884511 -0.14175925 0.092386335 -0.044611853
000130 ec 8c 2b 3e 46 ab 03 3e eb 28 29 be 7a 07 43 be
       0.16752976 0.12858304 -0.16519515 -0.19045821
000140 b5 2b bf 3d 51 d9 02 3e 2e 6d 33 be 59 a8 30 3e
       0.09334508 0.12778212 -0.17522117 0.1725172
000150 3e 4d 12 3e cc 2d 37 3e 57 53 92 bd b8 3d c8 3d
       0.14287278 0.17888564 -0.07144802 0.09777397
000160 01 6a e1 bd 9a be b9 bd a6 70 b2 bd 38 e1 c0 bd
       -0.11006547 -0.090695575 -0.08712892 -0.09417957
000170 45 46 1c 3d f9 0c 15 3c 3e e7 8e be ac 6b 02 bd
       0.03815295 0.009097331 -0.279108 -0.031840965
000180 13 8a 23 bd 79 af 47 be 90 51 3e 3e 69 ef 25 bd
       -0.0399266 -0.19500531 0.18585801 -0.040511522
000190 79 6a 8e bc a4 2d e0 3c 8e f9 96 bd 52 c6 17 3d
       -0.017384754 0.027365513 -0.073718175 0.037054367
0001a0 53 b3 e8 bd 0b 78 45 3e 96 11 b9 3d 50 c8 cf 3c
       -0.113623284 0.19284074 0.090365574 0.025364071
0001b0 44 da 46 bd 4e 53 46 3d 4b e8 51 3d fb 00 17 3c
       -0.048547998 0.04841929 0.051246922 0.009216542
0001c0 fb 83 6f be cc 0b 4c 3e 86 93 09 be 44 43 32 3e
       -0.2339019 0.19926375 -0.13435182 0.17408472
0001d0 84 de e1 3d 30 db de 3d e0 a0 42 3c 3a 13 a5 bd
       0.110287696 0.108816504 0.011879176 -0.08060308
0001e0 14 29 0b 3e 04 09 62 bd 55 c9 04 3b 2c 93 28 3e
       0.13589889 -0.05518438 0.0020261605 0.16462392
0001f0 68 1f 02 3c 69 f6 25 be 9c e4 2f be 80 dd c1 3d
       0.007942058 -0.1620728 -0.17177051 0.09466076
000200 d5 72 4a 3e e7 5f 23 bd a4 3f 5f 3e 70 ab 1c 3d
       0.19770367 -0.03988638 0.2180162 0.038249433
000210 ac 5c 00 3e b8 b5 ce bd 7b 9a ca 3d 47 a2 83 3e
       0.12535352 -0.10093254 0.09892746 0.25709745
000220 e4 6d 90 bd 3b 88 60 bd 44 3e 12 be 02 2f 72 3d
       -0.0705221 -0.05481742 -0.14281565 0.05912686
000230 a5 c7 07 3e 35 31 d6 bd c5 fc bb 3b 0c 91 ad bd
       0.13259752 -0.10458604 0.0057369196 -0.08474931
000240 d0 b7 23 3c 7e 05 84 3d e9 72 bf bd 30 61 28 bd
       0.009992555 0.0644636 -0.09348089 -0.04110831
000250 04 20 70 3d 00 20 5b bb 4f 0a 51 bd 47 08 28 3d
       0.058624282 -0.0033435822 -0.05103522 0.04102352
000260 ff 67 12 be 01 60 3e bd fd 33 11 3e f0 f9 48 be
       -0.14297484 -0.046478275 0.14179988 -0.19626594
000270 79 47 03 be 7d 30 86 3d a4 f2 39 be a9 a8 91 3d
       -0.12820233 0.06552217 -0.18158966 0.071122475
000280 0d 69 c1 3d 26 21 91 bd e0 b1 83 bd 14 41 1d be
       0.09443865 -0.07086401 -0.06430411 -0.15356857
000290 10 7a fd 3c c7 6a 69 3d 5e 2f c2 3d aa 83 b5 bd
       0.030941993 0.056986596 0.09481691 -0.088630036
0002a0 06 f9 0a 3e 45 74 20 bd c0 2f c5 bd af df e0 bd
       0.13571557 -0.039173383 -0.09628248 -0.10980164
0002b0 db 8e ed bd 13 a3 08 3e 14 f3 54 3d b4 cf 17 3d
       -0.11599513 0.13343458 0.05198963 0.037063316
0002c0 0e 22 09 be f8 d0 d5 bc 78 a3 e9 3d 7b 20 92 bd
       -0.13391897 -0.02610062 0.11408132 -0.071351014
0002d0 25 7f 22 3e 47 10 c1 bc a5 ba 44 3e b5 57 3a 3e
       0.15868814 -0.023567332 0.19211824 0.1819752
0002e0 bd 21 2d be 64 05 0d be a7 a1 14 be 63 2a 48 3e
       -0.16907401 -0.13771588 -0.1451479 0.19547419
0002f0 90 21 65 bc ea 7c e0 3c b6 78 39 3e 2e ac 2d bc
       -0.013985053 0.027403314 0.18112454 -0.010600133
000300 e0 ec f3 bd de fb 37 3e 9b 87 64 3d 25 46 42 3d
       -0.11910415 0.17967173 0.055793386 0.047430176
000310 28 65 e3 3d 48 35 8a 3c 7c b2 18 3e d0 16 6a bd
       0.111032784 0.01687111 0.14911836 -0.057150662
000320 fd f6 f8 3b d6 50 04 be 1c 1c 9c 3d 9c 9c 90 3e
       0.0075978027 -0.12921461 0.07622549 0.28244483
000330 88 bb 54 3d 78 fc 2a 3e 5c 23 38 3e 3b ae 28 be
       0.051936656 0.16697872 0.17982239 -0.16472714
000340 3a 70 e5 bd f0 cb 35 be 1c ad 13 3e 01 b7 2f be
       -0.11203046 -0.17753577 0.14421505 -0.17159654
000350 03 1c e9 bd 13 80 04 3e 4c 1a 16 be 8a 97 95 bd
       -0.11382296 0.12939481 -0.14658469 -0.073042944
000360 4f 4a 78 bd 6d 14 5a bc d6 f7 1d 3e 73 d1 51 3c
       -0.06061774 -0.013310534 0.15426573 0.012806284
000370 65 22 31 3e 16 55 20 bb 9f bc 20 3e 7b f9 11 3e
       0.17298277 -0.0024464778 0.15696953 0.14255325
000380 8e d0 2e 3c 54 97 11 be 9b f3 1e 3e 6e 62 02 3e
       0.0106698405 -0.14217883 0.15522616 0.1273286
000390 b1 25 a4 bd bf ca 86 3c 13 3a 0c be 86 09 14 3e
       -0.080150016 0.016454099 -0.13694029 0.14456758
0003a0 3d 50 e0 bd 70 f8 ad 3d df 71 1d be a0 f0 c1 3d
       -0.10952804 0.08494651 -0.1537547 0.09469724
0003b0 00 a7 63 ba e4 64 1b bd d0 5b 41 3c 7e 4a 12 3e
       -0.0008684248 -0.037938014 0.011801675 0.14286229
0003c0 da 91 45 be b2 05 aa 3c 71 6b d8 3c f9 c9 bb 3d
       -0.19293919 0.020754669 0.02641842 0.091693826
0003d0 78 ef 24 bd f7 14 51 bd 65 27 bc bd 60 79 01 3d
       -0.040267438 -0.051045384 -0.091872014 0.031609893
0003e0 90 0a a9 bd 4a 46 e3 3d 97 70 7d 3e 0e 96 b7 3d
       -0.08253968 0.11097391 0.24749981 0.089641675
0003f0 2e 03 e6 bd 00 58 06 be 40 23 a6 3d 6a 00 46 3d
       -0.11231075 -0.13119507 0.08112192 0.04834024

network.0.bias f4 [128]
000000 73 72 bf bd a8 94 cb 3c a4 4a 1e 3e 49 0d 0c be
       -0.09348001 0.024851158 0.1545816 -0.13676943
000010 e1 a7 01 3e 9b 95 00 be 87 58 90 3b a5 ff cf bd
       0.12661697 -0.1255707 0.0044050845 -0.10156182
000020 c3 5e 95 bd 5b 26 ce 3c d7 74 1e 3e 00 14 0e 3e
       -0.07293465 0.025164774 0.15474258 0.13874817
000030 6c a4 e6 bd 0e 38 14 bd 6c 8a 6d 3d 5c f2 24 3e
       -0.1126183 -0.03618627 0.057993338 0.16108078
000040 4f e9 2a be 64 21 32 3e f2 c6 7e 3e f2 7f d9 bd
       -0.16690563 0.1739555 0.24880579 -0.10620107
000050 85 39 c3 3d 8d 97 c8 bd ad 95 b6 bc 18 13 99 3d
       0.09532455 -0.09794531 -0.022288168 0.07474345
000060 26 2c b3 bd d5 13 48 3c 0a 77 14 3e 48 8b 1c 3e
       -0.08748655 0.01221176 0.14498535 0.15287507
000070 54 e5 a7 3d ba 36 3c be 03 1d 10 be 5b b0 0f 3e
       0.08198038 -0.18380252 -0.14073567 0.14032118
000080 b5 d1 5b bd 83 c2 9e 3d 83 7e 60 3d d6 9e 17 bb
       -0.05366679 0.07751944 0.05480815 -0.0023135445
000090 37 35 a8 3c e6 5f 0b 3d 54 d0 1c 3d 8f 59 5f 3d
       0.020533187 0.034027003 0.038284615 0.05452877
0000a0 5d e5 13 bd 8d cb ce 3d 27 5c 2e bc 1b 10 1e 3e
       -0.03610741 0.10097418 -0.010642088 0.15435831
0000b0 5e 1c ba bc 78 88 0e be 8c 29 1c 3e 9a 04 c8 3d
       -0.022718605 -0.13919246 0.15250224 0.09766503
0000c0 ee 3c fa bc 8f 7f 52 3e 56 18 1e be c5 00 f4 bd
       -0.030546632 0.20556472 -0.15438971 -0.11914209
0000d0 7d 30 65 3d 2e 7c c7 bd b9 23 2f 3e 6f 7b aa 3c
       0.055954445 -0.09740482 0.17103471 0.02081081
0000e0 93 e4 b7 3c 66 fe 0d 39 6d 31 12 be 72 91 00 bc
       0.02244786 0.00013541579 -0.14276667 -0.007847177
0000f0 90 55 e1 3d e0 4c 6c bc 45 31 1f 3e 25 1c 2b 3e
       0.11002648 -0.014422625 0.15546139 0.16709955
000100 ed 7a 5d 3d 52 1d 2f be e5 02 b0 3d be ad dc bd
       0.05407231 -0.17101029 0.08594302 -0.10775326
000110 0d f9 1f bd 89 8f 94 3d bc ed 8e bd dc 37 24 be
       -0.039055873 0.0725394 -0.06978938 -0.16036934
000120 d6 6c e3 bc de 1d 5c bc 0a f0 6c 3c 6b 27 a1 bc
       -0.027761858 -0.013434855 0.014461527 -0.019672116
000130 e3 35 80 3d 5f 68 fb bd 80 03 40 3e 80 9a ea bd
       0.06260278 -0.122757666 0.18751335 -0.1145525
000140 62 98 17 3e 77 7a dd 3d c5 e0 2b 3d fe c8 5a 3d
       0.14804223 0.10814374 0.041962404 0.053414337
000150 c7 de 82 3c 27 a6 e6 3d 2a 41 12 3e 47 96 d0 bd
       0.01597537 0.1126216 0.1428267 -0.10184913
000160 cf 49 ee bd fe e7 07 3e 48 f4 3e be c2 7f 1b bb
       -0.116351716 0.13272092 -0.18647873 -0.0023727273
000170 b0 93 51 3e 9c e1 d8 bb 2a 01 08 be 63 91 fa bd
       0.20466495 -0.0066186916 -0.13281694 -0.122347616
000180 45 cc 72 bc b8 08 e0 bd f4 6e e4 3d 49 9f 2d bd
       -0.014819209 -0.10939163 0.11153975 -0.042388234
000190 48 df 25 3e cd f6 36 3e dc 5e c0 3d 49 d4 c6 3d
       0.16198456 0.17867585 0.09393093 0.09708459
0001a0 26 6b 33 3d 63 56 ea 3d de 23 cc 3d e1 1d c5 3d
       0.043803357 0.11442258 0.099677786 0.096248396
0001b0 b2 a6 6b bd 60 6d 64 bd 95 48 c1 3c 5d 1c 75 bd
       -0.05753202 -0.05576837 0.02359418 -0.059841502
0001c0 6f ce 6c ba 2c 64 e4 3c ef 34 f4 3d 5d 63 07 be
       -0.00090334465 0.027879797 0.11924159 -0.13221498
0001d0 96 5d 07 3e 55 e5 2d bd d3 77 0b 3e c4 4f 9d 3d
       0.13219294 -0.042455036 0.13619928 0.0768123
0001e0 d1 07 06 bd 90 94 61 3e ea 9e d0 3d 74 a8 2b 3e
       -0.032722298 0.22029328 0.101865605 0.16763479
0001f0 54 5e 81 3d b5 bc 78 3d 91 dd f2 bd 5f 15 d3 3c
       0.0631682 0.06072684 -0.11858667 0.025767026

network.2.weight f4 [64, 128]
000000 a3 37 e2 3d 73 2a 8b 3d a3 1e 02 3d 8e be 07 3d
       0.11045768 0.06795206 0.0317675 0.03314071
000010 f4 3c 2c 3d 06 0d 25 bc 6e cb a5 bc ed 2b 1b bc
       0.042050317 -0.010073906 -0.020238604 -0.009470922
000020 37 49 43 3c d7 58 95 3b 6d ed 89 bd 64 cf 98 bb
       0.011919311 0.0045577097 -0.067347385 -0.0046633948
000030 17 ae 98 bd d2 23 88 3c dd ca f8 bd 5f 50 99 bd
       -0.0745508 0.016618643 -0.12148068 -0.07486033
000040 b2 cc a7 bc 83 2b e6 3d 24 78 07 bb ec f0 38 3d
       -0.020483349 0.11238768 -0.0020670975 0.045151636
000050 a6 68 9e bc b0 f9 86 3d 51 69 8a 3d 5b 8b 33 3d
       -0.01933701 0.06590593 0.06758369 0.04383407
000060 16 96 b8 3d a7 29 36 3d 88 dc 47 3d 4a a9 33 bd
       0.090130016 0.044473317 0.0487943 -0.04386262
000070 ec ae da 3d c1 f5 dd 3d ac 61 9c 3b 86 90 2d 3d
       0.10677895 0.108378895 0.0047723856 0.042374156
000080 f6 ab 79 3d 21 2e 5a 3d be 6f 96 3d 51 d7 9a bd
       0.06095501 0.05326665 0.07345532 -0.075605996
000090 1d 01 88 3d 80 f4 6d 3c a7 1c d4 3d 84 47 a0 3d
       0.06640837 0.014523625 0.103570275 0.078261405
0000a0 12 6c 64 3d 7e f6 62 3d 6e 1d 81 3a ba 18 84 3c
       0.055767126 0.055410855 0.000985069 0.016125072
0000b0 b7 84 18 bd 3e 98 b9 bc f2 08 7a 3d 05 ce 62 bd
       -0.03723594 -0.022655603 0.061043687 -0.055372257
0000c0 bd 96 9e 3d 2b bb d6 bb 6b 8b 05 bd aa 81 c7 3d
       0.07743595 -0.006553074 -0.032603662 0.09741528
0000d0 39 28 5b 3d 5b d0 48 bd cd 02 ab 3d 6a 28 aa bc
       0.053505156 -0.04902683 0.083501436 -0.020771224
0000e0 c7 48 a4 3d d6 44 0e bc c5 33 65 3d 97 56 0d bd
       0.08021694 -0.008683404 0.055957574 -0.034506407
0000f0 85 59 60 bd fe 9d 90 3d 5e f0 bd 3d 68 4d 00 be
       -0.054772872 0.070613846 0.09274362 -0.12529528
000100 e3 b4 ac 3b 4d d9 63 3d ca 8d 80 3d 2d 21 80 bc
       0.005270587 0.055627156 0.06277044 -0.01564082
000110 6d 22 ac bd 2c 11 3a bd 96 b0 a9 bc 31 0f 1a bb
       -0.08405004 -0.045426533 -0.020714086 -0.002350759
000120 b3 19 5f bd 7f 60 d5 bd 4d 83 70 3a bb f4 c6 3d
       -0.054467868 -0.10418796 0.0009174839 0.097146474
000130 e3 4c b7 3d aa 39 68 3d 47 2a bf bc 62 fc 67 3d
       0.08950212 0.056695618 -0.02333559 0.056637175
000140 74 98 01 3e 7a 18 61 3d 06 b9 2f bd 9d c2 c5 bc
       0.12655813 0.054954983 -0.04290106 -0.02414065
000150 f2 75 d1 3c 72 31 3f bb 8b b6 97 bc fe 3c a7 bd
       0.025568936 -0.0029173759 -0.01851966 -0.0816593
000160 6f 7a 45 bc 1e 22 18 3e db 8f 37 3d 89 e4 d4 bd
       -0.012053116 0.14856765 0.044814926 -0.10395152
000170 85 fc f7 3d 19 b4 26 ba a0 06 2b bd 25 43 c5 bc
       0.12108711 -0.0006359234 -0.041754365 -0.024079869
000180 f0 9c 58 3d 85 0d 74 3d 27 f9 62 bd 2d ca 00 3b
       0.052884042 0.059583206 -0.05541339 0.0019651756
000190 2e af 51 bd 04 f6 35 bd 13 23 97 b9 9b ab d4 bc
       -0.051192455 -0.044424072 -0.00028827097 -0.025960734
0001a0 fd ed 80 3d 3a 66 ec ba 81 ab 3e 3d f3 56 11 3e
       0.06295393 -0.0018035837 0.046550278 0.14193325
0001b0 f8 07 0d 3d 27 9a d4 bc 18 44 7d 3d 0b c5 7b bd
       0.034431428 -0.025952412 0.061832517 -0.06146721
0001c0 9b 1e 5d bc f8 cf 22 3c a0 62 a5 bc 15 ac b1 bc
       -0.013496066 0.009937279 -0.02018863 -0.0216885
0001d0 2c 36 6a 3c 44 ff ca 3c e4 1c eb bc 6c e9 ab 3d
       0.014295142 0.024779923 -0.0287003 0.08394131
0001e0 0c ac 86 3c 90 38 94 3d 43 13 ac 3c 47 0c 1e 3c
       0.01643946 0.07237351 0.021005278 0.009646482
0001f0 77 12 4d 3d 6b 48 57 bc fd fa 78 3d b5 5f 00 3e
       0.050066438 -0.013139824 0.060786236 0.1253651
000200 be 61 84 3d e6 fd 5e 3d 37 0e bb 3a 33 fa 4a 3d
       0.06463955 0.054441355 0.0014271204 0.049555015
000210 50 3b 49 bd 6e 17 20 3d ec 22 44 3b 86 93 86 3d
       -0.04912883 0.039084844 0.0029928042 0.065711066
000220 65 ef 9b bd ac 31 b7 3d 09 e8 d7 3d 04 96 6c bc
       -0.0761402 0.08945021 0.10542304 -0.014440063
000230 06 65 5f 3d ed 34 ed bc 37 12 56 bc 44 12 12 3d
       0.054539703 -0.028955901 -0.013065866 0.03566195
000240 6e 04 7e 3c 87 c1 83 3d 93 ff 9a 3d a4 bf 4f bb
       0.015503986 0.06433397 0.07568278 -0.003169992
000250 1c 95 8c bd be db 1b bc ef f5 58 3c 97 b3 41 bd
       -0.06864378 -0.00951284 0.013242229 -0.04729041
000260 c2 13 8c bd 95 f0 0e bc b5 a9 e1 3d da 45 36 3d
       -0.06839706 -0.008724351 0.11018697 0.04450021
000270 3d 68 e3 3d e9 90 70 bd 9a 4c 25 3d 25 a5 cb 3d
       0.11103866 -0.058731947 0.040356256 0.09943608
000280 ca 2c a8 3c c8 cc 61 3d 5e c6 05 bd d4 b5 a7 bc
       0.02052917 0.055126935 -0.03265988 -0.020472445
000290 49 5f cd bd b3 b7 de 3d 1d 92 bf 3d 0b 16 55 3d
       -0.1002794 0.108748816 0.09354041 0.052022975
0002a0 2c 59 08 3d d4 f6 04 bd 24 5c bc 3d 36 33 c3 bd
       0.033288166 -0.032461956 0.09197262 -0.09531252
0002b0 3e a8 8d bc 90 f7 ff 3c 2f 40 16 3b 13 0e 8b bc
       -0.017292138 0.031245977 0.002292644 -0.016974485
0002c0 4b d2 55 3d a4 bc b8 ba ce dc 88 bc 10 6e 8f bc
       0.052202504 -0.0014094305 -0.01670685 -0.017508537
0002d0 4d 11 94 3d 2f 59 8c bc 81 c4 8f 3d 86 b4 6a bd
       0.07229862 -0.01713237 0.07019902 -0.057301067
0002e0 fb aa dc 3c 3c 4a 84 3d cb 2b 24 bd 3c 89 56 3c
       0.026936999 0.064594716 -0.040080827 0.013094243
0002f0 15 41 6c bd e9 ce 81 3d 02 cd b5 3d b5 eb 90 3d
       -0.057679255 0.06338293 0.08876993 0.070762075
000300 12 ea 34 3d 5e 3e 35 3d 60 86 7e 3c b1 80 61 3d
       0.04416854 0.04424893 0.015534967 0.05505437
000310 cc f3 48 3c 61 19 7f 3c 14 32 c4 bd 2a ec 39 bc
       0.012265157 0.015570016 -0.09579864 -0.01134781
000320 e2 b2 28 3d 7a 69 72 3d 97 25 af bd a4 c6 3d 3b
       0.04118622 0.05918262 -0.085520916 0.002895751
000330 63 ec 95 3d a1 13 cc 3d a6 11 24 3c 93 5c 25 3e
       0.07320478 0.099646814 0.010013973 0.16148596
000340 72 d0 7f 3c 1c 95 fb 3d 07 e1 40 3d 16 e4 df 3d
       0.015613662 0.122843 0.047089603 0.10932176
000350 0c e8 ab bb 5b 54 f9 3d 64 35 2d bc bf eb 4a bd
       -0.005246168 0.12174293 -0.010571811 -0.04954123
000360 df cd c3 3d 8e a2 4b 3d ac 4e ad bd 24 01 dc bc
       0.09560751 0.04971557 -0.08462271 -0.026856013
000370 f4 77 21 3e bc 37 18 be f3 b9 ff bd 4a 4d 2d bd
       0.15768415 -0.14865011 -0.12486639 -0.042310037
000380 93 8e 80 3d bf 84 22 bd 95 2b 21 bc 0c d2 80 3d
       0.06277194 -0.039677378 -0.009837051 0.06290063
000390 19 29 21 3d 28 e7 d7 3d 4a c0 be 3d 90 99 97 bd
       0.039345834 0.105421364 0.0931402 -0.074023366
0003a0 9e 2f 9a bd ee 72 e9 bd b7 b1 11 bd df d4 ac 3d
       -0.075286135 -0.11398874 -0.035569873 0.084390394
0003b0 39 36 9e 3c 94 57 5e 3d 6a c3 97 3c cf 60 86 bd
       0.019312965 0.05428274 0.018525798 -0.065614335
0003c0 85 62 7b 3c b8 a9 a7 bd 9c 4a ab 3d a0 7e 76 3d
       0.015343313 -0.08186668 0.0836384 0.060179353
0003d0 61 89 78 3d 73 39 be 3c ed 37 c1 3c 49 0a 10 3b
       0.06067789 0.023220753 0.023586238 0.0021978787
0003e0 bf 6e 0c 3d 0c 58 fd ba 16 86 52 bd a1 e2 50 3d
       0.034285303 -0.0019328608 -0.051397406 0.05099738
0003f0 9d 49 51 3d 9f 4a 37 bd 83 fc 9d 3d 37 ff 84 3c
       0.051095594 -0.0447489 0.077141784 0.016234977

network.2.bias f4 [64]
000000 ca c9 1d 3b fc 74 27 bd 7c 77 64 3d 64 c3 3b 3d
       0.0024076574 -0.04088305 0.05577801 0.045840636
000010 9e 04 6e bb 08 3d 3f bc 1f f6 d8 bb 30 b3 a6 3d
       -0.003631867 -0.011672266 -0.006621137 0.08139646
000020 3f 01 5e bb c2 02 8e 3d c4 aa 29 3d f2 13 a9 3d
       -0.0033875254 0.0693412 0.04142262 0.082557574
000030 fc c0 ee bc 62 86 94 bc 54 d7 58 3d a4 20 ce bc
       -0.029144756 -0.018130485 0.052939728 -0.025162049
000040 ea 61 84 3b 3d ce 52 bb bf 0f 1f bd 9e 2a 4d bc
       0.0040399926 -0.0032166385 -0.038833376 -0.012522368
000050 57 cf 7b bd d0 51 a9 bc 85 2f 4d bd a4 d1 26 bd
       -0.06147703 -0.020668894 -0.050094146 -0.040727273
000060 6a 1d 54 3c bc 0b 2c 3d e6 11 74 bd f5 e2 4b bd
       0.012946466 0.04200338 -0.05958738 -0.04977699
000070 a2 07 2b bd 83 28 ac bd 37 0c 1d bd 90 6a 86 bc
       -0.041755326 -0.084061645 -0.038341727 -0.016408235
000080 c5 1c 8a bd 4e de 1a 3d a2 26 54 3c 4a 5e 02 3d
       -0.067437686 0.037809663 0.012948664 0.031828202
000090 32 72 25 3d 7d b1 3c 3d b1 44 e3 3a 03 a3 27 bc
       0.04039211 0.046067704 0.0017339197 -0.010231736
0000a0 6f bd ba 3c b1 e2 83 3d 04 73 d0 3d 29 28 88 bd
       0.022795407 0.06439722 0.101781875 -0.06648285
0000b0 b6 ec da bc eb cc 4e bd 9c e3 97 3d ab 80 77 3d
       -0.0267242 -0.050488394 0.0741646 0.06042544
0000c0 a2 18 3e bd fb d0 6a 3d a3 0f 26 3c 39 65 c9 3d
       -0.04641021 0.057328206 0.010135564 0.0983376
0000d0 95 70 2a bd b0 37 80 3c 6e 74 ac 3a 28 4d 85 ba
       -0.041611273 0.015651554 0.0013157257 -0.0010170089
0000e0 b8 a8 0d bd e4 03 c5 3c 07 2f 10 bb 60 95 4b 3c
       -0.03458473 0.024049707 -0.0022000687 0.0124257505
0000f0 d5 22 8e 3d c3 67 07 bc 5e 72 94 3d 76 e4 1c bc
       0.069402374 -0.008264485 0.07248376 -0.009575954

network.4.weight f4 [32, 64]
000000 30 c9 a6 bd 9b e9 79 3d c6 56 db 3d 30 77 80 bd
       -0.08143842 0.0610138 0.1070991 -0.06272733
000010 23 92 3a bc f9 3c eb 3d 88 32 8e 3c bb d3 17 3e
       -0.011387381 0.11486239 0.01735808 0.14826863
000020 15 80 f9 bd 88 63 53 bc ce 9e 53 3d 17 f0 de 3c
       -0.12182633 -0.012902148 0.05166512 0.027214093
000030 77 74 ee bd d3 e6 43 bd 84 05 fe ba 3e d0 e8 3d
       -0.11643308 -0.047827553 -0.0019380306 0.11367844
000040 c8 a5 21 be ab aa 21 3e f1 aa 0a bd ed a1 c6 bd
       -0.15785897 0.15787761 -0.03385443 -0.09698854
000050 70 8f e8 3d 22 27 65 3d 87 64 e3 3b b1 06 42 3c
       0.113554835 0.055945523 0.006939474 0.011842416
000060 49 e4 0b 3e b4 d3 b8 bb b3 4f 37 bd 52 50 b1 bc
       0.13661303 -0.0056404714 -0.04475374 -0.021644745
000070 a2 86 36 3e b5 9d 2b 3e 42 29 ee bd d8 65 7d bd
       0.17824796 0.16759379 -0.11628963 -0.061864704
000080 e0 f1 db bd 80 10 3b 3c 67 31 15 3e ef f4 09 bd
       -0.10739493 0.011417508 0.14569627 -0.033680853
000090 44 3a 1e 3e 07 7c 58 3d 88 fe ed bc ed 70 1a 3e
       0.15451914 0.052852657 -0.029052034 0.1508214
0000a0 3a f7 a4 3d 9c fb 83 3d fe 7c b3 3d e5 ac 84 bd
       0.08054967 0.06444475 0.08764075 -0.064782895
0000b0 c7 5f 36 be 93 c2 25 3e 43 6f c0 bd 58 eb 48 3d
       -0.17809974 0.16187505 -0.093962215 0.049052566
0000c0 c7 53 c0 3d 4d fa ab bd f3 4a 4c 3e e6 f0 0b 3e
       0.09390979 -0.083973505 0.19950466 0.13666114
0000d0 ea 7c c7 3d 77 ee b0 bd 0d 1b 25 3e 2d 14 78 3c
       0.09740622 -0.086392336 0.161236 0.015141529
0000e0 e1 84 10 3b 7b 98 56 3e 4d 49 74 bd 6b d3 3e be
       0.0022051858 0.20956604 -0.059640218 -0.18635337
0000f0 28 3e 16 be 13 97 21 3e ff 42 b9 3d 35 57 2c 3d
       -0.14672148 0.15780286 0.090459816 0.042075355
000100 5d dd f8 bd 23 c5 e4 3b 08 32 11 bd b2 07 60 3d
       -0.12151597 0.0069815083 -0.035448104 0.05469484
000110 52 00 bb bd 26 e8 b9 3d 5e 89 da 3d 13 01 d4 3d
       -0.091309205 0.09077482 0.10670732 0.103517674
000120 a6 8c c1 3d ce 72 bf bb a7 1f 88 3d 85 56 87 bd
       0.09450655 -0.005842543 0.06646662 -0.06608299
000130 4a cf 0e 3d f8 09 b6 bc 84 b5 87 3d dd 0e 81 bd
       0.034865655 -0.02222155 0.06626418 -0.06301663
000140 69 b2 f3 bd 70 5a 3b bd 2c 24 9d 3d 49 94 0d 3c
       -0.118992634 -0.045740545 0.07672915 0.008641311
000150 0f 29 ed bc 39 75 05 bd c8 c2 3c bd 0d ee e2 3d
       -0.028950242 -0.032582495 -0.046084195 0.11080561
000160 dc d2 09 be bb 8b dc 3b 38 70 97 3d c0 db 4d 3d
       -0.13459343 0.0067305244 0.07394451 0.050258398
000170 7f fd 0e 3d e3 96 b8 bc 0a 01 91 3d 30 2a 24 3d
       0.03490972 -0.022532886 0.07080276 0.040079296
000180 e0 5b cd 3d 19 01 59 bd 17 c7 a7 bd 8c 65 a1 bd
       0.100272894 -0.052979562 -0.0819227 -0.07880697
000190 34 fe a8 bd ba 36 26 bd 35 88 8e bc 2a b6 94 bc
       -0.082516104 -0.040579535 -0.017398933 -0.018153269
0001a0 79 d2 0b be d4 77 5e 3c 23 fe 99 bd 75 d2 10 bb
       -0.13654508 0.013578374 -0.07519176 -0.0022098098
0001b0 48 c5 27 bd 87 8f e1 3d 9c bd 88 bc 40 7f 1e 3d
       -0.040959626 0.11013704 -0.016691975 0.038695574
0001c0 3f ee d2 bc dc 16 7b 3d a8 2d 30 bb 1c 57 bd bd
       -0.02574837 0.061301097 -0.0026882682 -0.092451304
0001d0 b5 34 83 bd 9b 60 bd bd f7 1d af 3d 0d b8 06 be
       -0.064065374 -0.09246942 0.08550637 -0.13156147
0001e0 4f 3b 45 bd e0 97 16 bc 96 15 23 3d ad fc 2d 3d
       -0.048152264 -0.009191483 0.039815508 0.0424773
0001f0 5c c7 9a 3d 94 d5 29 bd c2 91 4a 3d 75 47 82 bd
       0.07557556 -0.04146345 0.04945541 -0.063612856
000200 fa f2 94 3c 90 1e 72 3c cd 27 82 3d 1c 7a c9 3d
       0.018182267 0.0147777945 0.06355248 0.09837744
000210 44 ed 6e 3d 70 46 a6 3d cc 4f bf 3d 28 6b 54 3d
       0.058331743 0.08118904 0.09341392 0.051860005
000220 d6 63 01 3e 6d 0c e5 3d 58 6d ef 3d 3c a7 b4 3c
       0.1263574 0.11184011 0.116907775 0.0220524
000230 dd fe 29 3d ce 9b 55 bc 68 3b d8 bc 87 fb a1 bc
       0.041502822 -0.013037635 -0.026395515 -0.019773258
000240 a5 45 05 bc f0 66 4f bd e9 ed bd bc 67 37 07 3e
       -0.00813428 -0.05063528 -0.023184733 0.13204728
000250 3b 46 32 3e 97 79 81 3d 90 ab 21 3d 92 42 47 bd
       0.17409603 0.063220195 0.039470255 -0.04864747
000260 59 72 fe 3d 11 f4 20 bc 12 c6 ce 3d 41 09 04 3e
       0.12424154 -0.009823815 0.10096373 0.12894155
000270 54 47 61 bd 59 ee ff bc 9f 3d d5 bb 1c 40 c6 bc
       -0.054999664 -0.031241583 -0.00650759 -0.024200492
000280 51 07 be 3d fe af 3b bd 7b b1 d1 bd e0 c9 34 3b
       0.09278739 -0.045822136 -0.1023893 0.0027586147
000290 97 8f f3 3b 1f 24 fc 3d 9c c4 82 bd b8 71 d4 3d
       0.0074328887 0.12311577 -0.063851565 0.10373253
0002a0 e3 56 cb bd 88 a9 96 3d 27 6c a8 3d 9e 7a af bc
       -0.09928682 0.07356554 0.082237534 -0.021420773
0002b0 4e d3 f1 bc 1e 4e fc bd 3c a8 2c 3c fb c3 b5 3d
       -0.029519703 -0.12319587 0.010538157 0.08875271
0002c0 a8 47 9d bd 58 1e 6f bd fc 89 5d 3d 43 d1 1c 3d
       -0.07679683 -0.058378547 0.05408667 0.038285505
0002d0 4e cd ab 3d 9c d1 f0 bd 0d d5 dc 3d 4d 5d 07 3c
       0.08388768 -0.1175873 0.10782824 0.008261991
0002e0 de 50 c7 3a 8b c1 09 3b ff 2a 5a 3e 16 ac e7 3c
       0.0015206595 0.0021019902 0.21305464 0.0282803
0002f0 74 30 cd 3c f2 99 f9 bd 50 d4 e5 bd c1 04 04 3d
       0.025047518 -0.12187566 -0.11222136 0.032231096
000300 a2 84 df 3c ac 16 17 bd ed ab 92 bd 35 29 ae 3d
       0.027284924 -0.036886856 -0.071616985 0.08503953
000310 d7 79 f5 3d 0d ab bd 3d 1e 5f c2 bd fd 19 16 bd
       0.1198613 0.09261141 -0.094907984 -0.036645878
000320 7d 87 a2 3d fa a4 7f bd 33 23 b0 3c 59 e9 25 bd
       0.079359986 -0.062413193 0.02150116 -0.04050574
000330 c0 40 b8 3d 59 31 56 3c f7 ec 23 bb 5e e8 fd bd
       0.08996725 0.013073289 -0.0025013068 -0.12397836
000340 24 22 fb bc dc d1 9f bc f1 f5 c8 bc a4 ce d7 3c
       -0.030655928 -0.019509248 -0.024531337 0.026343651
000350 1c 86 37 bd 33 7a a9 3c ba 3c 84 bd c9 b5 4c bd
       -0.04480563 0.020688152 -0.06456895 -0.04997805
000360 c1 91 cc bd d0 0b 4c 3c 5b b7 0d be 23 2b ad 3d
       -0.09988738 0.012453988 -0.13839476 0.08455493
000370 c0 43 9e 3d e0 a4 86 3b 87 b1 78 bd 70 09 98 3d
       0.07727766 0.00410901 -0.06071618 0.07423675
000380 33 9b b2 3d 54 d0 79 3d 54 4a f4 bc 5d 5d 60 bd
       0.08721008 0.060989693 -0.029820599 -0.05477654
000390 1b 72 3e bc cc f6 50 3c a0 c9 f4 3d 22 dc 0b 3c
       -0.011623885 0.012754153 0.119525194 0.0085363705
0003a0 e4 d1 51 3d 79 ce 9f 3d bb 7a f4 3d f8 4a a1 bd
       0.051225558 0.078030534 0.119374715 -0.07875627
0003b0 4e 78 ba 3d d4 7d c0 3d 2b 8c be 3d d6 c4 15 bd
       0.091049775 0.09399 0.09304079 -0.03656467
0003c0 8b 9f b9 3d db 12 c4 3d 2b 5c 50 bd 83 bb 01 3e
       0.090636335 0.09573909 -0.05086915 0.12669186
0003d0 2d f4 b7 3d 92 b1 a1 3c d0 6b 8a bd 9b 82 64 bd
       0.0898212 0.019737992 -0.06758845 -0.055788618
0003e0 75 2b 52 3c 2a f0 71 3d 96 8a 0f be 64 a0 26 bc
       0.012827744 0.05906693 -0.1401771 -0.010170076
0003f0 af 30 f4 3d b3 dc 04 3c 7a f9 9b 3d 75 9b d1 bd
       0.11923348 0.008109259 0.07615943 -0.10234729

network.4.bias f4 [32]
000000 21 cb 94 3d 5e 7f d3 bd fe ae 14 3e e2 a3 81 bd
       0.07265306 -0.10327028 0.14519879 -0.06330086
000010 3a 49 60 3d d1 17 ab bd 7b 20 95 bd 81 81 b3 bd
       0.054757334 -0.08354152 -0.07281586 -0.08764935
000020 44 6f 89 3d 4b ea d0 3d 53 aa d3 3d 5a 10 21 3e
       0.06710675 0.10200938 0.10335221 0.15728894
000030 14 49 94 bd ca 40 11 bd 08 0b f1 3c 86 46 c6 bd
       -0.07240501 -0.03546218 0.029424205 -0.0968142
000040 38 e8 0e 3e eb 34 e6 3c d9 6c 96 bd 7a a9 3f bd
       0.13955772 0.028101405 -0.0734498 -0.046792485
000050 f8 5f a2 3d 0f c9 9a bc 4d a1 ac bc 3e 18 c0 3c
       0.07928461 -0.0188947 -0.021073008 0.02344906
000060 10 24 c0 bd 19 ec 96 3d 1e f0 13 bd 8c 58 14 3e
       -0.093818784 0.07369251 -0.036117665 0.14486903
000070 19 88 ee 3d 1a 15 53 bc 1f 99 3f 3d eb 19 b0 3d
       0.11647052 -0.012883449 0.046776887 0.085986935

network.6.weight f4 [3, 32]
000000 ea 64 af 3d 09 12 3a bd f6 b5 92 bd ed 65 36 be
       0.0856417 -0.045427356 -0.071636125 -0.17812319
000010 70 29 f1 3d dd dd 6b 3e 42 eb d1 3d 02 83 71 3e
       0.11775482 0.23033853 0.1024995 0.23585132
000020 7e 2d 79 3e c9 5e 5a 3e 2b 30 d3 3a a9 07 01 bd
       0.2433376 0.2132522 0.0016112378 -0.031501446
000030 b7 52 e7 bd 68 be 83 be 52 8c 51 bd a7 31 42 bd
       -0.112950735 -0.25731206 -0.05115921 -0.047410633
000040 d2 2e 53 3d 94 44 8c bc aa f0 72 bd 2c a8 b2 3d
       0.051558323 -0.017122544 -0.059311546 0.087234825
000050 e2 29 22 be 2c 6a d7 bc 69 a4 2c 3e b0 93 de 3d
       -0.1583629 -0.026295744 0.16859592 0.10868013
000060 00 22 0c bb 89 75 d2 3d 0d f4 75 3e 24 fb 46 3e
       -0.002138257 0.10276324 0.24018879 0.1943174
000070 12 46 2d 3e 09 83 f7 bc 2c e4 85 3d 0b 02 24 3e
       0.16921261 -0.03021385 0.06537661 0.16016404
000080 09 3f b7 bc 70 24 06 be fc cf 1b be e0 a5 d7 3d
       -0.022368925 -0.13099837 -0.15216058 0.10529685
000090 d6 82 14 be 36 37 ed 3c d6 3a 35 3d 34 68 02 bd
       -0.14503035 0.02895699 0.044245563 -0.031837657
0000a0 85 64 82 3d 91 fb 87 be 4b 59 dc bd 8c 48 7a 3e
       0.06366829 -0.26559117 -0.10759219 0.24441737
0000b0 6c cf 60 3e 82 8c 6b 3d e6 c3 37 be 66 cc 50 bd
       0.21954125 0.057507046 -0.17945823 -0.05097618
0000c0 f9 b7 1c 3e 65 61 fb 3d 3c 3b 05 3e 85 a8 4d be
       0.15304555 0.12274436 0.13010877 -0.20083816
0000d0 05 d3 e4 3d 6b dd 09 be 3d 82 15 be 98 8d 2f 3d
       0.11173061 -0.1346337 -0.14600463 0.042859644
0000e0 d0 e6 33 3c 54 d8 9b 3d f7 78 6f be 9e 26 66 bd
       0.010980323 0.07609621 -0.23385988 -0.056189172
0000f0 b0 62 40 3e 6d 01 4f bd d4 63 ce 3d 2d b1 2f 3e
       0.18787646 -0.05053847 0.100776345 0.17157431
000100 a4 52 69 be 01 58 ca 3c 43 c1 30 3e 95 da 4b 3c
       -0.22785431 0.024700167 0.17261223 0.012442251
000110 75 1c 9a 3d ef 27 f8 bd f1 23 f4 39 e8 36 9e be
       0.07524959 -0.12116992 0.00046566085 -0.30901265
000120 4e 97 0a be 95 b5 b5 3d ad 13 4b be eb 50 13 3e
       -0.1353428 0.08872525 -0.19831724 0.14386337
000130 70 07 27 3e 53 3a 86 3e 7a 78 f3 3d 88 65 e4 bc
       0.16311431 0.26216373 0.118882135 -0.027880445
000140 ae 37 13 be 02 66 fb 3d 2b 25 8b 3d 06 13 1f bd
       -0.14376709 0.12275316 0.067941986 -0.0388365
000150 f9 0c 8a bd 47 c0 ed 3d 38 ee 1b be 8f 54 22 be
       -0.067407556 0.116089396 -0.15227592 -0.15852569
000160 aa 75 a5 3d a6 5a 27 be 9d a2 ab bc 6e c1 30 be
       0.08079083 -0.16343173 -0.020951563 -0.17261288
000170 81 e2 b6 bd 7e c3 e5 3d 80 b0 24 be 86 a2 82 be
       -0.08929921 0.11218928 -0.16082954 -0.2551462

network.6.bias f4 [3]
000000 a8 0c 25 3e b8 ce d3 bd 51 0c a4 3c
       0.16118109 -0.10342163 0.020025404

network.0.weight f4 [128, 30]
000000 15 68 b8 bd b9 f9 bb bd 30 3d 91 bc 6e 8c d8 bc
       -0.09004227 -0.0917849 -0.017729372 -0.02643415
000010 84 36 3e 3c 54 f8 7b bd e9 d6 e4 3d bc b4 96 bd
       0.011609677 -0.06151612 0.11173803 -0.07358691
000020 50 2e 47 3d 69 da f4 bb 5f 11 62 3d 8c 87 37 bd
       0.04862815 -0.0074723256 0.055192348 -0.044807002
000030 78 15 35 be d4 72 68 39 15 c6 bc 3d d7 9d e8 bd
       -0.17683971 0.00022168021 0.09217469 -0.113582306
000040 f0 8e 22 bd c7 bf 4f be c3 c0 84 3e fb 2d e0 be
       -0.039687097 -0.20288001 0.25928316 -0.4378508
000050 df ec 82 3e d4 f4 f4 3e 89 22 0c be a4 3a 76 be
       0.25571343 0.4784304 -0.13685049 -0.24045807
000060 d2 5f 20 3e 00 30 52 bc 5f 48 f8 bd cc 04 00 bd
       0.15661553 -0.012828827 -0.12123179 -0.031254575
000070 0f e2 1e be 84 ef 0f bd 6f 58 82 bb 84 3b 6f bc
       -0.15515922 -0.03514053 -0.0039778273 -0.014601592
000080 cd ca d0 3d 77 50 7a 3c b3 a8 31 3c b3 65 3d bd
       0.10194931 0.015277973 0.010843444 -0.046239566
000090 b5 e9 36 3e a8 8a 15 3e c1 04 10 be 88 be 73 bd
       0.1786259 0.14603674 -0.14064313 -0.059507877
0000a0 38 cc 26 3e cf 81 05 3e 23 eb 87 bd 86 a9 b3 3e
       0.16288841 0.130378 -0.06636646 0.35090274
0000b0 64 1a 87 be 99 34 cb 3e 34 de a2 3e 77 87 14 be
       -0.26387322 0.39688566 0.31810153 -0.145048
0000c0 33 58 26 be 0c eb d7 be 2d 64 8d bc 1d fa 75 3d
       -0.16244583 -0.42171514 -0.017259682 0.06005298
0000d0 38 39 a1 bd 55 7c c4 bd 4a f7 c0 bd 3a 4f f7 bd
       -0.07872242 -0.09594027 -0.09422167 -0.12075658
0000e0 47 c4 c9 bd 00 fa 9d 3b bc 44 96 3d e0 7f b7 bc
       -0.0985189 0.004821062 0.07337329 -0.022399843
0000f0 f9 88 ef 3d 5e ae de bd e4 d1 ce 3c 2d 68 96 3d
       0.11696047 -0.10873102 0.025246568 0.07344089
000100 59 93 ac bc 04 a3 ce 3d ca 34 14 3e 20 51 42 be
       -0.021066355 0.100896865 0.14473262 -0.18976259
000110 f7 9f b8 3d 46 02 9d bd 6f cd 67 3e 34 48 11 be
       0.09014886 -0.07666449 0.2263696 -0.141877
000120 30 66 1a bd 82 3b 12 3e 2b ae d5 3d 15 e0 81 be
       -0.03769511 0.14280513 0.104336105 -0.25366274
000130 2c 1d 73 bd e7 1c b2 bd f6 61 b0 3d d0 a8 7a be
       -0.059353992 -0.08696919 0.086124346 -0.2447846
000140 b1 99 01 3c f0 2d 7f bd 8b 1d 68 3e 62 b3 e8 be
       0.007910178 -0.06229967 0.2266752 -0.45449358
000150 a0 ec 07 be d8 a5 01 3e 63 dc d6 bd ec c9 3c 3d
       -0.13273859 0.1266092 -0.10491254 0.046091005
000160 10 e5 07 3e ee a0 2e 3e 0c 23 cd 3c 06 68 8e 3e
       0.13270974 0.17053577 0.025041126 0.2781374
000170 9d 73 9e 3d a2 c7 52 bd f3 2b 28 3e bf 96 84 3e
       0.07736895 -0.051459916 0.16423015 0.2589626
000180 e0 2b 05 3d c4 34 ba 3d b6 8e 47 bc 8a cc 4b 3c
       0.032512546 0.090920955 -0.012180021 0.012438903
000190 44 94 ec 3d 1e 4f 10 be a4 04 61 3e 70 9a 94 3c
       0.11551717 -0.14092681 0.21974427 0.018140048
0001a0 c7 0b 8f bd 4d e1 e0 bc 28 22 f7 3d 44 39 01 3e
       -0.06984668 -0.027451182 0.12067062 0.12619501
0001b0 e0 cf a9 bd d2 5d 81 3e c1 25 89 3d 43 85 00 3e
       -0.08291602 0.25266892 0.06696654 0.12550835
0001c0 23 a5 81 3d 0f 9b da 3d 90 03 2c 3d 80 1c e1 3b
       0.063303255 0.10674106 0.041995585 0.0068698525
0001d0 00 cf 56 bb 72 d3 10 3e b9 30 a5 bd dc 2b e5 3d
       -0.003277719 0.1414316 -0.08065934 0.11190006
0001e0 e2 42 50 3d bf 39 6c 3d 1e 4e 1b 3d 0e 2e 87 bc
       0.050845034 0.05767226 0.037916295 -0.016501453
0001f0 1f 4f c9 bc 5b 78 a6 3d 71 06 6e 3e d0 3c 90 bd
       -0.02457386 0.08128425 0.23244645 -0.07042849
000200 4e 22 fe 3d 09 2f 17 bd 59 53 a6 3d 04 66 ca bd
       0.12408887 -0.03691009 0.08121366 -0.09882739
000210 83 0b 38 bc 80 4b 27 3e 3d 7b 3b 3e 1f a5 e9 bd
       -0.011233213 0.16337395 0.1830873 -0.114084475
000220 e0 40 91 3c 21 40 36 3d 27 67 bb 3c 4c 9e c1 bd
       0.01773113 0.04449475 0.022876335 -0.09454021
000230 9c ae bf 3d 55 04 10 be 8c 33 f6 3b 51 35 65 be
       0.09359476 -0.14064153 0.007513469 -0.2238362
000240 f7 53 21 be 1c b0 bb 3d 92 81 3a 3e 82 46 89 bd
       -0.15754686 0.091644496 0.1821349 -0.067029014
000250 7e 30 10 3e d8 cc de 3c b5 86 a8 38 d6 9c 16 3e
       0.14080998 0.027197286 8.0359554e-05 0.14708266
000260 fd 1f dd 3d a4 2f 10 be fd 82 13 3e 5c 99 4d be
       0.10797117 -0.14080673 0.14405437 -0.20078033
000270 0f fd 82 be 31 b4 b5 bd fc 27 40 be f5 0e 3b bc
       -0.25583693 -0.088722594 -0.18765253 -0.01141714
000280 2b 55 10 bd 39 a4 9b bd 10 b2 0a 3e 3f 38 e3 bd
       -0.035237473 -0.07599682 0.13544488 -0.110947125
000290 7b 09 28 be 89 f7 40 3e 5a 9b 70 3e b4 c4 d2 3d
       -0.16409867 0.18844427 0.23496762 0.102914244
0002a0 bc 6f 4a bc 60 b6 9b bd 29 a8 b9 3d 6d 3d 7e 3e
       -0.012355741 -0.07603145 0.09065277 0.2482812
0002b0 80 fa 3a 3e e8 dc aa bd 1c 8e 11 3d f4 bd d6 3d
       0.1825962 -0.08342916 0.035535917 0.104854494
0002c0 80 22 02 3e ac ef 01 3d 92 e1 11 be 06 f1 29 3e
       0.12708473 0.03172271 -0.14246204 0.1659585
0002d0 df 29 1d bd b6 4b 0a be 68 1f 0f be 57 7f 9f bd
       -0.03837001 -0.13505444 -0.13976824 -0.0778796
0002e0 ed 4e b4 3d 7e b0 42 3e 3c fd ec bd 1a ac c4 3c
       0.088041164 0.19012639 -0.11571738 0.024007846
0002f0 30 9b 4d 3c b5 5f 8b 3b d4 6c ae bd fb 5d ac 3d
       0.012549207 0.0042533525 -0.08516851 0.08416363
000300 2d 5c d3 3d c0 ac 48 bd 1b 4a e8 bd 6b 88 ba 3c
       0.103203155 -0.048992872 -0.113422595 0.022770127
000310 a9 b9 4b be 17 00 81 3c 61 80 8a 3d 54 25 09 3f
       -0.19895042 0.015747113 0.067627676 0.53572583
000320 08 61 9e bd 63 bd 93 3e fb 79 a3 3d 5d 46 60 3d
       -0.07733351 0.28855428 0.0798225 0.054754604
000330 e3 17 95 bd 8b ad eb bd 4c 26 03 3e 64 1a a3 3d
       -0.07279947 -0.1150771 0.12807578 0.07964018
000340 b0 3d 29 3e 32 b5 0d 3e 01 d7 ed bd ba 03 01 be
       0.16527438 0.13838652 -0.11613274 -0.12599078
000350 57 4a b5 bd 84 3e 70 bb c2 1f 35 3c 6f f5 fc 3c
       -0.0885207 -0.0036658356 0.011054935 0.03087875
000360 22 44 da 3d 40 79 43 3e 7d 20 d2 bb 27 8d 76 be
       0.106575266 0.19089222 -0.0064125643 -0.24077283
000370 fd 82 28 be c3 a5 c7 bc b1 c5 bd 3a fc 01 13 3e
       -0.16456218 -0.024371034 0.0014478472 0.14356226
000380 09 f0 5c 3e 3a 68 0a 3e 3e ab 62 3e 71 f6 fd bc
       0.21575941 0.13516322 0.22135636 -0.031001301
000390 fa c7 f3 3c 13 1d 7a be 86 18 95 ba 76 b1 26 3e
       0.029758442 -0.24425153 -0.0011375106 0.16278633
0003a0 fb e0 3c bd f5 c6 87 3d f4 45 d0 3d 68 a2 6a bd
       -0.046112996 0.06629745 0.101695925 -0.05728379
0003b0 74 a6 ae 3d 6a b5 19 be b0 98 15 bc e0 61 b0 3b
       0.08527842 -0.1501061 -0.009130642 0.0053827614
0003c0 2b a4 3c 3d c1 8e ea 3d 6a 41 3d be 43 f7 d1 bc
       0.046055 0.114530094 -0.18481985 -0.025630599
0003d0 ad 08 fc bd 70 14 03 bc d4 4f 95 be 33 65 94 3c
       -0.12306342 -0.008000478 -0.29162467 0.018114662
0003e0 41 a9 2f bc d0 ce 8f 3d 4c 3f 3c be cc b2 18 3e
       -0.010721506 0.07021868 -0.18383521 0.14911956
0003f0 4a 1f 86 3d 54 30 2a 3b bf c5 3a be 99 7b f5 3d
       0.06548937 0.0025968747 -0.18239497 0.11986465

network.0.bias f4 [128]
000000 d7 44 5c 3e fc c8 2e be 37 28 62 be 31 ea 47 be
       0.21510635 -0.17068857 -0.22085653 -0.1952293
000010 cc e4 ee bc 16 e0 4c 3e 63 52 1a 3e 28 70 e8 bd
       -0.029161833 0.20007357 0.1507049 -0.11349517
000020 52 c5 4b 3d 4e 28 42 3e e1 fd 63 3c f3 71 a0 bd
       0.049748726 0.18960688 0.01391551 -0.07834234
000030 f8 cb 6c 3e 3d 60 34 3e b6 15 87 3d d3 47 13 3e
       0.23124683 0.17614837 0.06595938 0.14382868
000040 1a d7 31 bc 2d 5c 87 3e a4 3a 83 3e 39 04 ec 3d
       -0.010854507 0.26437512 0.25630677 0.11524243
000050 65 a7 d1 3d f5 a9 fd 3c 66 46 d6 bd ca 51 af bd
       0.10237006 0.03096483 -0.10462646 -0.08560522
000060 68 db ca bd 8d c4 84 be 48 b6 17 3c 8b b9 7a 3d
       -0.0990513 -0.25931206 0.009259768 0.061212104
000070 7d 46 53 3e 5d 5b 0e 3c c0 a4 5a bd 9c 2b 20 bc
       0.20632358 0.008688775 -0.053379774 -0.009776022
000080 ba d1 e8 bd 6c a5 4b 3e 26 ac 7a 3e 1c 6e 60 3b
       -0.11368127 0.19887322 0.24479732 0.0034245318
000090 eb 94 10 bd c9 87 80 3e 30 e2 51 3e ec f0 94 bb
       -0.03529827 0.25103596 0.2049644 -0.0045453217
0000a0 45 34 5e 3e df 6b 98 bd 2f bd 61 bd 38 fa 3d 3e
       0.21699627 -0.0744245 -0.05511206 0.18552482
0000b0 67 05 62 3d a6 62 57 be 2d 63 63 bd 52 86 bb bd
       0.055180933 -0.21033725 -0.055514503 -0.09156479
0000c0 01 0b 65 be dd 34 0e 3e 5d f7 50 3e 57 17 bb 3e
       -0.22367479 0.13887353 0.20406862 0.36541244
0000d0 c1 1e eb 3d d1 e8 14 3e 9e 49 3d 3e 9d cc 04 bd
       0.11480475 0.14541937 0.18485114 -0.032421697
0000e0 67 e9 fb 3d 65 1f e4 3d fa b1 08 3e c4 43 82 3d
       0.12300377 0.111388005 0.13349143 0.063605815
0000f0 f1 de e0 3d f9 15 8a 3e f5 70 bc 3c df d7 68 3d
       0.10980023 0.2696989 0.02300308 0.056846496
000100 f4 a7 d1 bb 64 59 e2 bd 52 4e 26 bd af 56 48 3d
       -0.0063981954 -0.11052206 -0.040602036 0.048910793
000110 f7 53 04 3e d6 f9 07 3e 97 c0 97 3d 3a 2c 07 3e
       0.12922655 0.13278899 0.074097805 0.13200465
000120 aa f6 4d 3d 8c 3e 6f 3d 05 c3 75 3e 85 76 29 3e
       0.050284065 0.05840926 0.24000175 0.16549118
000130 0e 11 72 be 68 7c 00 3d 89 98 95 bc 02 3e 6d be
       -0.23639318 0.031368643 -0.018261211 -0.23168185
000140 b0 78 2e bc 32 0e e9 bd e4 8f 52 3d c0 90 39 3e
       -0.010648891 -0.11379661 0.051406756 0.18121624
000150 c8 25 37 bd 1d e1 18 bd b0 c8 08 3d 38 22 79 3e
       -0.044713765 -0.03732406 0.033394516 0.2432946
000160 cf ab 6b 3e 41 45 88 3d 90 00 2b be 31 96 b4 bd
       0.23014759 0.06653834 -0.16699433 -0.08817709
000170 69 22 1a 3e b4 d9 82 3e cc c3 3e 3e da 3b 0a bd
       0.15052189 0.2555672 0.18629378 -0.033748485
000180 93 8d 04 3e bf 0c c3 3d 7c 7f 34 3d 4b 7b 6b 3e
       0.12944631 0.095239155 0.04406689 0.22996251
000190 37 43 e9 bd eb ba 23 3e a4 be 0b be 1c 22 26 be
       -0.11389773 0.15989272 -0.13646942 -0.16223949
0001a0 b9 80 6b 3e 0f 53 9b 3d ec 6a 2a be 5d b1 d6 3d
       0.22998323 0.075842015 -0.1664235 0.10483048
0001b0 f3 25 a6 3d 6c d0 14 be 85 69 3e bd ab 26 21 bd
       0.08112707 -0.14532632 -0.04648735 -0.039343517
0001c0 a4 6c 89 3e 32 c1 e4 3d 46 d4 0d 3e ff ee 77 3e
       0.268407 0.111696616 0.13850507 0.24212264
0001d0 ed 01 e0 bd 9f a1 8c 3e 23 78 9b be 9c f7 23 3e
       -0.10937867 0.27467057 -0.30365095 0.16012424
0001e0 6d a9 4f 3e a2 2b 51 be 9d 3d d3 3d 37 ac 37 be
       0.20279475 -0.20426801 0.10314486 -0.17936788
0001f0 78 1c 21 3d 2b 23 3a 3e 42 a7 47 3d 31 21 8e 3d
       0.03933379 0.18177478 0.048743494 0.069399245

network.2.weight f4 [64, 128]
000000 dd ed 92 3c 90 66 1e 3c 08 4e 06 bd 72 cd 51 bc
       0.017935688 0.0096680075 -0.03278926 -0.01280533
000010 39 61 a1 bd c2 c0 a2 3c 24 e6 82 bd c0 6a 19 be
       -0.07879872 0.019867305 -0.06391552 -0.14982128
000020 01 f6 2f 3b 25 9a 55 3d f6 fe 75 3d 00 70 8d 3d
       0.002684951 0.052148957 0.060057603 0.06906128
000030 34 4d d3 bd 73 19 36 be 2b 99 e0 bc 89 5a ad bc
       -0.1031746 -0.17783146 -0.027416786 -0.021161335
000040 9a 75 8b 3a 83 f2 13 3c 7d ba 3b 3c 52 e7 03 bd
       0.0010639906 0.009029987 0.0114580365 -0.032203026
000050 ff 12 8e bd 35 c8 41 3c df 66 6d bd fe 07 cb 3b
       -0.06937217 0.011827518 -0.057959434 0.006196021
000060 ec 14 a6 bd 2a 89 c4 bd 7b b9 79 bd 7f 87 ed bc
       -0.08109459 -0.095964745 -0.060967904 -0.028995274
000070 6e 4a e3 bc 56 7e 4a 3d 19 69 6d 3d 20 2d a2 bd
       -0.027745452 0.04943689 0.057961557 -0.07918763
000080 5a 41 21 3c 07 45 36 3b bc f3 68 3d e2 3e 02 be
       0.009842241 0.002781214 0.05687307 -0.127193
000090 98 4d e5 bd 3c 33 e9 3c 69 4b 11 be 2c bd 67 bd
       -0.111964405 0.028466813 -0.14188923 -0.056576893
0000a0 06 57 24 3d c4 c2 23 be 10 f2 68 3d 95 71 b7 3b
       0.040122055 -0.15992266 0.056871474 0.005598257
0000b0 af bf ff 3c c4 e0 bc bc 1e 83 e2 3c cd 60 f0 bd
       0.031219332 -0.023056395 0.027650412 -0.11737213
0000c0 a6 3c a0 bd 94 1f 3c 3d 68 ac 1b bc c2 fe 85 bd
       -0.07824068 0.045928553 -0.009501554 -0.06542732
0000d0 ed b8 fc 3b 3e 12 e0 3c cf a6 82 bd ef 7f 5f be
       0.0077124746 0.027352449 -0.063794725 -0.21826147
0000e0 26 7d 33 be 59 5f a7 bd 7b f2 9b 3d fa 69 c4 bd
       -0.17528209 -0.08172483 0.07614609 -0.09590526
0000f0 d6 a2 15 3d 20 0f d8 bd 75 d8 6a be b6 04 e3 bb
       0.036532246 -0.1054976 -0.22934134 -0.006928052
000100 12 8b 65 bc b0 5c 81 bd d0 fd da bd 06 80 09 bd
       -0.014010208 -0.06316507 -0.10692942 -0.03356936
000110 c9 26 6e 3d 1e a7 a1 bc 79 75 b0 bd c0 6e 83 3d
       0.058142457 -0.019733008 -0.08616156 0.06417608
000120 2a 3c 7f be 7c 20 98 3a 40 a9 07 bd ec 1a 84 3c
       -0.24925295 0.0011606361 -0.033120394 0.016126119
000130 3d bb 16 be 09 3b 04 be 6b e6 c7 bc f5 e3 32 bd
       -0.14719863 -0.12913145 -0.024401864 -0.043674428
000140 91 1e 63 bd 31 25 f1 3c 42 c3 a7 bd 39 11 52 bc
       -0.055449072 0.02943668 -0.08191539 -0.012821489
000150 aa 09 cf 3d 88 3f 2a be 3c f6 a4 bd d9 26 f0 bc
       0.10109265 -0.16625798 -0.08054778 -0.029315399
000160 48 8e df bd a0 df e2 3d d9 9c 8a 3d 50 c3 d6 3b
       -0.1091581 0.11077809 0.067681976 0.006554045
000170 c3 40 6a 3b af e5 b5 3a 1f 72 af 3c ad 5c 75 3d
       0.0035744167 0.0013877655 0.021416722 0.059902836
000180 3b 7c 36 be 05 55 1a 3d 10 5e 46 bd c0 e7 eb 3b
       -0.17820828 0.037678737 -0.04842955 0.0071992576
000190 e0 06 2f be 86 f9 09 3d da da 89 3c cb 3b e1 bd
       -0.17092466 0.03368523 0.01682799 -0.10997733
0001a0 55 87 6c bd 2d 3c 3e bd 56 6c de 3c cc 1b 8a bd
       -0.05774625 -0.046444107 0.027151268 -0.06743583
0001b0 b5 b5 4b be b1 c4 e8 3b cc 6c bf bd ec f4 9b ba
       -0.19893534 0.0071035256 -0.09346923 -0.0011898554
0001c0 f7 be 05 be 62 1a 9c 3d b8 d5 47 bb ab 9d 7c 3d
       -0.13061129 0.076222196 -0.0030492377 0.0616738
0001d0 7f 24 20 3d 39 66 72 bd a2 d3 98 3b b8 be b5 bc
       0.039097305 -0.05917952 0.0046639005 -0.022185668
0001e0 ce 69 41 bd d3 88 2a bd 89 ec 1c 3d 02 50 5b bd
       -0.047220044 -0.041634392 0.038311515 -0.0535431
0001f0 3d 25 87 3d aa ee 48 3c b3 0f 4e bd 71 b5 8e bd
       0.065988995 0.012263933 -0.05030794 -0.06968201
000200 f7 a9 ec 3d 1e dd ba 3c 20 a7 c3 bd 34 6c 2c bd
       0.11555856 0.022810515 -0.09553361 -0.042095378
000210 15 0e 3b be 7d f0 37 3e 6b 77 08 be 33 42 9c 3e
       -0.1826709 0.17962833 -0.13326804 0.30519256
000220 f8 a1 1c bc 02 68 f9 3d 92 13 df ba b2 b1 30 3d
       -0.009560101 0.12178041 -0.0017019382 0.043138213
000230 20 aa eb 3c 77 a0 e8 bd e0 fa 4b 3d 5d f3 94 3d
       0.028767645 -0.11358731 0.0497998 0.0727298
000240 50 a4 2f 3e 60 0c 27 be 55 ca 45 3e 6c 6f df 3d
       0.17152524 -0.16313314 0.19315465 0.10909924
000250 06 34 99 be ba d8 41 3e a5 3f 1c 3d e7 82 5f 3e
       -0.29922503 0.18930331 0.038146634 0.21827279
000260 de 74 b0 bd 40 72 8b bd d9 e6 0d bd d7 c7 13 be
       -0.08616041 -0.06808901 -0.03464398 -0.14431702
000270 ee 01 64 3e 54 07 e1 3d 14 c9 c8 bd d7 e6 d9 bb
       0.22266361 0.10987726 -0.098039776 -0.0066498327
000280 66 a8 1b 3d 65 57 0f be 99 0d 71 3c 2b 4d f3 3c
       0.038002394 -0.13998182 0.014712715 0.029699882
000290 b9 b5 d2 bd 50 0c b1 3c 34 40 92 3c 60 5b e5 b9
       -0.10288567 0.021612316 0.01785288 -0.00043746363
0002a0 e6 c8 ca 3d 45 70 21 be b9 04 2a 3e b9 da 86 3d
       0.099015996 -0.15765484 0.16603364 0.06584687
0002b0 a2 35 d6 3b 58 c9 77 bd 24 eb 98 3d 06 40 45 bc
       0.0065371552 -0.06049475 0.074667245 -0.01203919
0002c0 02 c1 d2 3d ea 62 31 bc 82 99 02 bc 82 0d 35 3b
       0.102907196 -0.010826806 -0.007971169 0.002762646
0002d0 97 c7 c4 3d c1 e3 01 3e 4c 16 36 3d 35 96 c1 bc
       0.09608381 0.12684537 0.044454858 -0.023631195
0002e0 88 bf 3a be 40 aa e4 bd b3 f4 0e 3e 17 9e dd 3c
       -0.18237126 -0.11165285 0.13960533 0.027052922
0002f0 9b 7a 4a 3d 80 81 0c be 3f ea 1f 3d fb 66 51 bd
       0.049433332 -0.13721275 0.039041754 -0.0511236
000300 b2 1f ca 3d fa 05 04 3d 6f 64 cf 3d 67 24 9e bd
       0.09869327 0.032232262 0.10126578 -0.07721787
000310 c8 13 d4 3d e4 22 bb 3d 26 c1 93 bd 2b 62 28 be
       0.103553355 0.09137514 -0.072145745 -0.16443698
000320 14 91 4b 3e b1 da 01 3e 32 62 62 bd 57 24 fa 3d
       0.19879562 0.1268108 -0.055269428 0.122139625
000330 73 61 33 3e 80 28 4c be b3 41 a6 3b dd 5e 01 be
       0.17517643 -0.19937325 0.00507375 -0.12633844
000340 a3 b3 08 be 2d 61 cc bd d4 16 2a bd b6 fe 5d 3d
       -0.13349776 -0.09979472 -0.041525677 0.05419799
000350 0e 78 15 3e b2 36 94 bb 1e d6 71 3d 62 dc d6 3d
       0.14596578 -0.0045231218 0.05904209 0.104912534
000360 cd ba a3 3e f7 a9 a6 3d 32 22 32 bd 41 e4 1d be
       0.31978455 0.08137887 -0.043489642 -0.15419103
000370 97 90 2f bd 68 51 3c bd 6a 2e 01 3d 2e 22 10 be
       -0.0428625 -0.045976073 0.031538405 -0.14075539
000380 c8 93 2c be 5b bd 23 be 0c 73 8c 3c ca 73 f4 bd
       -0.16853249 -0.15990202 0.017144702 -0.119361475
000390 4c ef 0e 3d b5 7b dd 3d 65 cc d8 bd 72 61 3d bd
       0.03489618 0.10814611 -0.1058586 -0.04623551
0003a0 e5 33 89 3d b4 59 ee 3d ae be c9 3b 53 9f 04 3e
       0.06699351 0.11638203 0.006156764 0.12951402
0003b0 59 b9 63 be 3d 76 3c 3d 47 98 b3 3c 51 4d 4c 3e
       -0.22238673 0.0460112 0.021923197 0.19951369
0003c0 a1 9f 23 be bc 3d 31 3e 27 79 52 3e b9 46 da 3c
       -0.15978862 0.17308706 0.20554028 0.026645051
0003d0 86 8a 8a bd 37 f1 e6 3c db 52 32 3e 8f 7a a0 3d
       -0.067647025 0.028191192 0.1741442 0.07835876
0003e0 25 44 19 be d2 ab 7e 3d 38 af 15 3e c6 0b 89 bd
       -0.14967401 0.06217558 0.14617622 -0.06691699
0003f0 bd 4e 7e bc 64 fe 0a 3e e0 96 21 3c a4 7c 0b 3d
       -0.015521702 0.13573605 0.009862632 0.034054413

network.2.bias f4 [64]
000000 4f 42 5f 3d 47 87 00 bd 0f 25 7f bd 6d 4d 06 3e
       0.054506596 -0.03137901 -0.0622912 0.13115473
000010 0f b9 9a 3c 61 78 2f 3e 38 7b 2e 3e b8 bf 79 bd
       0.018887071 0.17135765 0.17039192 -0.060973853
000020 3a ba c6 bd d2 46 8c 3d 5c 8a 05 3e 26 23 b1 3c
       -0.09703489 0.068494454 0.13041061 0.021623205
000030 f3 60 26 be 6a d7 93 bd 69 07 b8 3d 1b 4c 79 3d
       -0.1624792 -0.07218821 0.089857884 0.060863595
000040 0b b3 f0 3c ab e9 50 be b0 94 e5 3c 73 6d 0c 3e
       0.02938225 -0.20401637 0.028025001 0.13713627
000050 34 7d 0d 3d 1f 2b 5c bc 04 b7 8c 3d 0f 6d 0e 3e
       0.03454323 -0.013438015 0.06870845 0.1390879
000060 ac 6e 80 bd ce c7 49 3d ac 15 4c bd 0b da 32 bd
       -0.06271109 0.049262814 -0.049825355 -0.043664973
000070 c4 cf aa bd ba 70 75 bb 75 f1 8b bc 79 eb 0c bd
       -0.083404094 -0.0037451223 -0.01708291 -0.03440425
000080 d8 32 49 bd a9 73 ca bc ac 38 ce bc 71 19 45 3e
       -0.049120754 -0.024713354 -0.025173508 0.19247986
000090 3d f6 ed 3d 66 13 73 3d 78 93 70 3c f8 d6 00 3e
       0.11619232 0.05934467 0.014683597 0.12582004
0000a0 93 c1 35 be 80 b6 05 3d a1 be b5 3d c6 09 aa 3b
       -0.17749624 0.03264475 0.0887425 0.0051891534
0000b0 fa 8a 02 3a 49 04 18 bd 98 53 de bd 66 ff fb 3d
       0.00049798156 -0.03711346 -0.10855788 0.12304573
0000c0 79 78 28 bc 70 97 bd bc 97 f2 47 3e 43 34 78 bd
       -0.010282629 -0.0231435 0.19526134 -0.060596716
0000d0 c6 d0 c8 3d 2b 94 e4 3c b5 26 a9 3d d5 64 ef 3d
       0.098054454 0.027902683 0.08259336 0.11689154
0000e0 64 48 82 bd d0 5a dd 3d f9 8d aa 3c 54 9b 81 3d
       -0.06361464 0.10808337 0.020819651 0.063284546
0000f0 7e cc 94 bd 12 a6 6a 3d 2c 22 bb bd 35 01 1c bc
       -0.07265566 0.057287283 -0.09137377 -0.009521772
