models/ppo_agent_ep10.pt (torch, 364210 bytes, 45 tensors)

network.0.weight f4 [128, 30]
0	0xbe1312f4	-0.14362699
1	0x3dd56103	0.10418894
2	0x3da99d67	0.08281975
3	0xbe15ae7c	-0.14617342
4	0xbe4e8c02	-0.20170596
5	0xbdeeb1e9	-0.116550274
6	0xbd7d0fa8	-0.06178251
7	0xbe0c77a7	-0.13717519
8	0xbd08255b	-0.03323875
9	0x3db1ce9b	0.08681985
10	0xbe2eecb8	-0.17082489
11	0xbda73e41	-0.08166171
12	0x3deb0fd8	0.11477631
13	0x3e550f8e	0.20806715
14	0x3e0c185c	0.13681167
15	0xbd1cc545	-0.03827407
16	0xbcebb683	-0.028773552
17	0xbae6c4dc	-0.0017606276
18	0xbdcab911	-0.0989858
19	0xbcbec1d1	-0.023285778
20	0xbd0e9865	-0.034813304
21	0x3dd3c91b	0.10341092
22	0x3e259834	0.16171342
23	0xbd1e0907	-0.038582828
24	0x3de53d08	0.111932814
25	0xbe1803ff	-0.14845274
26	0xbe350268	-0.17676699
27	0x3d450740	0.048102617
28	0xbd4cf808	-0.05004123
29	0xbdc9fc49	-0.09862573
30	0x3c2bab09	0.01047779
31	0xbe2597a2	-0.16171125
32	0xbe32d7a4	-0.17465073
33	0x3ce40b19	0.027837323
34	0xbe443719	-0.19161643
35	0x3dafca05	0.08583454
36	0x3e2e7e0f	0.17040275
37	0x3d9725a1	0.07380224
38	0xbdf20d9f	-0.11819004
39	0x3dc71063	0.097199224
40	0xbd52c6f9	-0.051459286
41	0x3c05f72c	0.008176606
42	0x3d701871	0.05861706
43	0x3df3cb8b	0.11904057
44	0x3dc49fc8	0.09600788
45	0xbde7002f	-0.11279332
46	0x3dfd5743	0.123701595
47	0xbe0caf56	-0.1373876
48	0xbd885871	-0.06657494
49	0x3d01f67d	0.03172921
50	0x3e1f1768	0.15536273
51	0x3e08a3af	0.1334369
52	0xbdb5432c	-0.08850703
53	0x3db605bc	0.088878125
54	0xbd94a2bb	-0.07257601
55	0x3cabaf80	0.020957708
56	0xbc3c3740	-0.011487782
57	0x3bae6e60	0.0053232163
58	0xbdb7eb76	-0.089804575
59	0xbd32f490	-0.043690264
60	0xbe029fae	-0.12756225
61	0xbd86081c	-0.065445155
62	0x3e106161	0.14099647
63	0xbcd2283a	-0.025653947
64	0xbdbcd04f	-0.09219419
65	0x3d9dae8f	0.0769931
66	0x3d072a32	0.032999225
67	0x3ce51f34	0.02796898
68	0x3e06b529	0.13155045
69	0x3ce03c07	0.027372373
70	0xbcabfee6	-0.020995568
71	0x3da1e460	0.07904887
72	0x3a856483	0.001017705
73	0xbe22fa55	-0.15915807
74	0x3e2580cb	0.16162412
75	0xbda36686	-0.07978539
76	0x3dff9fc9	0.124816485
77	0x3db5a5da	0.08869524
78	0xbe29ead3	-0.16593485
79	0xbe331709	-0.17489256
80	0x3da964ba	0.08271165
81	0x3e0223dc	0.12708992
82	0xbe1d51c6	-0.15363225
83	0x3dee991a	0.116502956
84	0x3e124d3e	0.14287278
85	0x3e372dcc	0.17888564
86	0xbd925357	-0.07144802
87	0x3dc83db8	0.09777397
88	0xbde16a01	-0.11006547
89	0xbdb9be9a	-0.090695575
90	0xbdcc7f59	-0.09985227
91	0xbddac5c1	-0.1068225
92	0x3cdf1f2c	0.027236544
93	0xbb262782	-0.0025353138
94	0xbe3f276a	-0.18667379
95	0xbd55fdce	-0.052244
96	0xbd2b5b34	-0.041835025
97	0xbe377cc4	-0.17918688
98	0x3e2a3d7e	0.1662502
99	0xbd7557f0	-0.059898317
100	0xbd27e44b	-0.0409892
101	0x3ca32af1	0.019917937
102	0xbdc06f01	-0.09396172
103	0x3d6eaf37	0.058272567
104	0xbdb6589a	-0.08903618
105	0x3e1bafaa	0.1520373
106	0x3dc69c77	0.09697812
107	0x3c4f255f	0.012643187
108	0xbdd107e9	-0.10206587
109	0x3d7d0ac7	0.061777856
110	0xbd6a6604	-0.057226196
111	0xbdd784dc	-0.10523388
112	0xbe4990cc	-0.19684142
113	0x3e406a91	0.18790652
114	0xbe099386	-0.13435182
115	0x3e324344	0.17408472
116	0x3de1de84	0.110287696
117	0x3ddedb30	0.108816504
118	0x3c42a0e0	0.011879176
119	0xbda5133a	-0.08060308
120	0x3e00864a	0.12551227
121	0xbd8bfd59	-0.068354316
122	0xbc37479f	-0.011186509
123	0x3e1a9d90	0.15099168
124	0x3d13b87b	0.036064606
125	0xbe22c1b5	-0.15894206
126	0xbe206d6b	-0.1566674
127	0x3d8cb846	0.06871085
128	0x3e45e948	0.19327271
129	0xbcd38b8d	-0.025823379
130	0x3e3f4f5d	0.18682618
131	0x3cd14281	0.025544407
132	0x3de99fd9	0.11407442
133	0xbde8ff34	-0.11376801
134	0x3d325e2b	0.043546837
135	0x3e3dcca7	0.185351
136	0xbdc7b830	-0.09751928
137	0xbd99d46c	-0.075112194
138	0xbe246452	-0.16053894
139	0x3d8c7252	0.06857742
140	0x3e488be1	0.1958461
141	0xbd91dbf3	-0.0712203
142	0xbd4f3c0b	-0.05059437
143	0xbe065b65	-0.13120802
144	0x3c23b7d0	0.009992555
145	0x3d84057e	0.0644636
146	0xbdbf72e9	-0.09348089
147	0xbd286130	-0.04110831
148	0x3d702004	0.058624282
149	0xbb5b2000	-0.0033435822
150	0xbd1107e2	-0.03540791
151	0x3d68042a	0.056644596
152	0xbe06324c	-0.13105124
153	0xbd14e1f7	-0.03634831
154	0x3e0477a6	0.12936267
155	0xbe39ae08	-0.18132794
156	0xbdfe6225	-0.12421063
157	0x3d497af4	0.049189523
158	0xbe2aac88	-0.16667378
159	0x3dabc11c	0.08386442
160	0x3dca19b7	0.09868186
161	0xbd662794	-0.05619009
162	0xbd2b7630	-0.04186076
163	0xbe2e4b0e	-0.17020819
164	0xbd79274c	-0.060828492
165	0x3cb90eef	0.022590129
166	0x3dab46ac	0.08363089
167	0xbd9505e1	-0.07276512
168	0x3ddd970f	0.10819828
169	0xbd146222	-0.0362264
170	0xbd4283c7	-0.047488954
171	0xbdaef520	-0.08542848
172	0xbe3259ea	-0.17417112
173	0x3e091860	0.13388205
174	0x3d54f314	0.05198963
175	0x3d17cfb4	0.037063316
176	0xbe09220e	-0.13391897
177	0xbcd5d0f8	-0.02610062
178	0x3de9a378	0.11408132
179	0xbd92207b	-0.071351014
180	0x3dfa7a41	0.12230349
181	0xbd81ee43	-0.06344273
182	0x3e1f4557	0.15553795
183	0x3e143ff6	0.14477524
184	0xbdef38ad	-0.11680732
185	0xbe1ed717	-0.15511738
186	0xbe1e9ea3	-0.15490203
187	0x3e294cba	0.16533175
188	0xbd271f73	-0.040801477
189	0x3cbe84ad	0.023256624
190	0x3e153356	0.14570364
191	0xbcd4c71c	-0.025973849
192	0xbe073611	-0.13204218
193	0x3e2c2bf5	0.16813643
194	0x3d6de3e8	0.058078676
195	0xbd624fed	-0.055252004
196	0x3da8f3c8	0.082496226
197	0xbc260138	-0.0101321265
198	0x3e0db2ee	0.13837788
199	0xbbbb8b17	-0.005723368
200	0x3d3f1689	0.04665235
201	0xbdc25156	-0.0948817
202	0x3d818e21	0.06325937
203	0x3e45d5b3	0.19319801
204	0x3d54bb88	0.051936656
205	0x3e2afc78	0.16697872
206	0x3e38235c	0.17982239
207	0xbe28ae3b	-0.16472714
208	0xbde5703a	-0.11203046
209	0xbe35cbf0	-0.17753577
210	0x3e1c2d99	0.15251769
211	0xbe2b3ebf	-0.16723154
212	0xbdde07ba	-0.108413175
213	0x3e0a7716	0.1352199
214	0xbdaf5b4f	-0.085623376
215	0xbd8312ad	-0.064000465
216	0xbcc542b4	-0.024079658
217	0xbd058737	-0.032599654
218	0x3e1f2096	0.15539774
219	0x3d08911f	0.033341523
220	0x3e145bfc	0.14488214
221	0xbc8a0779	-0.016849266
222	0x3e0d8828	0.1382147
223	0x3e187aec	0.14890641
224	0xbd121f99	-0.035674665
225	0xbe1e85f2	-0.15480784
226	0x3e178bcd	0.14799424
227	0x3df3d1c6	0.119052455
228	0xbdc97f12	-0.0983869
229	0xbbf7d10e	-0.007562763
230	0xbe08f04c	-0.13372916
231	0x3e12f47e	0.14351079
232	0xbe0baf2d	-0.13641043
233	0x3da805e8	0.082042515
234	0xbe1d71df	-0.1537547
235	0x3dc1f0a0	0.09469724
236	0xba63a700	-0.0008684248
237	0xbd1b64e4	-0.037938014
238	0x3c415bd0	0.011801675
239	0x3e124a7e	0.14286229
240	0xbe268021	-0.16259815
241	0x3d510beb	0.051036756
242	0x3d6b6d67	0.05747738
243	0x3df5374c	0.11973438
244	0xbd562e1d	-0.05229007
245	0xbccee474	-0.02525542
246	0xbd43ca4f	-0.04780036
247	0x3ce94977	0.028477414
248	0xbd9fbf46	-0.078001544
249	0x3e28a3ba	0.16468707
250	0x3e36bacd	0.17844696
251	0x3dd842f7	0.105596475
252	0xbddcd9cf	-0.10783731
253	0xbdcf22cb	-0.10114058
254	0x3d423a03	0.047418606
255	0x3c8c8280	0.017152071

network.0.bias f4 [128]
0	0xbdd5c21b	-0.10437413
1	0xbb077e43	-0.0020674623
2	0x3e26170b	0.16219728
3	0xbe3560fa	-0.17712775
4	0x3de97d4b	0.11400851
5	0xbe12401f	-0.14282273
6	0x3bf0957e	0.0073420396
7	0xbded0d96	-0.11574857
8	0xbd825ffd	-0.063659646
9	0x3d072464	0.03299369
10	0x3e1c3dd8	0.15257967
11	0x3e103a99	0.14084853
12	0xbe110b99	-0.1416458
13	0xbd7ad0a5	-0.061234135
14	0x3d5d81d0	0.054078877
15	0x3e261ab4	0.16221124
16	0xbe0aac40	-0.1354227
17	0x3e372a17	0.1788715
18	0x3e3bc2b4	0.18335992
19	0xbe214e80	-0.15752602
20	0x3dc8c922	0.09803988
21	0xbdb478e1	-0.08812118
22	0xbd0e2044	-0.03469874
23	0x3d84aee3	0.064786695
24	0xbd27ad2c	-0.040936634
25	0xbc72c438	-0.01481729
26	0x3e09bba4	0.13450485
27	0x3e18a459	0.14906444
28	0x3dd022f3	0.10162916
29	0xbe3fba21	-0.18723346
30	0xbe13ab99	-0.14420928
31	0x3e0c789a	0.13717881
32	0xbdaf5203	-0.08560564
33	0x3da395fc	0.079875916
34	0x3d90fc65	0.070793904
35	0x3c112a97	0.008860252
36	0xbd010ee2	-0.031508334
37	0x3caf4706	0.021396171
38	0x3c0c9a10	0.008581653
39	0x3ce5f527	0.028071
40	0xbd17e78d	-0.03708606
41	0x3dbfe901	0.09370614
42	0x3bee7f00	0.007278323
43	0x3e2a0d55	0.16606648
44	0xbc616167	-0.013756133
45	0xbe0ca085	-0.13733108
46	0x3df08b1b	0.11745282
47	0x3dadb74e	0.08482228
48	0xbd036ed4	-0.032088116
49	0x3e33226d	0.17493601
50	0xbe2b0ebe	-0.16704842
51	0xbe0827df	-0.1329646
52	0x3d6f2b46	0.05839088
53	0xbd8e38b3	-0.06944408
54	0x3e2db842	0.1696482
55	0x3c67c85a	0.014146889
56	0x3c91f9a9	0.017819243
57	0xbcdb0f14	-0.026740588
58	0xbe1d3dd1	-0.15355612
59	0x3cedf8da	0.029049326
60	0x3e06f38d	0.13178845
61	0xbbef9f14	-0.0073126648
62	0x3dec2f5f	0.11532473
63	0x3e366bff	0.17814635
64	0xbc83aec6	-0.01607455
65	0xbe1cb14c	-0.15302008
66	0x3d70ef73	0.058822107
67	0xbe0e39c0	-0.13889217
68	0xbd2dced0	-0.04243356
69	0xbc2d05fe	-0.010560511
70	0xbd8a4883	-0.06752112
71	0xbe2b9a0f	-0.16757987
72	0xbc544e4c	-0.012958121
73	0xbbec93c4	-0.0072197635
74	0xbba4dc00	-0.005031109
75	0xbd64893f	-0.05579495
76	0x3d2a0564	0.041509047
77	0xbddfd6c6	-0.10929637
78	0x3e22695e	0.15860507
79	0xbe0e14f8	-0.13875186
80	0x3dacd125	0.08438329
81	0x3e0e9bf6	0.13926682
82	0x3caada8a	0.02085616
83	0x3d9b864b	0.07593974
84	0x3c7144ea	0.014725903
85	0x3da91865	0.08256606
86	0x3e2a8983	0.16654019
87	0xbe0ed5ce	-0.13948748
88	0xbe065765	-0.13119276
89	0x3e01b9d5	0.12668546
90	0xbe4d4096	-0.20044169
91	0xbd15fe7d	-0.036619652
92	0x3e098f7a	0.13433638
93	0xbd87cc50	-0.066307664
94	0xbe033776	-0.12814125
95	0xbe10a919	-0.14127006
96	0x3b63e55a	0.0034774155
97	0xbdedcee0	-0.11611724
98	0x3dd85888	0.10563761
99	0xbd9683e5	-0.07349376
100	0x3e1271c7	0.14301215
101	0x3e2efc88	0.1708852
102	0x3d82a911	0.06379903
103	0x3dd440ff	0.103639595
104	0x3d941e6e	0.072323665
105	0x3dcb3e92	0.09924044
106	0x3e0eea3f	0.13956545
107	0x3d9672dc	0.073461264
108	0xbdc99062	-0.09841992
109	0xbc9ae3a4	-0.018907376
110	0x3ae1eb3f	0.0017236246
111	0xbdb5a369	-0.08869059
112	0xbd56552f	-0.05232733
113	0x3c804777	0.015659077
114	0x3e33c32e	0.17554924
115	0xbe097944	-0.13425165
116	0x3dbad9d5	0.091235794
117	0xbd084ecb	-0.033278268
118	0x3dfc380a	0.12315376
119	0x3d7f958e	0.062398486
120	0xbc59ddee	-0.013297541
121	0x3e5850ea	0.21124616
122	0x3ddde554	0.108347565
123	0x3e0a2ab5	0.13492854
124	0x3d59a89d	0.053139318
125	0x3d5fa285	0.05459835
126	0xbdd23d5c	-0.102656096
127	0x3be0b0eb	0.0068570278

network.2.weight f4 [64, 128]
0	0x3d420192	0.04736478
1	0x3d08b261	0.03337324
2	0x3d06138c	0.032733485
3	0x3c766b81	0.015040279
4	0x3d245ea3	0.040129315
5	0x3d0ce916	0.034401976
6	0xbd9cae46	-0.076504275
7	0xbd30f981	-0.043206695
8	0x3d54e551	0.051976506
9	0xbcce0d78	-0.025152907
10	0xbd9998c3	-0.0749984
11	0xbc24dfbc	-0.010063108
12	0xbd9be029	-0.076111145
13	0xbb942287	-0.0045207175
14	0xbd9fc92b	-0.078020416
15	0xbd0eca5d	-0.034860957
16	0xbcfa3ea4	-0.030547448
17	0x3daf9c11	0.08574689
18	0xbd5f76bc	-0.054556593
19	0x3d51ad36	0.051190577
20	0xbd1c57f7	-0.038169827
21	0x3d62f867	0.055412676
22	0x3c870351	0.016481074
23	0x3c4d1c47	0.012518949
24	0x3dc3f870	0.0956887
25	0x3bf6ed8d	0.0075356425
26	0x3d1c6dcd	0.03819065
27	0xbd22527f	-0.039629456
28	0x3d6bd0c3	0.057572138
29	0x3d83e3af	0.064399116
30	0xbd0523f0	-0.032504976
31	0xbccef2ad	-0.025262201
32	0x3d59e513	0.053196978
33	0x3bece064	0.007228898
34	0x3d4916b6	0.049093924
35	0xbd7c0fbc	-0.061538443
36	0x3d21842b	0.039432686
37	0x3cacd947	0.0210997
38	0x3d91c890	0.071183324
39	0x3a2343b5	0.00062280457
40	0x3d02862c	0.031866238
41	0x3d3d1b59	0.04616866
42	0xbd838385	-0.0642157
43	0xbc6742ca	-0.014115045
44	0xbd8b69c4	-0.068072826
45	0xbc53b27b	-0.012920971
46	0x3ce038b8	0.027370796
47	0xbdb360a5	-0.08758668
48	0x3d013b2b	0.031550568
49	0xbd318234	-0.043337062
50	0xbd760aa7	-0.060068753
51	0x3d66117e	0.056169026
52	0x3d692a74	0.056925252
53	0xbb971185	-0.004610243
54	0x3d95ad94	0.07308498
55	0xbcbd6d23	-0.02312333
56	0x3d8695f6	0.065715715
57	0xbce9a262	-0.028519813
58	0x3d2f31ec	0.04277222
59	0xbd1bd55b	-0.03804527
60	0xbd9c2122	-0.07623507
61	0x3d5859d8	0.052820057
62	0x3cd2dbaf	0.025739519
63	0xbd937280	-0.071995735
64	0xbd293eec	-0.041319773
65	0x3c311cb0	0.010810062
66	0x3d0a37dc	0.033744678
67	0xbd11f9a5	-0.03563847
68	0xbd68b7a9	-0.056815777
69	0xbceba3b1	-0.028764578
70	0xbc92ede2	-0.017935697
71	0xbc45b765	-0.01206765
72	0xbd885d22	-0.06658389
73	0xbd90fd98	-0.07079619
74	0xbd0a792a	-0.033806957
75	0x3d2f9886	0.042870067
76	0x3cf0284a	0.029316086
77	0x3d3e1e48	0.046415597
78	0x3c73f080	0.014888883
79	0xbd234c6a	-0.039867796
80	0x3d87da07	0.06633382
81	0x3b9a39d2	0.0047065997
82	0x3c9cdddc	0.01914876
83	0xbd2e08f6	-0.042489015
84	0xbc5d63d8	-0.013512574
85	0xbd367fe2	-0.044555552
86	0xbcdc77c3	-0.026912576
87	0xbd1e51ad	-0.03865211
88	0xbd834ea1	-0.06411482
89	0x3de1814b	0.11010989
90	0x3bebbee7	0.007194388
91	0xbda7cfda	-0.081939414
92	0x3d5def7b	0.054183464
93	0x3d96222b	0.07330736
94	0xbd03c277	-0.032167878
95	0xbd5d577f	-0.05403852
96	0x3d68bb48	0.05681923
97	0x3cc1a31a	0.023637343
98	0xbd53164e	-0.051534943
99	0xbd3ba836	-0.045814715
100	0xbdba2653	-0.09089341
101	0xbd9f0b4e	-0.07765828
102	0xbceba212	-0.028763805
103	0xbd1377cb	-0.036002915
104	0x3d5c9993	0.053857397
105	0xbb15c116	-0.0022850684
106	0x3d3ec1d8	0.046571583
107	0x3d9bad37	0.076013975
108	0x3b5f17ab	0.0034041207
109	0xbd5d1c54	-0.053982094
110	0x3c519e75	0.012794127
111	0xbda436fa	-0.080182984
112	0x3d0b8d9b	0.034070592
113	0xbcc1e004	-0.02366639
114	0xbcc568cc	-0.024097823
115	0x3b31eae9	0.0027148074
116	0xbd0fee05	-0.035139102
117	0x3aa156a3	0.0012309145
118	0xbd45d53f	-0.04829907
119	0x3d7604a2	0.060063012
120	0x3ca7a901	0.02046633
121	0x3cf7464b	0.030184885
122	0xbc10f7f2	-0.008848177
123	0x3bde95f9	0.0067927805
124	0x3b6e7a20	0.003638871
125	0xbd538ed9	-0.051649902
126	0x3d7b98dc	0.061425075
127	0x3dcc2acc	0.099691
128	0x3cac54ff	0.021036623
129	0x3c89e52b	0.016832909
130	0xbb3a6793	-0.0028443083
131	0x3c08b8ca	0.008344838
132	0xbd7a8e5f	-0.061170932
133	0x3d98e27a	0.07465072
134	0xbd64736e	-0.055774145
135	0x3d2ed275	0.042681176
136	0xbd903037	-0.07040446
137	0x3d9a1cc1	0.075250156
138	0x3db5446d	0.08850942
139	0xbcccd356	-0.025003117
140	0x3d5ebc01	0.054378513
141	0xbd82e3ca	-0.063911036
142	0x3b1e0779	0.002411334
143	0x3c96fe9b	0.018431952
144	0xbc0ec87d	-0.008714792
145	0x3d06a6d0	0.03287393
146	0x3d35ade4	0.04435529
147	0xbc81a41e	-0.015825327
148	0xbdba22d2	-0.09088673
149	0xbc64f7a6	-0.01397506
150	0x3b548f96	0.0032434217
151	0xbd289627	-0.04115882
152	0xbd9ecf6d	-0.07754407
153	0xbc2f1997	-0.010687253
154	0x3dea3a09	0.114368506
155	0x3d17b138	0.037034243
156	0x3d99af55	0.07504145
157	0xbbbbf21c	-0.005735649
158	0x3c15ccfb	0.009143109
159	0x3dcdd6ac	0.10050711
160	0xbbad96cc	-0.0052975174
161	0x3d875cfa	0.06609531
162	0xbd6a2657	-0.05716547
163	0x3cb90e8b	0.022589942
164	0xbd8f1095	-0.06985585
165	0x3dcc41d4	0.09973493
166	0x3dced03e	0.10098313
167	0x3b2126b4	0.002458972
168	0x3d3b92e7	0.045794394
169	0xbd409bbc	-0.04702352
170	0x3d7fd951	0.06246311
171	0xbdc354d9	-0.09537668
172	0xbc5e3f1b	-0.01356485
173	0x3c81784d	0.015804434
174	0xbcea3137	-0.02858792
175	0x3ba560ff	0.005046963
176	0x3d1d6b64	0.038432494
177	0xbbfacdd3	-0.0076539307
178	0xbb48ba33	-0.0030628562
179	0xbb2b2d5e	-0.002611957
180	0x3d624d81	0.055249695
181	0xbc791b16	-0.015204212
182	0x3d2c7dfe	0.042112343
183	0xbd56ded5	-0.052458603
184	0xbce0ecec	-0.027456723
185	0x3d0386ff	0.032111164
186	0xbbeaeb42	-0.007169158
187	0x3c35a3ff	0.011086463
188	0xbd94b359	-0.0726077
189	0x3d135944	0.035973802
190	0x3d28cff6	0.041213952
191	0x3da5f989	0.08104236
192	0xbbf1eb64	-0.007382797
193	0x3c1e338e	0.009655846
194	0x3cb579ae	0.022152748
195	0x3d318846	0.04334285
196	0x3b8543f7	0.00406694
197	0x3d061163	0.032731425
198	0xbdae9a2a	-0.08525498
199	0xbd120be6	-0.03565588
200	0x3d250950	0.040292084
201	0x3d815df8	0.06316751
202	0xbdafcea8	-0.085843384
203	0xbcacc0d2	-0.021088038
204	0x3d2f3948	0.042779237
205	0x3de50b2a	0.1118377
206	0x3ccc3d59	0.024931597
207	0x3e0f9559	0.14021815
208	0x3ce5b1ad	0.028038824
209	0x3de8332a	0.11337884
210	0x3d1b43ae	0.03790634
211	0x3de3f22d	0.11130176
212	0xbd4a2b1b	-0.049357515
213	0x3e0005f9	0.12502278
214	0x3a311106	0.0006754551
215	0xbd7ae3a6	-0.06125226
216	0x3db22294	0.086980015
217	0x3c423c7d	0.011855242
218	0xbd35256e	-0.04422515
219	0xbbaa26f9	-0.005192634
220	0x3dd5784b	0.10423335
221	0xbd9df862	-0.07713391
222	0xbddaa43a	-0.10675855
223	0xbd1f85e5	-0.03894605
224	0x3d4d9e28	0.050199658
225	0xbdc13521	-0.09433962
226	0xbcef1d9f	-0.02918893
227	0x3d8e5ca7	0.06951266
228	0x3cd40c97	0.02588491
229	0x3dd94737	0.10609286
230	0x3d674f5d	0.05647217
231	0xbd904ce6	-0.07045917
232	0xbd8c300f	-0.06845104
233	0xbe07df10	-0.13268685
234	0xbd3e73fc	-0.04649733
235	0x3d987027	0.07443266
236	0xbc76e204	-0.015068535
237	0x3d102092	0.03518731
238	0xbc056f82	-0.008144261
239	0xbd710242	-0.058840044
240	0x3d205c3c	0.03915046
241	0xbdb27917	-0.08714502
242	0x3da8cef0	0.08242595
243	0x3d5269c9	0.051370416
244	0x3d5944f1	0.053044263
245	0xba61755b	-0.0008600556
246	0x3cfdc367	0.030976964
247	0x3c88bd66	0.016691875
248	0x3bd054e1	0.0063577746
249	0xbcb82133	-0.022476768
250	0xbd6d18c3	-0.057884943
251	0x3d572339	0.052523825
252	0x3d528068	0.05139199
253	0xbd8f5d13	-0.070001744
254	0x3da9d261	0.0829208
255	0x3b7b9786	0.0038389876

network.2.bias f4 [64]
0	0xbca8b03f	-0.020591853
1	0xbd520af7	-0.05127999
2	0x3d34770b	0.04405884
3	0x3c7d4183	0.015457514
4	0xbd35eef3	-0.044417333
5	0xbcb6fb18	-0.022336528
6	0x39f25af8	0.00046225614
7	0x3d8e6853	0.06953492
8	0xbca89e7d	-0.020583386
9	0x3d7f18fd	0.06227969
10	0x3d240ab2	0.040049262
11	0x3da9ded4	0.08294454
12	0xbd49d8d1	-0.049279038
13	0xbcf92dcb	-0.030417344
14	0x3d3fb2c3	0.04680134
15	0xbc5b57d5	-0.01338764
16	0xbc90d4bc	-0.017679565
17	0x3b2638fe	0.002536356
18	0xbd1f0fbf	-0.038833376
19	0xbc137b7b	-0.009001608
20	0xbd529342	-0.051409967
21	0xbd308a16	-0.04310044
22	0xbd9eaa92	-0.077473775
23	0xbd3d30ba	-0.046189047
24	0x3c6d7dc6	0.014495319
25	0x3d65fe44	0.05615069
26	0xbdb95c2c	-0.090507835
27	0xbdb4c48a	-0.08826549
28	0xbd30e7a9	-0.04318968
29	0xbda392a3	-0.07986953
30	0xbd22cbec	-0.039745256
31	0xbd0214b3	-0.03175802
32	0xbd8a1c9e	-0.067437395
33	0x3d8023cc	0.06256828
34	0x3c646fbc	0.013942655
35	0x3c22021d	0.009888199
36	0x3c1e605e	0.00966653
37	0x3d841d6c	0.06450924
38	0xbcf22457	-0.029558344
39	0x3a2a2f46	0.00064920296
40	0x3d1efbda	0.038814403
41	0x3d02fe92	0.03198106
42	0x3da6f913	0.08152976
43	0xbd90af97	-0.07064741
44	0xbd05d04c	-0.03266935
45	0xbd94a1ae	-0.072574005
46	0x3d9867a7	0.07441645
47	0x3d233106	0.039841674
48	0xbd371bfc	-0.044704422
49	0x3d8f42da	0.06995173
50	0x3a8712f4	0.0010305331
51	0x3dc055a8	0.09391338
52	0xbd5b9798	-0.053611368
53	0x3c99c94c	0.018772744
54	0x3be405e0	0.006958708
55	0xbc054e13	-0.00813629
56	0xbd5431a2	-0.051805146
57	0x3cbd924f	0.023141054
58	0xbd09d922	-0.03365434
59	0xbc322074	-0.010871995
60	0x3d9ddbd3	0.07707944
61	0x3bfa0041	0.007629425
62	0x3d762e1f	0.06010258
63	0x3c0b6d1e	0.008509902

network.4.weight f4 [32, 64]
0	0xbdbba52f	-0.09162366
1	0x3d72b5f8	0.05925557
2	0x3ddd720e	0.1081277
3	0xbd05286e	-0.03250926
4	0x3c022653	0.0079437075
5	0x3de47131	0.11154402
6	0x3bf8882f	0.0075845937
7	0x3e10411d	0.14087339
8	0xbdd89461	-0.10575176
9	0xbc2e0383	-0.010620954
10	0x3d0dea2a	0.034647144
11	0x3c9d544d	0.019205237
12	0xbdae343b	-0.08506056
13	0xbb125efe	-0.0022334452
14	0x3c009bdf	0.007849663
15	0x3dc98a4a	0.0984083
16	0xbddccbd1	-0.107810624
17	0x3e0e8147	0.13916503
18	0xbd0aaaf1	-0.03385443
19	0xbdc7837e	-0.09741877
20	0x3e028968	0.12747729
21	0x3d9211cc	0.07132301
22	0x3d06c076	0.03289839
23	0xbbfa0cf3	-0.007630938
24	0x3dfb22eb	0.122625194
25	0xbc82ffff	-0.01599121
26	0xbd17fd52	-0.03710682
27	0x3c29300c	0.010326397
28	0x3e2d7bd9	0.16941775
29	0x3e09083c	0.13382047
30	0xbdd027c0	-0.10163832
31	0xbd697769	-0.056998644
32	0xbddbf1da	-0.10739489
33	0x3d031149	0.031998906
34	0x3e09d59c	0.13460392
35	0xbc6a58ae	-0.014303369
36	0x3e15ceb6	0.14629635
37	0x3d1f9f32	0.03897018
38	0x3d9bb5d9	0.07603044
39	0x3e1303fa	0.14356986
40	0x3d900261	0.07031704
41	0x3d8a1548	0.0674234
42	0x3dbc2843	0.09187367
43	0xbcc6eba1	-0.024282278
44	0xbde1a8ee	-0.11018549
45	0x3e05dc91	0.1307242
46	0xbdc40593	-0.09571376
47	0x3d331741	0.04372335
48	0x3da94bdd	0.08266423
49	0xbda5c249	-0.080936976
50	0x3e2f50d6	0.1712068
51	0x3e016198	0.12634885
52	0x3dc03c72	0.09386529
53	0xbdcbb98d	-0.099475004
54	0x3dfa8a85	0.12233452
55	0x3d3a046b	0.04541437
56	0xbd0673ce	-0.032825284
57	0x3e24fd8d	0.16112347
58	0xbce9895c	-0.02850788
59	0xbe12fd9b	-0.14354555
60	0xbdd16755	-0.10224787
61	0x3e0de2aa	0.13855997
62	0x3d8a3874	0.06749049
63	0x3cf63b58	0.030057594
64	0xbdf3a554	-0.11896768
65	0x3cd402c0	0.025880218
66	0xbce707bb	-0.028201928
67	0x3d83ed84	0.06441787
68	0xbdadee7f	-0.08492755
69	0x3db3e8bf	0.08784627
70	0x3dda895e	0.10670732
71	0x3de90b58	0.11379117
72	0x3db7a4b7	0.08966964
73	0x3b4a6dfc	0.003088831
74	0x3d96d028	0.073639214
75	0xbd434ec8	-0.047682554
76	0x3d315a51	0.043299023
77	0xbcb609f8	-0.02222155
78	0x3d87b584	0.06626418
79	0xbd51f593	-0.05125959
80	0xbdf38243	-0.1189008
81	0xbd19aad0	-0.037516415
82	0x3d9d242c	0.07672915
83	0x3c974f99	0.018470572
84	0xbc829038	-0.01593791
85	0xbc9eec42	-0.019399766
86	0xbd3cc2c8	-0.046084195
87	0x3de6bb68	0.11266214
88	0xbdffd47e	-0.124917015
89	0x3c912b5c	0.01772087
90	0x3dbcb2ed	0.09213815
91	0x3d5aecad	0.053448368
92	0x3d647cd8	0.055783123
93	0xbc373600	-0.011182308
94	0x3d97133a	0.07376714
95	0x3d242a30	0.040079296
96	0x3dcd5be0	0.100272894
97	0xbd295cac	-0.041348144
98	0xbd92c579	-0.07166571
99	0xbd9cd407	-0.076576285
100	0xbd978056	-0.07397525
101	0xbcd2cb30	-0.025731653
102	0xbba29740	-0.004961878
103	0xbbd7fd36	-0.0065914644
104	0xbe01e6b6	-0.12685665
105	0x3c97fff1	0.01855466
106	0xbd88c735	-0.06678621
107	0x3b93b640	0.00450781
108	0xbd2397a3	-0.039939534
109	0x3defea06	0.11714558
110	0xbc0ab678	-0.0084663555
111	0x3d34deb9	0.044157717
112	0xbc8fec62	-0.01756877
113	0x3d7b16dc	0.061301097
114	0xbb3f1480	-0.0029156506
115	0xbdbd571c	-0.092451304
116	0xbd82bb16	-0.0638334
117	0xbdbc1817	-0.09184282
118	0x3dce115e	0.10061906
119	0xbdfeff14	-0.12450996
120	0xbd467c79	-0.04845855
121	0xbb77164b	-0.0037702497
122	0x3d647f6c	0.05578558
123	0x3d49ad42	0.049237497
124	0x3db32af5	0.08748428
125	0xbd29d594	-0.04146345
126	0x3d518237	0.051149573
127	0xbd857191	-0.06515802
128	0xbd0448d6	-0.032296024
129	0xbd73e563	-0.059544932
130	0x3c1d7f64	0.009612892
131	0x3da09c83	0.07842352
132	0x3bdb1a2d	0.00668647
133	0x3d7dff7b	0.062011223
134	0x3dc78b53	0.09743371
135	0x3c020edc	0.007938113
136	0x3d9487ed	0.07252488
137	0x3d6f481a	0.05841837
138	0x3da4a76b	0.08039745
139	0xbc2ddc8a	-0.010611663
140	0xbd1ff774	-0.03905435
141	0xbd5b3387	-0.053515937
142	0xbd54138e	-0.05177646
143	0xbd0a9332	-0.033831783
144	0xbdac5511	-0.08414663
145	0xbd6a8294	-0.057253435
146	0xbcbdede9	-0.023184733
147	0x3d8a1b13	0.06743445
148	0x3dea3444	0.1143575
149	0x3ba48c19	0.0050215838
150	0xbd0d01e3	-0.034425627
151	0xbd82da53	-0.06389298
152	0x3d9fcf58	0.078032196
153	0xbd5ddf38	-0.054167956
154	0x3d53dd98	0.051725
155	0x3d59dbf5	0.053188283
156	0xbdc3e811	-0.095657475
157	0xbd1b2a0c	-0.037881896
158	0xbda4b3a8	-0.08042079
159	0xbda1c7fe	-0.078994736
160	0x3dbe074b	0.09278735
161	0xbdcc0471	-0.09961785
162	0xbdf86c71	-0.121300586
163	0xbd6e7116	-0.058213316
164	0xbd20c5df	-0.039251205
165	0x3da69f32	0.08135833
166	0xbddd15af	-0.107951514
167	0x3d70bfc1	0.05877662
168	0xbde99b4b	-0.11406573
169	0x3cebaee3	0.028769916
170	0x3d1bc9aa	0.03803412
171	0xbde4f86c	-0.11180195
172	0xbde391e9	-0.111118145
173	0xbe08c11c	-0.13354915
174	0xbd019c8d	-0.03164344
175	0x3d11285d	0.035438884
176	0xbde01b4a	-0.10942705
177	0xbd601e1d	-0.05471622
178	0x3d35accf	0.044354256
179	0x3c70c67f	0.014695763
180	0x3d50018a	0.050782718
181	0xbe0456c1	-0.12923719
182	0x3da48a71	0.08034218
183	0xbd912525	-0.07087163
184	0xbc1a4aff	-0.0094172945
185	0x3c7c9fd5	0.015418966
186	0x3e16548f	0.14680694
187	0xbd5e053d	-0.054204214
188	0xbd698ddf	-0.057020064
189	0xbdf23229	-0.118259735
190	0xbdced420	-0.100990534
191	0xbbf38785	-0.0074319267
192	0x3cff28f1	0.031147452
193	0xbc801d5d	-0.015639002
194	0xbd81d63c	-0.0633969
195	0x3dafaeb2	0.08578242
196	0x3dbd1c6d	0.092339374
197	0x3d96ec51	0.073692925
198	0xbd9b940d	-0.07596598
199	0xbcf34c84	-0.029699571
200	0x3d90933a	0.07059331
201	0xbd4f0364	-0.050540343
202	0x3ca60dda	0.020270277
203	0xbbc71fa1	-0.0060767685
204	0x3d8ad725	0.06779317
205	0xbcac2f48	-0.02101864
206	0xbcf35d56	-0.029707592
207	0xbde7e1be	-0.11322354
208	0xbd69efdf	-0.057113525
209	0xbcaf10b0	-0.021370262
210	0xbcc8f5f1	-0.024531337
211	0x3d233bf4	0.039852098
212	0xbc3600e6	-0.011108613
213	0x3d34dbf8	0.04415509
214	0xbd8fc69c	-0.070203036
215	0xbd51f63c	-0.051260218
216	0xbddf1014	-0.108917385
217	0x3c0c46db	0.008561815
218	0xbdcd5bff	-0.100273125
219	0x3d77feff	0.060545918
220	0x3d8586fb	0.06519886
221	0xbc46f2b1	-0.012142823
222	0xbd938e67	-0.072048955
223	0x3d31d55e	0.043416373
224	0x3db29b33	0.08721008
225	0x3d544a8a	0.0518289
226	0xbce4c349	-0.02792515
227	0xbd9d89f9	-0.07692332
228	0xbb826479	-0.0039792624
229	0x3c7989ab	0.0152305765
230	0x3d3ec844	0.046577707
231	0x3b431bb6	0.0029771156
232	0x3d8b4dc1	0.0680194
233	0x3d82048e	0.06348525
234	0x3da9e85d	0.08296273
235	0xbdb05979	-0.086108156
236	0x3d31cf56	0.04341062
237	0x3d950f55	0.07278315
238	0x3dab34c3	0.08359673
239	0xbd0b82f2	-0.034060426
240	0x3da1f7d4	0.079085976
241	0x3dad2be6	0.084556386
242	0xbd6f44bc	-0.05841516
243	0x3dd25d78	0.10271734
244	0x3d971574	0.07377139
245	0x3c410588	0.011781104
246	0xbd969929	-0.07353432
247	0xbda53331	-0.080664046
248	0x3c5eba8c	0.013594281
249	0x3d08b5e5	0.033376593
250	0xbdcd4249	-0.100224085
251	0xbc95390b	-0.018215677
252	0x3d9f2040	0.07769823
253	0x3cee4a67	0.029088212
254	0x3dbc8aae	0.092061386
255	0xbdd77f7e	-0.10522364

network.4.bias f4 [32]
0	0x3d92b1e7	0.071628384
1	0xbdc63b87	-0.09679323
2	0x3ddb675f	0.10713076
3	0xbd93de70	-0.07220161
4	0x3d20c823	0.039253365
5	0xbd850ed0	-0.06496966
6	0xbd82969e	-0.06376384
7	0xbdea6232	-0.114445105
8	0x3d824766	0.063612744
9	0x3dcdddb5	0.10052053
10	0x3dd4c725	0.10389546
11	0x3df33e4b	0.11877116
12	0xbde30f82	-0.11086942
13	0xbd959545	-0.073038615
14	0xbacabd16	-0.0015467729
15	0xbdb6ce44	-0.08926061
16	0x3e0bfeed	0.13671465
17	0x3d024176	0.03180071
18	0xbdc2fe09	-0.095211096
19	0xbd79058b	-0.0607963
20	0x3d6c341d	0.057666887
21	0xbc33f334	-0.010983277
22	0xbcd25008	-0.025672927
23	0x3ce69b1d	0.028150136
24	0xbdc02410	-0.093818784
25	0x3d97a449	0.07404382
26	0xbcd44fbb	-0.025916925
27	0x3e10d82a	0.1414496
28	0x3df5d73a	0.12003942
29	0xbc119d51	-0.008887605
30	0x3d23f16f	0.04002517
31	0x3db61090	0.08889878

network.6.weight f4 [3, 32]
0	0x3d8f30bd	0.06991718
1	0xbd395a72	-0.04525227
2	0xbda6c6c5	-0.08143381
3	0xbe1674c1	-0.14692976
4	0x3db8e005	0.09027103
5	0x3e58421f	0.21118973
6	0x3de3ffa6	0.111327454
7	0x3e0ffe27	0.14061795
8	0x3e61cb5d	0.22050233
9	0x3e3eaef2	0.18621424
10	0xbc8519ee	-0.016247716
11	0x3d071f94	0.0329891
12	0xbcb1fc98	-0.021726891
13	0xbe254aa6	-0.16141757
14	0xbd72de91	-0.059294287
15	0xbd27cb8c	-0.0409656
16	0x3d6ebb6c	0.05828421
17	0xbc9845cb	-0.018587967
18	0x3c8491b8	0.016182765
19	0x3d7c1be0	0.06155002
20	0xbdcc734a	-0.09982927
21	0xbcf80c5c	-0.03027933
22	0x3e16cbde	0.14726207
23	0x3db1ceea	0.08682044
24	0xbb0c2200	-0.002138257
25	0x3da45624	0.080242425
26	0x3e5e3eb3	0.21703605
27	0x3e2b26cb	0.16714017
28	0x3e38838b	0.1801893
29	0xbc93e8db	-0.01805537
30	0x3d7e3ac6	0.06206777
31	0x3e221222	0.1582723
32	0xbce99b9f	-0.028516589
33	0xbdfedbef	-0.12444293
34	0xbdb1b0f9	-0.08676333
35	0x3d6029b6	0.05472728
36	0xbd92b2f7	-0.07163041
37	0x3d286e09	0.041120563
38	0x3d103414	0.035205916
39	0xbdfad055	-0.122467674
40	0x3d703fd1	0.05865461
41	0xbe5ff546	-0.21870908
42	0xbdde4fed	-0.108550884
43	0x3e3caa0f	0.18424247
44	0x3e2e9fa7	0.1705309
45	0x3d504871	0.050850336
46	0xbde58f18	-0.112089336
47	0xbd6dd0da	-0.058060504
48	0x3df735ec	0.12070832
49	0x3dfd3f6e	0.12365614
50	0x3da949fd	0.08266065
51	0xbe1722e1	-0.14759399
52	0x3d4a8e64	0.0494522
53	0xbe08ee5e	-0.1337218
54	0xbdf025b3	-0.117259406
55	0x3d25644e	0.04037886
56	0x3c33e6d0	0.010980323
57	0x3d94ad76	0.072596475
58	0xbe4afb9f	-0.19822548
59	0xbd19aa6a	-0.037516035
60	0x3e1752de	0.14777705
61	0xbd7870f8	-0.06065461
62	0x3d9c1bb7	0.07622474
63	0x3e17446a	0.14772192
64	0xbe4c941b	-0.19978373
65	0x3cbae0ef	0.022812335
66	0x3dfc5d04	0.12322429
67	0x3cf0e65e	0.029406723
68	0x3d47b2cd	0.048754502
69	0xbddee007	-0.108825736
70	0x3c1b3bb0	0.00947468
71	0xbe2f9452	-0.17146423
72	0xbdca6d1b	-0.098840915
73	0x3da21627	0.079143815
74	0xbe319e66	-0.1734558
75	0x3e0b861c	0.13625377
76	0x3dc620a6	0.09674196
77	0x3e2eaa71	0.17057206
78	0x3d900fc5	0.07034258
79	0xbc9c5788	-0.019084707
80	0xbde3581a	-0.111007884
81	0x3dfd88c7	0.12379604
82	0x3d0d4cee	0.034497194
83	0xbd59ee81	-0.05320597
84	0xbd7e14b8	-0.062031478
85	0x3df36eef	0.11886393
86	0xbe1aadbe	-0.1510534
87	0xbdff6c81	-0.12471867
88	0x3da575aa	0.08079083
89	0xbe02488f	-0.12722991
90	0xbce9767b	-0.028498879
91	0xbe1e96d0	-0.15487218
92	0xbd4672ed	-0.048449446
93	0x3ddca38d	0.10773382
94	0xbdfe908e	-0.12429915
95	0xbe5aee07	-0.21379863

network.6.bias f4 [3]
0	0x3e3a985d	0.18222184
1	0xbdeb2754	-0.114821106
2	0x3bc376e2	0.0059650997

network.0.weight f4 [128, 30]
0	0xbe446fe9	-0.19183315
1	0xbe546596	-0.20741877
2	0xbdf06d54	-0.11739603
3	0xbe0e1658	-0.13875711
4	0xbc8ef92a	-0.017452795
5	0xbe1904bc	-0.14943212
6	0x3a1e614f	0.0006041722
7	0xbe098775	-0.13430579
8	0xbceb31c7	-0.02871026
9	0xbdd6f38d	-0.104956724
10	0x3d8dd73c	0.06925818
11	0xbbc3ec41	-0.0059790914
12	0xbe1ac0c9	-0.15112604
13	0x3d06ccb4	0.032910064
14	0xbe0c4e8a	-0.13701835
15	0xbe039956	-0.12851462
16	0xbd8c771e	-0.06858657
17	0xbe35246a	-0.17689672
18	0x3e40d3c2	0.18830779
19	0xbdb757f7	-0.08952325
20	0x3daac51d	0.083383776
21	0x3e716fa5	0.23577745
22	0xbdfe5b10	-0.124197125
23	0xbd2c699c	-0.042092904
24	0x3e205fd2	0.15661553
25	0xbc523000	-0.012828827
26	0xbdf8485f	-0.12123179
27	0xbd0004cc	-0.031254575
28	0xbe1ee20f	-0.15515922
29	0xbd0fef84	-0.03514053
30	0xbe03f1e3	-0.12885241
31	0xbe16492b	-0.14676349
32	0xbbc5f62e	-0.00604131
33	0xbdd80c40	-0.105492115
34	0x3ca2e74d	0.019885683
35	0xbd7060a4	-0.058685914
36	0x3d026156	0.031831108
37	0x3d8d8351	0.06909812
38	0xbe26412d	-0.162358
39	0xbd7291e3	-0.05922116
40	0x3e315ccb	0.17320554
41	0x3e06c33d	0.13160415
42	0x3c24ac09	0.010050782
43	0x3e0603a8	0.13087332
44	0xbe2418fd	-0.16025157
45	0x3de0d7dc	0.10978672
46	0x3dd56245	0.10419134
47	0xbdce9b85	-0.10088257
48	0xbd824c90	-0.063622594
49	0xbce89baa	-0.028394539
50	0xbd60dc58	-0.054897636
51	0x3d0cfc80	0.03442049
52	0xbd79d723	-0.060996186
53	0xbdbdea74	-0.09273234
54	0xbdc0f74a	-0.09422167
55	0xbdf74f3a	-0.12075658
56	0xbdc9c447	-0.0985189
57	0x3b9dfa00	0.004821062
58	0x3d9644bc	0.07337329
59	0xbcb77fe0	-0.022399843
60	0x3df68de9	0.12038786
61	0xbdcd3ef3	-0.10021772
62	0x3c8441d5	0.016144672
63	0x3d975238	0.07388729
64	0x3e05db5f	0.13071965
65	0x3d981799	0.07426376
66	0xbdaeb7bb	-0.085311376
67	0xbe455d56	-0.19273886
68	0x3d2e3719	0.042533014
69	0xbcf40ae6	-0.029790353
70	0x3e056c0c	0.13029498
71	0xbdfadbff	-0.12248992
72	0x3bc4c6e5	0.0060051554
73	0x3d53db10	0.051722586
74	0x3c4e976d	0.012609345
75	0xbe2589c5	-0.16165836
76	0xbd33d83e	-0.043907396
77	0xbcca109c	-0.024666123
78	0x3e0b8150	0.13623548
79	0xbe69bd03	-0.22826008
80	0x3de4fb25	0.111807145
81	0xbb2d3d8e	-0.0026434395
82	0x3dfc8aee	0.12331186
83	0xbe3e0a99	-0.1855873
84	0xbe07eca0	-0.13273859
85	0x3e01a5d8	0.1266092
86	0xbdd6dc63	-0.10491254
87	0x3d3cc9ec	0.046091005
88	0x3e07e510	0.13270974
89	0x3e2ea0ee	0.17053577
90	0xbdd7b471	-0.10532463
91	0x3e0ee941	0.13956167
92	0xbd53fc40	-0.051754236
93	0xbe37ca9f	-0.17948388
94	0x3dc8abd8	0.097984016
95	0x3db7e6e4	0.08979586
96	0xbd397e34	-0.045286372
97	0x3dfee505	0.12446026
98	0xbe2d1387	-0.1690198
99	0xbe185213	-0.14875059
100	0x3d3d9cc7	0.046292093
101	0xbe227edf	-0.1586871
102	0x3e14b0ad	0.14520521
103	0x3e0587d3	0.13040094
104	0x3b4fa57e	0.0031684334
105	0xbdc181d9	-0.094485946
106	0x3e29ff73	0.16601352
107	0x3db9bd65	0.09069327
108	0xbd9917c8	-0.07475239
109	0x3deb528b	0.11490353
110	0x3db8a5f5	0.09016029
111	0x3de1d10e	0.11026202
112	0x3c67a228	0.014137782
113	0x3e187160	0.14886999
114	0x3d2c0390	0.041995585
115	0x3be11c80	0.0068698525
116	0xbb56cf00	-0.003277719
117	0x3e10d372	0.1414316
118	0xbda530b9	-0.08065934
119	0x3de52bdc	0.11190006
120	0x3d25d578	0.040486783
121	0x3d5e29db	0.054239135
122	0x3c964187	0.018341793
123	0xbcf2badd	-0.029630119
124	0xbb919ccd	-0.004443741
125	0x3d8ad451	0.067787774
126	0x3d8f58e1	0.06999374
127	0xbd585cf6	-0.05282303
128	0x3d5c6a90	0.053812563
129	0x3d20dfc4	0.0392759
130	0xbdc42b9d	-0.09578631
131	0xbd81619e	-0.06317447
132	0x3d64bbbc	0.0558431
133	0x3daeecc5	0.08541254
134	0x3dae95ce	0.08524667
135	0xbda85b2f	-0.08220517
136	0x3cf1d333	0.029519653
137	0x3de90dd7	0.11379593
138	0x3cadf382	0.021234278
139	0xbd820bde	-0.0634992
140	0x3ddfbf8c	0.109252065
141	0xbe0e0fde	-0.1387324
142	0xbd00a057	-0.031402912
143	0xbaa57860	-0.0012624376
144	0xbe2153f7	-0.15754686
145	0x3dbbb01c	0.091644496
146	0x3e3a8192	0.1821349
147	0xbd894682	-0.067029014
148	0x3e10307e	0.14080998
149	0x3cdeccd8	0.027197286
150	0xbc133ca3	-0.008986625
151	0x3df9f294	0.12204471
152	0x3de38581	0.11109448
153	0xbe13f99a	-0.14450684
154	0x3df6bceb	0.12047752
155	0xbe210b23	-0.15726905
156	0xbde8ecc7	-0.11373287
157	0xbdc6eb3d	-0.09712837
158	0xbdb5a26a	-0.08868869
159	0xbda2a3e5	-0.07941417
160	0x3de4c522	0.111704126
161	0xbd29555d	-0.041341174
162	0x3e2d828d	0.16944332
163	0xbdd8722c	-0.105686516
164	0xbd865453	-0.06559052
165	0xbd3d04f1	-0.04614729
166	0x3e1af124	0.1513105
167	0x3d25ec5a	0.040508606
168	0xbd777645	-0.060415525
169	0x3c2489f8	0.01004266
170	0x3d65fe1b	0.056150537
171	0x3ded3fca	0.115844324
172	0x3dbe978b	0.09306248
173	0xbe29d063	-0.165834
174	0x3d118e1c	0.035535917
175	0x3dd6bdf4	0.104854494
176	0x3e022280	0.12708473
177	0x3d01efac	0.03172271
178	0xbe11e192	-0.14246204
179	0x3e29f106	0.1659585
180	0xbcc7838a	-0.024354715
181	0xbe057e50	-0.13036466
182	0xbe04c230	-0.12964702
183	0xbd7634a4	-0.060108796
184	0x3d923459	0.07138891
185	0x3df9397d	0.12169168
186	0xbbe9a23d	-0.007129936
187	0x3ddf00ee	0.10888849
188	0x3b0b61f4	0.0021268101
189	0xbe0a1351	-0.13483931
190	0xbda0311f	-0.07821869
191	0x3dfd92ae	0.123814926
192	0x3d8e8011	0.069580205
193	0x3db98d86	0.090601966
194	0xbd6d8f70	-0.05799812
195	0xbc0c746a	-0.008572677
196	0xbdde960d	-0.10868464
197	0xbc68b7ff	-0.014204024
198	0xbd894e13	-0.067043446
199	0x3e0cc14e	0.13745615
200	0xbd2dc196	-0.042420946
201	0x3e21a0b3	0.15783958
202	0xbda745c0	-0.08167601
203	0x3d6b0f33	0.057387542
204	0xbd9517e3	-0.07279947
205	0xbdebad8b	-0.1150771
206	0x3e03264c	0.12807578
207	0x3da31a64	0.07964018
208	0x3e293db0	0.16527438
209	0x3e0db532	0.13838652
210	0xbdcfcc97	-0.10146444
211	0xbde61b5f	-0.11235689
212	0xbd836c1c	-0.064171046
213	0x3c082e92	0.0083118845
214	0xbdb84ce2	-0.08999039
215	0x3e06f263	0.131784
216	0x3df48488	0.11939341
217	0x3dd9246b	0.10602649
218	0x3dd4b8de	0.10386823
219	0xbe258f97	-0.16168056
220	0xbd6b9bac	-0.057521507
221	0xbc23b709	-0.009992369
222	0x3d9a2aa6	0.07527666
223	0xbcb5e219	-0.022202538
224	0x3df8ca2b	0.121479355
225	0xbe1cb3f3	-0.1530302
226	0x3d80a426	0.06281309
227	0x3bd39318	0.006456744
228	0xbcdc86f5	-0.026919821
229	0xbcfc99ef	-0.03083512
230	0xbe11f325	-0.14252909
231	0x3bcdeebf	0.0062845643
232	0x3c9f4fe1	0.019447269
233	0x3ddf4536	0.10901873
234	0x3dd045f4	0.101695925
235	0xbd6aa268	-0.05728379
236	0x3daea674	0.08527842
237	0xbe19b56a	-0.1501061
238	0xbc1598b0	-0.009130642
239	0x3bb061e0	0.0053827614
240	0x3e080e30	0.13286662
241	0x3e47eced	0.19523974
242	0xbdc0ad38	-0.09408039
243	0x3d878160	0.06616473
244	0xbe258e4d	-0.16167565
245	0x3d38fb84	0.04516174
246	0xbdbecd31	-0.09316481
247	0x3d77824a	0.060426988
248	0x3da7f131	0.082003005
249	0x3d621093	0.055191588
250	0xbd89e80d	-0.06733713
251	0x3e0a2f67	0.13494645
252	0xbcb9f6a7	-0.02270062
253	0x3e2afd71	0.16698243
254	0xbdd80460	-0.105477095
255	0x3d61d96f	0.055139

network.0.bias f4 [128]
0	0x3e343fec	0.1760251
1	0xbd5299a0	-0.05141604
2	0xbdca285c	-0.09870979
3	0xbe394871	-0.1809404
4	0x3d2edc6e	0.042690687
5	0x3db54a13	0.08852019
6	0x3b838587	0.0040137204
7	0xbe2c385d	-0.16818376
8	0xbde519db	-0.11186572
9	0x3df47a01	0.11937333
10	0x3cf45484	0.029825456
11	0xbe4f3e4e	-0.20238611
12	0x3e1cbb40	0.15305805
13	0x3df8c89d	0.12147639
14	0xbd567007	-0.05235293
15	0xbdb43c74	-0.08800593
16	0xbd891aa6	-0.06694536
17	0x3e3853f8	0.18000782
18	0x3defc9a6	0.11708383
19	0x3d9268ed	0.07148919
20	0x3e3f96f5	0.1870993
21	0xbd18cc47	-0.03730419
22	0xbe0047da	-0.12527409
23	0xbb7baed6	-0.003840377
24	0xbdff12bc	-0.12454745
25	0xbd3715e5	-0.044698615
26	0x3dcaaeff	0.09896659
27	0xbdadf22d	-0.08493457
28	0x3dcc12eb	0.09964546
29	0x3d476444	0.048679605
30	0x3b34b9a7	0.0027576478
31	0xbbf83aaf	-0.007575355
32	0xbd80c48c	-0.06287488
33	0x3e1db1c9	0.15399851
34	0x3dfab75d	0.12242005
35	0xbd168614	-0.03674896
36	0x3d6ff904	0.05858709
37	0x3e18cada	0.14921132
38	0x3dbd91da	0.092563346
39	0xbe088c1f	-0.13334702
40	0x3e220054	0.15820438
41	0xbdd63856	-0.10459964
42	0xbd3b0dd2	-0.045667477
43	0x3d6edd94	0.058316782
44	0x3dbfb55d	0.09360764
45	0xbe18b652	-0.149133
46	0xbd019fee	-0.03164666
47	0x3dd5f280	0.10446644
48	0xbd9f6bf6	-0.07784264
49	0x3b863acd	0.004096365
50	0x3da0d0e8	0.07852346
51	0x3e32e69e	0.17470786
52	0xbd215651	-0.03938896
53	0x3dbe97ec	0.093063205
54	0x3e350e15	0.17681153
55	0xbdf00af8	-0.11720842
56	0xbbd199f0	-0.0063965246
57	0xbd8ad478	-0.067788064
58	0x3d6df14f	0.058091458
59	0xbb9de654	-0.004818717
60	0xbd3cadfd	-0.046064366
61	0x3dc50df2	0.096218005
62	0x3d307d3f	0.043088194
63	0xbd8b89ff	-0.0681343
64	0xbd74b80c	-0.059745833
65	0xbe2c03d9	-0.16798343
66	0xbd5ddd61	-0.0541662
67	0x3cfd1f54	0.030898727
68	0xbcc5a632	-0.0241271
69	0x3e21d50f	0.15803932
70	0xbd1fcaf2	-0.039011903
71	0x3dead5e6	0.11466579
72	0xbd8c0d29	-0.068384476
73	0xbd118ff7	-0.035537686
74	0x3df801c4	0.12109712
75	0x3bcd5449	0.006266151
76	0xbe43ec4b	-0.19133107
77	0xbdb929c7	-0.090411715
78	0x3b5af86d	0.0033412233
79	0xbde75d24	-0.11297062
80	0xbd6cf4af	-0.057850536
81	0xbe20fc17	-0.15721165
82	0x3d9c6f4f	0.07638418
83	0x3da1f00b	0.07907113
84	0xbdaa6255	-0.083195366
85	0xbd361d5b	-0.04446159
86	0xbdb38ba8	-0.08766872
87	0x3e50efd5	0.20403989
88	0x3e3ab4b7	0.18233
89	0x3d94badc	0.07262203
90	0xbdcf1699	-0.10111732
91	0xbd06023f	-0.032716986
92	0x3e12dfdb	0.14343207
93	0x3dcf5d44	0.10125211
94	0x3db76592	0.0895492
95	0xbdb449f6	-0.088031694
96	0x3db7e679	0.08979506
97	0x3e1b0d78	0.15141857
98	0x3da43a87	0.08018976
99	0x3e1f59bf	0.15561579
100	0xbe196e00	-0.14983368
101	0x3e364e38	0.17803276
102	0xbd6f7477	-0.05846068
103	0xbd5c924d	-0.05385046
104	0x3ded4b22	0.11586596
105	0x3cf13232	0.02944288
106	0xbe3d6fdd	-0.18499704
107	0x3de5b94c	0.11216983
108	0x3d978ded	0.07400117
109	0xbd7fad8f	-0.062421378
110	0xbe022c14	-0.12712127
111	0xb9d62c2c	-0.0004085017
112	0x3e1102eb	0.1416127
113	0x3dc25da1	0.094905145
114	0x3e1ad3b4	0.15119821
115	0x3e0752ee	0.13215229
116	0xbd8e0c0f	-0.06935894
117	0x3e07f17a	0.1327571
118	0xbe247c4c	-0.1606304
119	0x3e1dc55e	0.15407321
120	0x3e26eba2	0.16300824
121	0xbe427888	-0.18991292
122	0xbcae650d	-0.02128842
123	0xbe0e9802	-0.13925174
124	0x39efa19c	0.0004570604
125	0x3d3ad73d	0.045615423
126	0x3b630c41	0.0034644755
127	0x3d985ceb	0.07439598

network.2.weight f4 [64, 128]
0	0x3d912bb2	0.07088412
1	0x3d8f82aa	0.07007344
2	0x3d09ee7d	0.033674706
3	0x3d2930a6	0.04130616
4	0xbd13ac0f	-0.03605276
5	0x3c9e5ac8	0.019330397
6	0xbc95c9fe	-0.018284794
7	0xbc4743db	-0.012162174
8	0x3d186f6b	0.03721563
9	0x3d8dd1ad	0.06924758
10	0x3daa5226	0.0831645
11	0x3dc8b0ae	0.09799324
12	0xbda02cb2	-0.07821025
13	0xbd387e9b	-0.045042615
14	0xbccadef6	-0.02476452
15	0x3d4e2515	0.050328333
16	0x3aa08fe1	0.001224991
17	0x3d7bdfda	0.06149278
18	0x3ae7ffae	0.00177001
19	0xbd1492a7	-0.03627267
20	0xbc318c0a	-0.010836611
21	0x3b8f43e6	0.004372108
22	0xbcc5ce00	-0.02414608
23	0x3db7e996	0.089801
24	0xbd593ca0	-0.053036332
25	0xbcc7436e	-0.024324145
26	0xbd2d7704	-0.04234983
27	0x3d6056aa	0.05477015
28	0xbd040ae1	-0.032236937
29	0x3c8287b7	0.015933855
30	0x3da89c8e	0.082329854
31	0xbc395908	-0.011312731
32	0x3bc3e9a6	0.005978781
33	0x3cac9886	0.021068823
34	0x3d558d27	0.052136566
35	0xbdb0042d	-0.085945465
36	0xbd58f0c8	-0.052964002
37	0x3ceec96a	0.029148776
38	0xbda97140	-0.08273554
39	0xbd094daa	-0.03352133
40	0x3da9fb38	0.08299869
41	0xbcb11a88	-0.021619096
42	0x3db03dfa	0.08605571
43	0xbc8b956c	-0.017039023
44	0x3d6876d4	0.05675395
45	0x3c62138a	0.013798604
46	0x3ca17484	0.01970888
47	0xbc1bd8a5	-0.009512101
48	0xbd44533e	-0.04793095
49	0x3d160936	0.036629878
50	0xbb46b058	-0.0030317511
51	0xbd8575d7	-0.06516617
52	0x3ce89afc	0.028394215
53	0x3ce47159	0.02788608
54	0xbca448fc	-0.020054333
55	0xbdbe91dc	-0.09305164
56	0xbd84d7f2	-0.06486501
57	0xbd4b2ca3	-0.049603116
58	0x3d89ba20	0.06724954
59	0xbc6bdd60	-0.014396042
60	0x3d8b364d	0.067974664
61	0xbd1bee9d	-0.038069356
62	0xbdf6f284	-0.12057975
63	0xbb84a7b9	-0.0040483144
64	0x3cc08c24	0.023504324
65	0xbd55df72	-0.052215047
66	0xbc974747	-0.018466605
67	0xbb45a2ea	-0.0030156919
68	0x3d84f619	0.06492252
69	0xbb30e2a7	-0.0026990564
70	0xbcad8d2f	-0.021185486
71	0x3db51b29	0.08843071
72	0xbe0b7911	-0.13620402
73	0xbc6fa73d	-0.014627275
74	0x3d73c406	0.059513114
75	0x3d7ed728	0.062216908
76	0xbd5c9f1f	-0.053862687
77	0xbda5f2d5	-0.08102957
78	0xbcd09ae2	-0.025464479
79	0x3a840039	0.0010070867
80	0x3da169ef	0.07881533
81	0x3da09697	0.07841223
82	0xbd69136e	-0.056903295
83	0x3ce8bb38	0.028409585
84	0x3dbbcb5b	0.09169646
85	0xbd8eab90	-0.06966317
86	0xbd2b8620	-0.04187596
87	0xbd61477c	-0.054999813
88	0xbdc20737	-0.09474032
89	0x3dd02eb5	0.10165159
90	0x3d8bf23f	0.06833314
91	0x3d75071c	0.059821233
92	0xbbf4da1e	-0.0074722907
93	0x3d4a30b3	0.04936285
94	0x3d8f26e7	0.06989842
95	0x3d8a807d	0.067627884
96	0xbd29601e	-0.04135143
97	0x3d92f0ff	0.071748726
98	0xbd2baf8a	-0.041915454
99	0x3d7ca896	0.061684214
100	0xbc9f365d	-0.019435102
101	0x3d80063b	0.06251188
102	0x3db1dc27	0.08684569
103	0xbd02d4f8	-0.031941384
104	0xbd134f18	-0.0359641
105	0xbd370a0e	-0.044687323
106	0x3d03a7f8	0.03214261
107	0xbd283e59	-0.041075084
108	0xbdba9296	-0.0910999
109	0x3d0d12ab	0.03444163
110	0xbd8910d5	-0.066926636
111	0x3c7b8ff9	0.01535415
112	0xbd8b25d7	-0.06794327
113	0x3d825489	0.0636378
114	0xbc0c9926	-0.008581435
115	0x3d422e0a	0.047407188
116	0x3d76a0ba	0.060211875
117	0xbd4a9816	-0.049461447
118	0x3d8244d6	0.06360786
119	0x3d28eae2	0.041239627
120	0xbbe8ebd4	-0.007108191
121	0xbc9de455	-0.019273916
122	0x3d8ef441	0.069801815
123	0xbcd24fe8	-0.025672868
124	0x3dabc9a1	0.08388067
125	0x3cf9c414	0.030489005
126	0x3ccc98b6	0.024975162
127	0x3ba6b5ce	0.005087591
128	0x3d431c61	0.047634486
129	0xbdccc130	-0.09997785
130	0xbcf56ae5	-0.029958198
131	0x3c88868a	0.016665716
132	0xbd3abdd1	-0.04559118
133	0x3d8bc1c9	0.06824071
134	0xbd9448d7	-0.072404556
135	0x3d94b21d	0.07260535
136	0x3caf1fe0	0.021377504
137	0x3d17e4d7	0.037083473
138	0xbcc63675	-0.024195889
139	0xbcb63354	-0.022241272
140	0xbcdfaf11	-0.027305158
141	0xbd41cbd1	-0.047313515
142	0x3bf4b7d2	0.007468202
143	0x3c80fdaf	0.015745966
144	0x3da57e7b	0.08080765
145	0xbe1739fb	-0.14768212
146	0x3dfc3670	0.12315071
147	0x3c996117	0.018723054
148	0xbe07d0fb	-0.13263313
149	0xbd8afce8	-0.06786519
150	0xbda593bd	-0.080848195
151	0x3d88bad4	0.0667626
152	0xbd6ebd5c	-0.058286056
153	0x3d3b8497	0.045780744
154	0x3cead61c	0.028666548
155	0x3d1a9ba7	0.037746098
156	0x3e03ea7f	0.12882422
157	0xbcc681b6	-0.024231773
158	0xbd544aac	-0.051829025
159	0xbd3988c0	-0.04529643
160	0xbc511d7a	-0.012763375
161	0xbd904b87	-0.07045656
162	0xbd5736b2	-0.052542396
163	0xbd1a29c2	-0.03763748
164	0xbc4aab85	-0.012369995
165	0x3bb36695	0.005474875
166	0x3b9be7de	0.0047578653
167	0xbd70ac4f	-0.058758076
168	0x3ce1cbea	0.027563054
169	0x3c80c416	0.015718501
170	0x3d4c9d0c	0.04995446
171	0xbc347bdf	-0.011015861
172	0xbd275a31	-0.040857498
173	0xbcd21442	-0.025644425
174	0x3c908852	0.017643128
175	0x3d57dd91	0.052701537
176	0x3d9dc73b	0.07704016
177	0xbd58e7c5	-0.052955408
178	0xbd3770d9	-0.044785354
179	0xbc639e86	-0.013892775
180	0xbce24f8f	-0.027625827
181	0x3b403d75	0.0029333506
182	0xbb1afa14	-0.0023647593
183	0xbda121b5	-0.07867757
184	0xbd505591	-0.050862852
185	0xbd9950c6	-0.074861094
186	0xbbfed97d	-0.0077773915
187	0xbd7f0586	-0.062261127
188	0xbd17d6d7	-0.03707012
189	0xbd799963	-0.060937297
190	0x3d7dc236	0.061952792
191	0xbdcfee06	-0.10152821
192	0x3c8c2466	0.0171072
193	0x3d897cd4	0.06713262
194	0xbc1a5de5	-0.0094218
195	0xbc9b250c	-0.018938564
196	0x3d860fe7	0.06546002
197	0x3d28546b	0.041096132
198	0xbdf08cb3	-0.11745586
199	0xbd5774a8	-0.052601486
200	0x3d7621b9	0.060090754
201	0x3d8acd44	0.067774326
202	0xbba4dd64	-0.0050312746
203	0x3c85dc36	0.016340356
204	0x3ce92d3e	0.028463956
205	0xbdb11c5b	-0.086479865
206	0xbc35c09a	-0.011093283
207	0xbd1516d9	-0.036398742
208	0xbdaf9291	-0.08572877
209	0xbd7d6d36	-0.06187173
210	0x3d9c4005	0.07629398
211	0x3b593ed3	0.0033149018
212	0x3c9dfc03	0.019285208
213	0xbd71ac71	-0.059002344
214	0xbc20331d	-0.009777811
215	0x3d29c4e5	0.04144754
216	0x3e36c290	0.17847657
217	0x3d0aa758	0.033850998
218	0xbdbc5cbb	-0.091973744
219	0xbd4df499	-0.050282095
220	0xbd99546c	-0.07486805
221	0xbcd0c383	-0.025483852
222	0x3ca3253d	0.019915218
223	0x3c8465ac	0.016161762
224	0xbda8482e	-0.08216892
225	0xbcd30b84	-0.025762327
226	0xbd09ef65	-0.03367557
227	0xbcb37e9d	-0.02191096
228	0xbb9b46c0	-0.0047386587
229	0x3d6c3bb2	0.057674117
230	0x3c12a07f	0.008949398
231	0xbc177be1	-0.009245844
232	0xbc830ecc	-0.015998267
233	0x3d6ffe22	0.05859197
234	0xbdb20cfb	-0.08693882
235	0x3d891d9f	0.06695103
236	0xbdcd0b2e	-0.10011898
237	0x3d88df3b	0.06683203
238	0xbd0e02d9	-0.034670684
239	0x3d99afc7	0.0750423
240	0xbdecbf48	-0.115599215
241	0x3d413640	0.047170877
242	0x3dd6931b	0.10477277
243	0xbce4bb56	-0.02792136
244	0xbd895b05	-0.06706814
245	0xbd8d4c40	-0.06899309
246	0xbaddca00	-0.0016921163
247	0x3d5ba6ea	0.05362598
248	0xbd56eb2e	-0.05247038
249	0x3ccd2149	0.025040286
250	0x3d371276	0.04469534
251	0x3c1f178a	0.009710202
252	0xbcbbd7b6	-0.022930007
253	0x3e117976	0.1420649
254	0xbc33c6a8	-0.010972656
255	0xbd06497b	-0.03278492

network.2.bias f4 [64]
0	0x3d80266b	0.06257328
1	0xbda2b179	-0.079440065
2	0xbd17ff57	-0.037108745
3	0xbd0bf5e5	-0.03417005
4	0x3d17e7c8	0.03708628
5	0x3d09939a	0.03358803
6	0x3c9e7cc4	0.019346602
7	0xbd160ef3	-0.03663535
8	0xbd5c7387	-0.053821113
9	0xbd05c14e	-0.032655053
10	0x3d939a0c	0.072071165
11	0x3d1b9c6c	0.037990972
12	0xbdc44e44	-0.095852405
13	0xbd93d76a	-0.07218821
14	0x3d2e3feb	0.042541426
15	0xbd75c32f	-0.060000595
16	0x3d80046b	0.06250843
17	0xbdb3f953	-0.08787789
18	0xbd4bfae0	-0.0497998
19	0x3d9e396f	0.07725798
20	0x3d6431e6	0.05571165
21	0xbd3ae1fb	-0.045625668
22	0x3d633c34	0.055477336
23	0xbc858f70	-0.016303748
24	0xbd8027f5	-0.06257621
25	0xbcbc0992	-0.022953782
26	0x3d44f015	0.048080523
27	0xbd34271b	-0.043982606
28	0xbd4d1627	-0.050069954
29	0xbab6a5ac	-0.0013934872
30	0xbb7ed1b2	-0.0038882312
31	0xbd0529ca	-0.032510556
32	0xbd44e309	-0.04806808
33	0xbcc76159	-0.024338411
34	0xbca3e9f1	-0.020009013
35	0x3d94ba63	0.07262113
36	0x3cdf1b46	0.027234685
37	0x3d7c3187	0.06157067
38	0xbb9a1457	-0.0047021317
39	0xbcd25485	-0.025675068
40	0xbdc2cb9a	-0.0951149
41	0x3d1c5805	0.03816988
42	0x3c9d8d52	0.019232426
43	0xbcad862c	-0.021182142
44	0xbdb9887d	-0.09059236
45	0xbc94f4ab	-0.018183073
46	0xbd5d856c	-0.05408232
47	0x3df0474d	0.117323495
48	0x3c981997	0.01856689
49	0xbbc98e95	-0.0061510303
50	0xbd1d7e5d	-0.038450588
51	0xbd273713	-0.040824007
52	0x3c120c8c	0.008914124
53	0x3d016b18	0.031596273
54	0xbd5460ad	-0.05185001
55	0x3c44ed7c	0.012019511
56	0xbd2d2507	-0.04227164
57	0x3e0b872d	0.13625784
58	0x3cb55877	0.02213691
59	0x3d2f638a	0.042819537
60	0xbd8a7159	-0.067599006
61	0x3d6aa612	0.057287283
62	0xbd90aa4c	-0.070637316
63	0x3dac7ed0	0.08422625
