models/ppo_agent_ep90.pt (torch, 364210 bytes, 45 tensors)

network.0.weight f4 [128, 30]
0	0xbde90e7b	-0.11379715
1	0x3e0eac8e	0.13933012
2	0x3de03821	0.10948206
3	0xbdee0595	-0.116221584
4	0xbe93ba47	-0.28853056
5	0xbdc17946	-0.09446959
6	0xbd751236	-0.05983182
7	0xbe1298ad	-0.14316054
8	0x3bfd2657	0.0077255177
9	0x3d9eb00c	0.07748422
10	0xbdc43919	-0.09581203
11	0xbd076737	-0.033057418
12	0x3e23aad5	0.15983136
13	0x3e5d809a	0.21631089
14	0x3e02a257	0.1275724
15	0xbd95160f	-0.07279598
16	0xbcbab6cb	-0.02279224
17	0x3caca0f2	0.021072838
18	0xbcb3a8e2	-0.021931116
19	0xbc25a202	-0.010109426
20	0xbd04eab8	-0.032450408
21	0x3e1b174f	0.1514561
22	0x3e3380a9	0.17529549
23	0xbce9fe30	-0.028563589
24	0x3de53d08	0.111932814
25	0xbe1803ff	-0.14845274
26	0xbe350268	-0.17676699
27	0x3d450740	0.048102617
28	0xbd4cf808	-0.05004123
29	0xbdc9fc49	-0.09862573
30	0x3d876ca4	0.066125184
31	0xbdd97681	-0.10618306
32	0xbdf1ca0c	-0.118061155
33	0x3dae723c	0.08517882
34	0xbe630a6a	-0.22171941
35	0x3de7b595	0.11313931
36	0x3e598cf7	0.2124518
37	0x3de2ff2e	0.11083828
38	0xbdc9217c	-0.0982084
39	0x3e05bbde	0.13059947
40	0xbd8e5da3	-0.069514535
41	0x3d1533a9	0.03642622
42	0x3d86aacb	0.06575545
43	0x3e3d25d7	0.18471466
44	0x3e01683c	0.12637419
45	0xbdde6216	-0.10858552
46	0x3e373c86	0.17894182
47	0xbdc23931	-0.09483565
48	0x3c0c356f	0.008557661
49	0x3db997d7	0.09062164
50	0x3e077c52	0.13231018
51	0x3e3b7839	0.1830758
52	0x3c2416a1	0.010015161
53	0x3e1ade7d	0.15123935
54	0xbd94a2bb	-0.07257601
55	0x3cabaf80	0.020957708
56	0xbc3c3740	-0.011487782
57	0x3bae6e60	0.0053232163
58	0xbdb7eb76	-0.089804575
59	0xbd32f490	-0.043690264
60	0xbdf7b6d7	-0.12095421
61	0xbd722f2f	-0.05912703
62	0x3e11697a	0.14200392
63	0xbcab3d68	-0.020903304
64	0xbdaadc73	-0.083428286
65	0x3db3cc10	0.08779156
66	0x3d55260c	0.052038237
67	0x3d1e7f81	0.038695816
68	0x3e12fc49	0.14354052
69	0x3d1683ad	0.03674667
70	0xbae79f29	-0.0017671335
71	0x3d776dfd	0.060407627
72	0xbc3edd8d	-0.0116495015
73	0xbe3645b2	-0.17800024
74	0x3de5961f	0.11210274
75	0xbcb6adb8	-0.022299632
76	0x3e039afa	0.12852088
77	0x3da52762	0.08064152
78	0xbe1eb04a	-0.15496936
79	0xbe4915a4	-0.19637161
80	0x3ddd4cad	0.1080564
81	0x3e163b57	0.14671074
82	0xbe342565	-0.1759239
83	0x3e0e6290	0.13904786
84	0x3e124d3e	0.14287278
85	0x3e372dcc	0.17888564
86	0xbd925357	-0.07144802
87	0x3dc83db8	0.09777397
88	0xbde16a01	-0.11006547
89	0xbdb9be9a	-0.090695575
90	0xbde6cbfa	-0.11269374
91	0xbdf5477a	-0.11976524
92	0x3c1c6b4e	0.009547068
93	0xbc9a8e19	-0.018866586
94	0xbe9b963e	-0.30388063
95	0xbd9b7ff6	-0.07592766
96	0xbdb61794	-0.08891216
97	0xbe33dabc	-0.1756391
98	0x3e15fb10	0.14646554
99	0xbdb376e9	-0.08762915
100	0xbccc9ff5	-0.024978617
101	0x3d327aa5	0.043573994
102	0xbd948454	-0.07251802
103	0x3d871db0	0.06597459
104	0xbe1a2636	-0.15053639
105	0x3e462f56	0.19353995
106	0x3ded1745	0.11576704
107	0x3d1b765c	0.037954673
108	0xbd220f83	-0.039565574
109	0x3d896f34	0.067106634
110	0x3cf7f7d0	0.030269533
111	0x3c04d5b4	0.008107591
112	0xbe49a4f7	-0.19691835
113	0x3e66a673	0.22524433
114	0xbe099386	-0.13435182
115	0x3e324344	0.17408472
116	0x3de1de84	0.110287696
117	0x3ddedb30	0.108816504
118	0x3c42a0e0	0.011879176
119	0xbda5133a	-0.08060308
120	0x3e20229e	0.15638205
121	0xbd16a595	-0.036779005
122	0x3cb9225f	0.022599397
123	0x3e3d7156	0.18500265
124	0x3c8412e5	0.01612229
125	0xbe17f3b4	-0.14839059
126	0xbe32318e	-0.17401716
127	0x3dd1c695	0.10242955
128	0x3e59b8a7	0.21261846
129	0xbcf69c0c	-0.030103706
130	0x3e6cb96a	0.23117605
131	0x3d87a847	0.06623893
132	0x3e1f6e4e	0.15569422
133	0xbdd9b3ba	-0.10629983
134	0x3dce71c5	0.100802936
135	0x3e81cc05	0.25350967
136	0xbd83f53d	-0.0644326
137	0xbd022a1f	-0.03177845
138	0xbe094a7c	-0.1340732
139	0x3d254542	0.040349253
140	0x3e2a3712	0.1662257
141	0xbd9c2c23	-0.07625606
142	0xbc5583ed	-0.013031942
143	0xbda546ce	-0.080701455
144	0x3c23b7d0	0.009992555
145	0x3d84057e	0.0644636
146	0xbdbf72e9	-0.09348089
147	0xbd286130	-0.04110831
148	0x3d702004	0.058624282
149	0xbb5b2000	-0.0033435822
150	0xbdaa9152	-0.08328499
151	0x3c09d4b7	0.008412532
152	0xbe2e2520	-0.1700635
153	0xbd97eaaf	-0.07417809
154	0x3dfe3453	0.12412324
155	0xbe4c7803	-0.19967656
156	0xbde6458c	-0.11243734
157	0x3d0b2754	0.033973053
158	0xbe3f596e	-0.18686458
159	0x3d920833	0.0713047
160	0x3da548c6	0.08070521
161	0xbde70d26	-0.11281805
162	0xbdc65c10	-0.09685528
163	0xbe357630	-0.17720866
164	0x3dd5a7e9	0.10432417
165	0x3daa70ff	0.083223335
166	0x3d58da49	0.052942548
167	0xbe04e868	-0.12979281
168	0x3e16400a	0.14672866
169	0xbd5b4949	-0.053536687
170	0xbde028d3	-0.109452866
171	0xbdf471df	-0.11935782
172	0xbdd581d5	-0.10425154
173	0x3de9bca1	0.11412931
174	0x3d54f314	0.05198963
175	0x3d17cfb4	0.037063316
176	0xbe09220e	-0.13391897
177	0xbcd5d0f8	-0.02610062
178	0x3de9a378	0.11408132
179	0xbd92207b	-0.071351014
180	0x3e10bd56	0.14134726
181	0xbd2173fd	-0.039417256
182	0x3e32b2f5	0.17451079
183	0x3e27edb8	0.16399276
184	0xbe585f58	-0.21130121
185	0xbe145544	-0.14485651
186	0xbe238097	-0.15967022
187	0x3e3bf689	0.18355764
188	0xbc60050b	-0.013673077
189	0x3c2971e8	0.010342099
190	0x3e4d97a1	0.20077373
191	0xbc02e2f7	-0.007988683
192	0xbde647cd	-0.11244164
193	0x3e295faf	0.16540407
194	0x3d52e67b	0.051489335
195	0xbcc51107	-0.02405597
196	0x3db2e18a	0.087344244
197	0x3be19175	0.006883795
198	0x3e39b149	0.18134035
199	0xbd36f8d5	-0.0446709
200	0x3b884c8c	0.0041595157
201	0xbdd42d76	-0.103602335
202	0x3dba08c3	0.090837024
203	0x3e7caee1	0.24676086
204	0x3d54bb88	0.051936656
205	0x3e2afc78	0.16697872
206	0x3e38235c	0.17982239
207	0xbe28ae3b	-0.16472714
208	0xbde5703a	-0.11203046
209	0xbe35cbf0	-0.17753577
210	0x3e0ffe85	0.14061935
211	0xbe32fba8	-0.17478812
212	0xbdeff6f6	-0.11717026
213	0x3e00a487	0.12562762
214	0xbde7040a	-0.11280067
215	0xbd51e6d7	-0.051245537
216	0xbd57f2cf	-0.052721795
217	0xbd09db1c	-0.033656225
218	0x3e33e775	0.17568763
219	0x3d01ecad	0.031719852
220	0x3e3991d0	0.1812203
221	0x3b76b712	0.003764574
222	0x3e37832a	0.17921129
223	0x3dc774f6	0.097391054
224	0x3c4c210c	0.012459051
225	0xbe2b36d9	-0.16720141
226	0x3de7e69b	0.113232814
227	0x3deecd07	0.116601996
228	0xbdb43435	-0.0879902
229	0xbce3cd19	-0.02780776
230	0xbd8d633b	-0.06903692
231	0x3e39f17f	0.1815853
232	0xbe2582b7	-0.16163145
233	0x3d846a18	0.06465548
234	0xbe1d71df	-0.1537547
235	0x3dc1f0a0	0.09469724
236	0xba63a700	-0.0008684248
237	0xbd1b64e4	-0.037938014
238	0x3c415bd0	0.011801675
239	0x3e124a7e	0.14286229
240	0xbe5cdb2c	-0.21567982
241	0xbb5f42ca	-0.003406691
242	0x3b9150a3	0.0044346615
243	0x3d919bbc	0.07109782
244	0xbcc4df21	-0.024032177
245	0xbd796830	-0.060890377
246	0xbdbfbe47	-0.093624644
247	0x3c922a0d	0.017842317
248	0xbdb6940f	-0.08914959
249	0x3dc569a0	0.09639287
250	0x3e80f91e	0.2519006
251	0x3da21a1f	0.079151385
252	0xbdf4490f	-0.11927997
253	0xbe0ccca8	-0.13749945
254	0x3dec1f7c	0.11529443
255	0x3d1a2058	0.0376285

network.0.bias f4 [128]
0	0xbd4d4d8c	-0.050122783
1	0x3dacb23c	0.08432433
2	0x3e264912	0.16238812
3	0xbdf47353	-0.11936059
4	0x3e063976	0.13107857
5	0xbdeb346b	-0.11484607
6	0x3cf841ef	0.030304877
7	0xbdf7d034	-0.121002585
8	0xbdb7cd99	-0.089747615
9	0x3d8f9333	0.07010498
10	0x3e23943d	0.15974517
11	0x3dffc2e9	0.12488348
12	0xbdc693fe	-0.09696196
13	0xbcb933bc	-0.022607677
14	0x3d491a0b	0.049097102
15	0x3e145772	0.14486483
16	0xbe167c8c	-0.14695948
17	0x3e379e45	0.17931469
18	0x3e8eacac	0.27866113
19	0xbde8d05b	-0.11367866
20	0x3dc6ce97	0.09707373
21	0xbd9f752d	-0.077860214
22	0xbc4303fd	-0.011902806
23	0x3d9d30d3	0.07675328
24	0xbdc0693c	-0.09395072
25	0xbb4cb6c1	-0.003123686
26	0x3e0ef2ef	0.1395986
27	0x3e19354b	0.14961736
28	0x3da960e8	0.082704365
29	0xbe358c91	-0.17729403
30	0xbe091cb7	-0.1338986
31	0x3e15a1d7	0.14612518
32	0xbd91beb8	-0.07116455
33	0x3d89bc3e	0.067253575
34	0x3d37d98f	0.044885214
35	0xbc2b2828	-0.010446586
36	0x3d45d698	0.048300356
37	0x3d2cac5c	0.042156562
38	0x3d027c7d	0.031857003
39	0x3d75a177	0.059968438
40	0xbacd5f1d	-0.0015668605
41	0x3e0668e7	0.13125955
42	0xbb2c68aa	-0.0026307502
43	0x3e1b6306	0.15174493
44	0xbca44fe9	-0.020057635
45	0xbdea2e80	-0.114346504
46	0x3e279ee2	0.16369203
47	0x3dacd537	0.08439105
48	0xbcac89b7	-0.021061761
49	0x3e45f0e4	0.19330174
50	0xbe22146f	-0.15828107
51	0xbddabe26	-0.10680799
52	0x3d9e3b12	0.077261105
53	0xbdad57db	-0.08464023
54	0x3e3a6b52	0.18205002
55	0xbaac93db	-0.0013166623
56	0x3d021afb	0.03176401
57	0xbb8d51e3	-0.00431274
58	0xbe1addb3	-0.15123634
59	0xbbdcad44	-0.006734522
60	0x3df0d29b	0.1175892
61	0xb6bbc960	-5.5964774e-06
62	0x3e2667e2	0.16250566
63	0x3e0e8010	0.1391604
64	0x3d7280a2	0.059204705
65	0xbe1e64dd	-0.15468164
66	0x3d928352	0.071539536
67	0xbdb24618	-0.087047756
68	0xbd88a67c	-0.066723794
69	0x3d1fd6e4	0.039023295
70	0xbd762f08	-0.060103446
71	0xbe1cb602	-0.15303805
72	0xbccffd62	-0.025389377
73	0xbcac91db	-0.021065643
74	0xb9ad952f	-0.00033108282
75	0x3bb046da	0.00537954
76	0x3d8e4ef0	0.0694865
77	0xbde6a75d	-0.11262391
78	0x3e1ac045	0.15112408
79	0xbdf59120	-0.11990571
80	0x3e18ebc3	0.14933686
81	0x3dd9e4d5	0.10639349
82	0x3cfb4142	0.030670766
83	0x3d4f1928	0.0505611
84	0x3d340e9e	0.043959253
85	0x3e1108e7	0.14163552
86	0x3e105f21	0.14098789
87	0xbdf9d0e8	-0.12198049
88	0xbdbb717e	-0.09152506
89	0x3e135739	0.14388742
90	0xbe4d09a5	-0.2002321
91	0xbcffb3a0	-0.031213582
92	0x3e702fab	0.23455684
93	0x3ac5ecc6	0.0015100471
94	0xbe1da8cd	-0.15396424
95	0xbdbd85a1	-0.09254003
96	0xbbd99514	-0.006640086
97	0xbde18793	-0.11012187
98	0x3da98560	0.082773924
99	0xbd2fb9c9	-0.042901788
100	0x3e1f8d90	0.15581346
101	0x3e211075	0.15728934
102	0x3dfe343f	0.12412309
103	0x3dc2e0d8	0.09515542
104	0x3d896244	0.06708196
105	0x3def0552	0.11670937
106	0x3ddbaab2	0.10725917
107	0x3dccbfc1	0.09997512
108	0xbd460a63	-0.04834975
109	0xbcc292da	-0.023751665
110	0x3c823f5e	0.015899356
111	0xbd5c8157	-0.053834286
112	0xbcf4436d	-0.029817307
113	0x3d369eff	0.044585224
114	0x3de7ae52	0.11312546
115	0xbe0e747d	-0.13911624
116	0x3e0c4c4d	0.13700981
117	0xbd57297e	-0.052529804
118	0x3e227107	0.15863429
119	0x3da4ef72	0.08053483
120	0xbc44fa1a	-0.0120225195
121	0x3e70aa5e	0.2350249
122	0x3dc41b41	0.09575511
123	0x3e2f6600	0.17128754
124	0x3d797d6a	0.06091062
125	0x3d2d8609	0.042364154
126	0xbe131fa0	-0.14367533
127	0x3d4d0a9a	0.05005894

network.2.weight f4 [64, 128]
0	0x3e0a217e	0.13489339
1	0x3d8e1dc9	0.06939275
2	0x3cd8fd0e	0.026487853
3	0x3ca11875	0.019664982
4	0x3ccf4c2d	0.025304878
5	0xbd2868e7	-0.041115668
6	0xbc974256	-0.018464249
7	0xbc83aee3	-0.016074603
8	0x3c565ef0	0.013084158
9	0x3cea9eed	0.028640235
10	0xbda4e69b	-0.08051797
11	0x3b33d640	0.0027440935
12	0xbda2c6fa	-0.07948108
13	0x3bd6b225	0.006551998
14	0xbdfed458	-0.12442845
15	0xbda045dd	-0.07825825
16	0xbd03e434	-0.032200053
17	0x3dd86129	0.10565407
18	0x3c83f472	0.016107772
19	0x3d31e5b1	0.04343194
20	0xbb8c6837	-0.0042848843
21	0x3d2cda92	0.042200632
22	0x3d1e6ae2	0.03867615
23	0x3cc4708c	0.023979448
24	0x3dc4111f	0.09573578
25	0x3cd9ede0	0.026602685
26	0x3d0e3eea	0.03472797
27	0xbd597424	-0.053089276
28	0x3dd88d8e	0.105738744
29	0x3db05687	0.08610254
30	0x3cb3bd83	0.021940952
31	0x3cc2e3a9	0.023790197
32	0x3d889ba8	0.06670314
33	0x3d0d1dc2	0.034452207
34	0x3d9dc2e1	0.07703186
35	0xbda70828	-0.081558526
36	0x3d644989	0.05573419
37	0x3c431e95	0.011909147
38	0x3daad95c	0.08342239
39	0x3d99eca6	0.0751584
40	0x3da3e4eb	0.08002647
41	0x3d5fa118	0.05459699
42	0x3caff53d	0.021479243
43	0x3b7cea53	0.0038591817
44	0xbd4d6ef7	-0.050154652
45	0x3c504ff3	0.012714374
46	0x3db7b458	0.08969945
47	0xbd96e7de	-0.07368444
48	0x3d2e7391	0.04259068
49	0xbca73c6a	-0.02041455
50	0xbd4cfd76	-0.050046407
51	0x3d86c7ad	0.06581054
52	0x3d92caac	0.07167563
53	0xbd93c0bb	-0.07214495
54	0x3da0399e	0.078234896
55	0xbcb82b1f	-0.0224815
56	0x3db412e5	0.08792666
57	0x3c12784f	0.008939817
58	0x3d65bdb4	0.056089118
59	0xbd0dc359	-0.034610126
60	0xbcf110be	-0.029426929
61	0x3d41399c	0.04717408
62	0x3dd1f44d	0.10251675
63	0xbde73453	-0.11289277
64	0x3cd8ea45	0.026478896
65	0x3d62552c	0.055257007
66	0x3d5f2018	0.054473966
67	0xbbbe3dd7	-0.0058057117
68	0xbdcce71c	-0.10005018
69	0xbd8389cb	-0.06422766
70	0xbd0edafa	-0.0348768
71	0xbaaea43b	-0.0013324091
72	0xbd7daac8	-0.061930448
73	0xbdd1780f	-0.102279775
74	0xbc2ebb07	-0.010664708
75	0x3de9cd5a	0.11416121
76	0x3d90b1b5	0.07065145
77	0x3d26c19d	0.040711988
78	0xbcdef98b	-0.0272186
79	0x3d18114e	0.037125878
80	0x3ddf4c03	0.1090317
81	0x3d90df64	0.070738584
82	0xbd1d67fa	-0.038429238
83	0xbd0ad65a	-0.033895828
84	0x3cfbe8cc	0.030750655
85	0xbbd2a10e	-0.0064278906
86	0xbc9bf228	-0.019036368
87	0xbd8d609e	-0.06903194
88	0xbd580384	-0.052737728
89	0x3e2b7994	0.16745597
90	0x3d05f246	0.032701753
91	0xbdf7af5f	-0.12093996
92	0x3e02e040	0.12780857
93	0xbb0b6ded	-0.0021275238
94	0xbd2bb03f	-0.04191613
95	0xbd1b12a9	-0.037859593
96	0x3d7ffc67	0.06249657
97	0x3da36586	0.079783484
98	0xbd4a2eb6	-0.049360953
99	0xbc967ed0	-0.018371016
100	0xbd8b1dd7	-0.06792801
101	0xbd90837c	-0.07056329
102	0xbc2d138b	-0.010563741
103	0xbd486984	-0.048928753
104	0x3dbb2bf1	0.091392405
105	0x3b0d46ea	0.002155716
106	0x3d8510f3	0.064973734
107	0x3e068f3b	0.13140576
108	0x3d5f688f	0.054543074
109	0xbac2be02	-0.0014857652
110	0x3d342fee	0.04399102
111	0xbd2481a4	-0.040162697
112	0xbcac2bd5	-0.021016994
113	0x3b78adfe	0.0037945504
114	0xbd277e28	-0.040891796
115	0xbc8766dc	-0.01652854
116	0xbbf5668e	-0.007489032
117	0x3ca07bc7	0.019590272
118	0xbd1ab1da	-0.03776727
119	0x3d94ede4	0.072719365
120	0x3d4b91b3	0.049699496
121	0x3dbdb6e4	0.09263399
122	0x3bf3b77b	0.007437644
123	0xbbcda7ce	-0.0062761074
124	0x3d013d21	0.031552438
125	0xbd247a90	-0.040155947
126	0x3da0aa47	0.07844978
127	0x3df9599e	0.12175296
128	0x3d7e040b	0.062015574
129	0x3d1e0b81	0.03858519
130	0xbb44670e	-0.0029968652
131	0x3d5104c6	0.051029943
132	0xbd475251	-0.048662487
133	0x3c3e9913	0.011633175
134	0xbba3352e	-0.0049807047
135	0x3d951204	0.07278827
136	0xbd91a702	-0.07111932
137	0x3db46d03	0.08809855
138	0x3dcf3dbd	0.101191975
139	0x3c3813e2	0.011235209
140	0x3d6949ad	0.05695503
141	0xbc4a9c94	-0.012366433
142	0xbb8d9f9e	-0.0043220064
143	0x3d2f2c49	0.042766843
144	0x3bc16be3	0.0059027537
145	0x3da13087	0.07870584
146	0x3d9698f3	0.073533915
147	0xbc0c1205	-0.008549218
148	0xbd0e72c6	-0.034777425
149	0xbc09210f	-0.008369698
150	0x3b7dd2ee	0.003873046
151	0xbd6a2754	-0.057166412
152	0xbdbb4f29	-0.09145958
153	0xbcb50077	-0.022094948
154	0x3dd6c503	0.10486796
155	0x3d3d91d7	0.04628166
156	0x3dde9cdd	0.10869763
157	0xbdba2364	-0.090887815
158	0x3d12cbc2	0.03583885
159	0x3db7b04a	0.08969171
160	0x3cb481f3	0.02203462
161	0x3d5a36a3	0.053274762
162	0xbcac82ab	-0.021058401
163	0xbc0159bf	-0.007894932
164	0xbda77e56	-0.081783935
165	0x3de13067	0.1099556
166	0x3db09cac	0.08623633
167	0x3d1dca36	0.03852292
168	0x3d96106d	0.07327352
169	0xbcf2e28e	-0.029649045
170	0x3dbb0c67	0.09133225
171	0xbdc3eb00	-0.09566307
172	0xbcb67ac0	-0.022275329
173	0x3d53da39	0.051721785
174	0x3c72d4de	0.014821259
175	0xbd019e4d	-0.031645108
176	0x3d36a798	0.044593424
177	0xbbc0d02a	-0.00588419
178	0xbc6af800	-0.014341354
179	0xbd0f3bc4	-0.034969106
180	0x3da194ad	0.07889686
181	0xbccd417d	-0.025055641
182	0x3d9d33e2	0.076759115
183	0xbd91e25d	-0.071232535
184	0x3c8a1875	0.016857365
185	0x3da58efc	0.08083913
186	0xbd29560b	-0.041341823
187	0x3c4bc874	0.0124379285
188	0xbcf3c84d	-0.029758597
189	0x3d58d87e	0.052940838
190	0x3d9a3cd9	0.07531137
191	0x3d8f7b71	0.070059665
192	0x3cf31ebd	0.029677743
193	0x3d0d3b1f	0.03448021
194	0x3cc5f6cc	0.024165533
195	0x3dd50679	0.10401625
196	0x3c952afd	0.018208975
197	0xbba711ff	-0.005098581
198	0xbde1b13a	-0.110201314
199	0xbc06ee34	-0.008235503
200	0x3d51d2dd	0.051226486
201	0x3d96b11b	0.07357999
202	0xbd8f5ed1	-0.07000507
203	0x3cc07c16	0.023496669
204	0x3d50a490	0.05093819
205	0x3db87c0b	0.09008034
206	0x3bf9bf95	0.0076217153
207	0x3e1d28c1	0.15347578
208	0xbbf4e304	-0.0074733514
209	0x3e00f148	0.12592041
210	0x3d63107a	0.055435635
211	0x3de268cc	0.11055145
212	0xbb66d4fe	-0.0035222168
213	0x3dfa97a6	0.12235956
214	0xbcbc6ea1	-0.02300197
215	0xbd4556b7	-0.0481784
216	0x3da5d2f5	0.080968775
217	0x3d5acea6	0.05341973
218	0xbda1c466	-0.07898788
219	0xbd33b9a3	-0.04387821
220	0x3e1b3d9b	0.1516022
221	0xbe34f644	-0.17672068
222	0xbe02f5c4	-0.12789065
223	0xbd2e0ab8	-0.04249069
224	0x3dbae126	0.09124975
225	0xbcc9bbf3	-0.024625754
226	0xbbb6ba69	-0.005576421
227	0x3d27ad1c	0.040936574
228	0x3d2329b3	0.03983469
229	0x3da815a1	0.082072504
230	0x3dd0a3d8	0.10187501
231	0xbd8e19db	-0.06938525
232	0xbd397638	-0.045278758
233	0xbdcdb219	-0.10043735
234	0xbd1ad96b	-0.037805002
235	0x3d993cbc	0.07482287
236	0x3d45d1a5	0.048295636
237	0x3da0c9a7	0.07850962
238	0x3c5b5daa	0.0133890305
239	0xbd10db20	-0.035365224
240	0x3b8a7d33	0.0042263507
241	0xbd9f8145	-0.07788328
242	0x3d9d86bd	0.07691715
243	0x3d8c19fc	0.068408936
244	0x3d4c5601	0.049886707
245	0x3cd2d51f	0.02573639
246	0x3cd3249d	0.025774295
247	0x3c5d0b14	0.013491411
248	0x3cfb548b	0.030679962
249	0x3c2ae841	0.01043135
250	0xbd594177	-0.053040948
251	0x3d4cf509	0.05003837
252	0x3d1db071	0.038498346
253	0xbd5e99b1	-0.05434579
254	0x3dbea8a1	0.09309507
255	0x3d0ff12e	0.035142116

network.2.bias f4 [64]
0	0x3a926759	0.0011169716
1	0xbce3ffd1	-0.027831944
2	0x3d392b45	0.04520728
3	0x3d07623e	0.033052675
4	0xbc515bc4	-0.012778226
5	0xba91b921	-0.0011117795
6	0xbbd8f61f	-0.006621137
7	0x3da46736	0.080274984
8	0xbd0411dd	-0.0322436
9	0x3d7f80b8	0.062378615
10	0x3d6670f1	0.056260053
11	0x3ddd6c77	0.10811704
12	0xbd324b98	-0.043529123
13	0xbcf29f75	-0.02961705
14	0x3d1e7692	0.038687296
15	0xbc99d77a	-0.018779505
16	0xbbaa9281	-0.005205453
17	0x3bbc55c3	0.0057475283
18	0xbd1f0fbf	-0.038833376
19	0xbc7ae671	-0.015313731
20	0xbd078535	-0.03308602
21	0xbc8b4e49	-0.017005103
22	0xbd717089	-0.058945213
23	0xbcf1bd58	-0.029509231
24	0x3cbd6ec2	0.023124103
25	0x3d5af8b5	0.05345984
26	0xbd8b1e80	-0.06792927
27	0xbd728627	-0.05920997
28	0xbd5c2c2a	-0.053753056
29	0xbdd49024	-0.10379055
30	0xbd37b407	-0.04484942
31	0xb9c01a03	-0.00036640474
32	0xbd8a1cc5	-0.067437686
33	0x3d205bdf	0.039150115
34	0x3c959c58	0.018263027
35	0x3d0d911e	0.034562223
36	0x3d34dee5	0.04415788
37	0x3d7cdb95	0.061732847
38	0xbc21cf01	-0.009876014
39	0x3cc59df7	0.024123175
40	0x3cff37e0	0.031154573
41	0x3d43a6a4	0.047766343
42	0x3dc5b0a9	0.09652836
43	0xbd812c26	-0.06307249
44	0xbd4ccc0a	-0.049999274
45	0xbcc1eca7	-0.023672415
46	0x3db0b155	0.086275734
47	0x3d8d0806	0.06886296
48	0xbd203777	-0.039115395
49	0x3d6ad0fb	0.057328206
50	0x3d1809bf	0.03711867
51	0x3dcd58c6	0.10026698
52	0xbd119052	-0.035538025
53	0x3cccad18	0.024984881
54	0xbb4931ec	-0.0030699922
55	0xbc7010bc	-0.014652427
56	0xbc517fe9	-0.012786844
57	0x3cb8d7dc	0.022563867
58	0xbc0c8a6e	-0.008577926
59	0x3bcb0be4	0.006196486
60	0x3d86ffce	0.065917596
61	0xbc18aa5a	-0.009317959
62	0x3db3bf3a	0.08776708
63	0xbb6f4396	-0.003650879

network.4.weight f4 [32, 64]
0	0xbdc9460e	-0.09827815
1	0x3d3fcfbf	0.04682898
2	0x3db96f3b	0.09054419
3	0xbdabca0d	-0.083881475
4	0xbd010cd5	-0.03150638
5	0x3db87b39	0.09007878
6	0x3c8e3288	0.01735808
7	0x3e0a0d3c	0.13481611
8	0xbe1b81db	-0.15186255
9	0xbced3eca	-0.028960604
10	0x3d104d08	0.035229713
11	0x3c950090	0.018188745
12	0xbe13b174	-0.14423162
13	0xbd929155	-0.07156626
14	0xbc89f017	-0.016838117
15	0x3de3cea6	0.111233994
16	0xbe38cd23	-0.18047003
17	0x3e19e4df	0.15028714
18	0xbd0aaaf1	-0.03385443
19	0xbde2c889	-0.11073405
20	0x3ddefa8d	0.108876325
21	0x3d45093c	0.04810451
22	0xbc92dca1	-0.01792747
23	0xbb38f36d	-0.0028221265
24	0x3df6b463	0.12046125
25	0xbca70a26	-0.020390581
26	0xbd740e8e	-0.059584193
27	0xbd42df8f	-0.047576483
28	0x3e26da2c	0.16294163
29	0x3e2dc047	0.16967879
30	0xbdee928a	-0.11649044
31	0xbdb418ce	-0.087937936
32	0xbddbf1e0	-0.10739493
33	0x3d2f6146	0.042817377
34	0x3e07bcac	0.13255566
35	0xbd593dc7	-0.05303743
36	0x3e0d264c	0.1378414
37	0x3d5a4ad1	0.053294007
38	0xbd5a867b	-0.053350907
39	0x3e0f05e8	0.13967097
40	0x3db30347	0.087408595
41	0x3d36d102	0.04463292
42	0x3d8304d9	0.06397409
43	0xbdb3ac14	-0.08773056
44	0xbe4af45b	-0.19819777
45	0x3e1f1bbf	0.15537928
46	0xbde7c87c	-0.11317536
47	0x3cfc4e11	0.030798944
48	0x3db53137	0.088472776
49	0xbdabfa4d	-0.083973505
50	0x3e4e3aa1	0.20139553
51	0x3e101bd9	0.14073123
52	0x3d9b6628	0.07587844
53	0xbd89f251	-0.06735671
54	0x3e1af21f	0.15131424
55	0x3c166e1f	0.009181528
56	0xb9175279	-0.00014431206
57	0x3e54b9b2	0.20773962
58	0xbd947bb2	-0.072501555
59	0xbe51f847	-0.20504867
60	0xbe2b25cd	-0.16713639
61	0x3e21a803	0.15786748
62	0x3dabad2b	0.083826385
63	0x3cb0e8b3	0.021595335
64	0xbdc048cf	-0.09388887
65	0x3d918452	0.07105316
66	0xbc2c5437	-0.010518125
67	0x3d97114f	0.07376348
68	0xbdcf45f7	-0.101207666
69	0x3e14e1a7	0.14539205
70	0x3dda895e	0.10670732
71	0x3e183322	0.14863256
72	0x3de86922	0.113481775
73	0x3ccecb92	0.025243554
74	0x3e04d2af	0.12970994
75	0xbcb4daf5	-0.022077063
76	0x3d10c495	0.035343725
77	0xbde4fb1d	-0.111807086
78	0x3d852b07	0.065023474
79	0x3c523f4f	0.012832477
80	0xbe0f75f8	-0.14009845
81	0x3cc7f60d	0.024409318
82	0x3d9d242c	0.07672915
83	0x3cad7634	0.021174528
84	0x3cd1bb13	0.0256019
85	0xbbe9e097	-0.007137369
86	0xbd7b32a4	-0.06132759
87	0x3e420317	0.18946491
88	0xbda5f87a	-0.08104034
89	0x3dd84c11	0.105613835
90	0x3dd39139	0.103304334
91	0x3d1d171b	0.038352113
92	0x3e183cd0	0.14866948
93	0x3c356874	0.011072267
94	0x3d69fc67	0.057125475
95	0x3d9cd800	0.07658386
96	0x3dcd5be0	0.100272894
97	0xbcc87cef	-0.024473635
98	0x3c8c4306	0.017121803
99	0xbdb39aeb	-0.08769783
100	0xbd3168af	-0.043312725
101	0x3c90a9ef	0.017659156
102	0xbd14a9e6	-0.03629484
103	0x3d00e547	0.031468656
104	0xbd99a934	-0.07502976
105	0x3d2908fc	0.041268334
106	0xbd722435	-0.05911656
107	0xbd5db77d	-0.054130066
108	0xbd8035bf	-0.06260251
109	0x3de4b213	0.111667775
110	0x3cdc8161	0.026917161
111	0x3d8f1628	0.06986648
112	0xba80b45d	-0.0009819377
113	0x3d7b16dc	0.061301097
114	0xbcc1555f	-0.023600278
115	0xbe0ab057	-0.13543831
116	0xbccdaf86	-0.02510811
117	0xbe090207	-0.1337968
118	0x3dd142ce	0.1021782
119	0xbe55c336	-0.20875248
120	0xbd3d78e8	-0.046257883
121	0x3d6ff551	0.05858356
122	0x3d5dfd5a	0.054196693
123	0x3b6313a5	0.003464916
124	0x3e015365	0.12629469
125	0xbd29d594	-0.04146345
126	0x3e0506b3	0.12990837
127	0x3ce56322	0.028001372
128	0x3d0808ea	0.033211626
129	0x3d0e5dc5	0.034757394
130	0x3d9baa1d	0.07600806
131	0x3dc3d2a2	0.095616594
132	0x3cfb3a79	0.03066753
133	0x3dd4a1ce	0.10382424
134	0x3dbf4fcc	0.09341392
135	0x3d98ff27	0.074705414
136	0x3e0a17f1	0.13485695
137	0x3e05adfb	0.1305465
138	0x3e0dc650	0.13845181
139	0x3d128ade	0.035776965
140	0x3cbf0513	0.02331785
141	0xbd2bf73a	-0.04198382
142	0xbd2a4719	-0.04157171
143	0xbafa422c	-0.0019093207
144	0xbd187fd9	-0.0372313
145	0xbd29453f	-0.041325804
146	0xbcbdede9	-0.023184733
147	0x3e14cb14	0.14530593
148	0x3e47095f	0.19437169
149	0x3d85f9b4	0.06541768
150	0x3c959f47	0.018264426
151	0xbc990e7e	-0.018683668
152	0x3e16c12a	0.14722124
153	0x3b708b7c	0.0036704233
154	0x3dd7cea3	0.1053746
155	0x3dd50bdc	0.104026526
156	0xbd11c18d	-0.035584975
157	0xbd156685	-0.036474723
158	0xbc4e368d	-0.012586248
159	0xbd0a602d	-0.033783127
160	0x3dbe0751	0.09278739
161	0xbd74815d	-0.059693683
162	0xbda68c84	-0.0813227
163	0xbc80114f	-0.015633253
164	0x3caf7e8f	0.021422653
165	0x3e0c67fb	0.1371154
166	0xbdb48faf	-0.08816468
167	0x3df9359a	0.12168427
168	0xbdc8990d	-0.09794817
169	0x3d933128	0.0718711
170	0x3d89bf62	0.067259565
171	0xbd4a1574	-0.049336866
172	0xbd4886c5	-0.04895665
173	0xbe203c2f	-0.15647958
174	0x3ca196b5	0.019725183
175	0x3dd3a6e5	0.10334567
176	0xbd9f4419	-0.077766605
177	0xbd6f1e58	-0.058378547
178	0x3d37230e	0.044711165
179	0x3b8eb9ec	0.0043556597
180	0x3da900bd	0.08252094
181	0xbe1f6733	-0.15566711
182	0x3defe7fe	0.11714171
183	0xbcab9228	-0.020943716
184	0xb91dc26c	-0.00015045115
185	0xbbf5b4ce	-0.0074983602
186	0x3e4faa32	0.20279768
187	0xbb81e11a	-0.003963602
188	0x3bec32a5	0.0072081857
189	0xbdf98838	-0.12184185
190	0xbdb0a55a	-0.08625288
191	0x3d7ecb1e	0.062205426
192	0x3c4c7e52	0.012481289
193	0xbd8bc0c1	-0.06823874
194	0xbdb4d5b0	-0.0882982
195	0x3da1848b	0.07886609
196	0x3df96b5e	0.12178682
197	0x3daf92b3	0.085729025
198	0xbdc25f1e	-0.094907984
199	0xbd665ba1	-0.056239728
200	0x3d6a00b4	0.057129577
201	0xbdb30eaf	-0.08743035
202	0x3c442009	0.011970528
203	0xbd8e8039	-0.0695805
204	0x3db26865	0.08711318
205	0x3ce5234d	0.027970934
206	0xba8fd678	-0.0010973951
207	0xbe0d52c0	-0.13801098
208	0xbcb63f15	-0.022246877
209	0xbce29497	-0.027658744
210	0xbcc8f5f1	-0.024531337
211	0x3a60bc62	0.0008572993
212	0xbd729e5b	-0.05923305
213	0x3b9185ca	0.0044409977
214	0xbd7a252a	-0.0610706
215	0xbd54ee64	-0.05198516
216	0xbdf000d8	-0.11718911
217	0x3c1f2a86	0.009714728
218	0xbe333d47	-0.17503844
219	0x3da7cd7f	0.08193492
220	0x3d8e7db7	0.06957572
221	0xbc8072c4	-0.015679725
222	0xbd897490	-0.06711686
223	0x3d881bdb	0.06645938
224	0x3db29b33	0.08721008
225	0x3d463b91	0.04839665
226	0xbd4b157b	-0.049581032
227	0xbd83c38d	-0.06433783
228	0xbc88fa07	-0.016720785
229	0xbc968094	-0.018371858
230	0x3dfae1f5	0.12250129
231	0x3babb6f2	0.0052403146
232	0x3d0f4862	0.03498114
233	0x3d92a702	0.071607605
234	0x3de2b7d0	0.11070216
235	0xbd95089c	-0.07277033
236	0x3dd5ac1e	0.104332194
237	0x3dc697e0	0.096969366
238	0x3db58667	0.08863526
239	0xbd4ab272	-0.049486585
240	0x3dc03e1a	0.09386845
241	0x3dc412db	0.09573909
242	0xbd52aa82	-0.05143214
243	0x3df97d9e	0.12182163
244	0x3da748d6	0.08168189
245	0x3c0e4199	0.008682632
246	0xbdc736bd	-0.097272374
247	0xbd5d0ca3	-0.05396713
248	0x3c952c3f	0.018209575
249	0x3d3faa3b	0.046793204
250	0xbe0f015e	-0.13965365
251	0xbc09bb69	-0.0084064985
252	0x3e07075b	0.131864
253	0x3c01e481	0.007928015
254	0x3da948e7	0.08265858
255	0xbe02172a	-0.12704149

network.4.bias f4 [32]
0	0x3d84c8ce	0.06483613
1	0xbdc01115	-0.09378258
2	0x3e03f062	0.12884668
3	0xbd8efefb	-0.069822274
4	0x3d41deb7	0.047331538
5	0xbd904c97	-0.07045858
6	0xbd95207b	-0.07281586
7	0xbd7fcbe0	-0.06245029
8	0x3d823acf	0.06358873
9	0x3e05931c	0.13044399
10	0x3dddf88e	0.10838424
11	0x3e192278	0.14954555
12	0xbdd18d55	-0.10232035
13	0xbd50df26	-0.05099406
14	0x3c52ea89	0.0128733
15	0xbdaa6792	-0.08320536
16	0x3e165990	0.14682603
17	0x3d7d55cb	0.061849397
18	0xbda2609b	-0.07928582
19	0xbd4feca4	-0.050762787
20	0x3dc1041a	0.094246104
21	0x3a173171	0.000576756
22	0xbcb3a040	-0.021927
23	0x3d129cee	0.03579419
24	0xbdc02410	-0.093818784
25	0x3dae541a	0.08512135
26	0xbc6964b7	-0.014245204
27	0x3e1592a7	0.14606725
28	0x3e15518b	0.14581887
29	0xbc53151a	-0.012883449
30	0x3d642264	0.05569686
31	0x3dc505ee	0.096202716

network.6.weight f4 [3, 32]
0	0x3db64d3e	0.089014515
1	0xbdcd3542	-0.10019924
2	0xbdabfd39	-0.08397908
3	0xbe3957dc	-0.18099922
4	0x3dd6422f	0.10461842
5	0x3e6a4d87	0.22881137
6	0x3dd1eb42	0.1024995
7	0x3e6757eb	0.22592132
8	0x3e8076cb	0.25090632
9	0x3e547104	0.20746237
10	0x3c87848c	0.016542695
11	0xbca2f65c	-0.019892864
12	0xbdd68568	-0.10474664
13	0xbe8a6bc6	-0.2703535
14	0xbd7b6632	-0.061376758
15	0xbccafb62	-0.024778072
16	0x3d7b681c	0.061378583
17	0xbd965a56	-0.07341449
18	0xbd54ed2e	-0.051984005
19	0x3d99163d	0.07474945
20	0xbe1b7a5d	-0.15183397
21	0xbdaa4785	-0.083144225
22	0x3e2ceba2	0.16886762
23	0x3debb079	0.11508269
24	0xbb0c2200	-0.002138257
25	0x3ddbda01	0.1073494
26	0x3e72b0d1	0.23700263
27	0x3e4f219c	0.20227665
28	0x3e3575f4	0.17720777
29	0xbcf78309	-0.03021385
30	0x3d93dcf7	0.0721988
31	0x3e25fcb4	0.1620968
32	0xbd03aa93	-0.032145094
33	0xbe2f92f0	-0.17145896
34	0xbe138412	-0.1440585
35	0x3df6bf9e	0.12048267
36	0xbe20c264	-0.15699154
37	0x3c9de139	0.019272434
38	0x3d353ad6	0.044245563
39	0x3cc8fcfe	0.024534699
40	0x3d6b3711	0.057425562
41	0xbe9ac232	-0.30226284
42	0xbdede12b	-0.11615213
43	0x3e8a76a3	0.27043638
44	0x3e75fba5	0.24021776
45	0x3db0d912	0.08635153
46	0xbe30e5a4	-0.17275101
47	0xbe0b56e1	-0.1360736
48	0x3e24295a	0.160314
49	0x3e747f0d	0.23876591
50	0x3e1c619a	0.15271607
51	0xbe577dcb	-0.2104408
52	0x3e135c1d	0.14390607
53	0xbdff4ebc	-0.12466189
54	0xbe31fdbf	-0.17381953
55	0x3d2c2e7c	0.04203652
56	0x3c33e6d0	0.010980323
57	0x3da28ee0	0.079374075
58	0xbe873f5c	-0.26415527
59	0xbd9618d1	-0.07328952
60	0x3e5e0786	0.21682557
61	0xbd4f016d	-0.05053847
62	0x3dd7b080	0.105317116
63	0x3e43bd58	0.19115198
64	0xbe643f2c	-0.22289723
65	0x3dba1db3	0.09087696
66	0x3e383d16	0.17992052
67	0xbb250004	-0.0025177011
68	0x3dc2f851	0.09520019
69	0xbde3367e	-0.11094378
70	0x39f423f1	0.00046566085
71	0xbea7899c	-0.32722175
72	0xbe0e4968	-0.1389519
73	0x3de13a04	0.10997394
74	0xbe55767c	-0.2084598
75	0x3de09ba4	0.10967186
76	0x3e0b055a	0.1357626
77	0x3e8121ad	0.25221005
78	0x3e0035b4	0.12520486
79	0x3d864c83	0.06557562
80	0xbe2c33dd	-0.1681666
81	0x3d28db1e	0.04122459
82	0x3d22f052	0.03977997
83	0xbc93f07f	-0.018059013
84	0xbde19a75	-0.110157885
85	0x3e2e9c6e	0.1705186
86	0xbe0db53b	-0.13838665
87	0xbe2b1a67	-0.1670929
88	0x3da575aa	0.08079083
89	0xbe32b939	-0.1745347
90	0xbbbc344e	-0.00574354
91	0xbe2e7e7b	-0.17040436
92	0xbe19cb30	-0.15018916
93	0x3de5c37e	0.11218928
94	0xbe3631b7	-0.17792402
95	0xbe97a828	-0.2962048

network.6.bias f4 [3]
0	0x3e3185a1	0.17336132
1	0xbdc7cd9d	-0.097560145
2	0x3b7274f6	0.0036995984

network.0.weight f4 [128, 30]
0	0xbdfad4e7	-0.12247639
1	0xbdf9e402	-0.12201692
2	0xbd43ed6c	-0.047833845
3	0xbd708ae0	-0.05872619
4	0x3d8e33e5	0.06943492
5	0xbd8847c8	-0.06654316
6	0x3e37df20	0.17956209
7	0xbd9857e4	-0.07438639
8	0x3d351332	0.04420776
9	0xbc5167d4	-0.012781102
10	0x3d917c63	0.07103803
11	0xbdc10c5b	-0.09426185
12	0xbe60bad0	-0.21946263
13	0xbd052b83	-0.0325122
14	0x3dce53df	0.10074591
15	0xbe56b789	-0.2096845
16	0xbdcd5aeb	-0.10027107
17	0xbe92440f	-0.2856755
18	0x3e904ae8	0.2818215
19	0xbea4d6eb	-0.3219522
20	0x3e62f7b7	0.22164808
21	0x3efa7092	0.4891401
22	0xbdb08a25	-0.08620099
23	0xbe9e028a	-0.30861312
24	0x3e205fd2	0.15661553
25	0xbc523000	-0.012828827
26	0xbdf8485f	-0.12123179
27	0xbd0004cc	-0.031254575
28	0xbe1ee20f	-0.15515922
29	0xbd0fef84	-0.03514053
30	0xbcf5e6de	-0.030017313
31	0xbd20c7b2	-0.039252944
32	0x3d97a1be	0.07403897
33	0xbc3d43f7	-0.011551849
34	0x3d11a186	0.03555443
35	0xbd923483	-0.07138922
36	0x3e29599a	0.16538087
37	0x3e0f2cf0	0.13981986
38	0xbe2fbfe3	-0.17163043
39	0xbd97cc12	-0.0741197
40	0x3e0441a6	0.12915668
41	0x3dcce138	0.100038946
42	0xbdbd2d21	-0.09237123
43	0x3eac15e9	0.33610466
44	0xbe8e600d	-0.27807656
45	0x3ee6e3c8	0.45095658
46	0x3ea256c3	0.3170682
47	0xbe2a0c3a	-0.16606227
48	0xbe45b38e	-0.19306776
49	0xbede41a6	-0.4340946
50	0xbc254bbf	-0.01008886
51	0x3d6584eb	0.056034964
52	0xbdc461f4	-0.095889956
53	0xbda842cc	-0.082158655
54	0xbdc0f74a	-0.09422167
55	0xbdf74f3a	-0.12075658
56	0xbdc9c447	-0.0985189
57	0x3b9dfa00	0.004821062
58	0x3d9644bc	0.07337329
59	0xbcb77fe0	-0.022399843
60	0x3e15f84f	0.14645503
61	0xbd9f4fc3	-0.07778885
62	0x3d6230e0	0.055222392
63	0x3dd6d53b	0.10489889
64	0xbd572fcf	-0.05253583
65	0x3e57345b	0.21016066
66	0x3e6ded1b	0.2323498
67	0xbe6ab9b2	-0.229224
68	0x3e4eeabd	0.20206733
69	0xb9987a9a	-0.00029083045
70	0x3e8c3e45	0.27391258
71	0xbe1d26de	-0.15346858
72	0xbd091431	-0.03346652
73	0x3d824409	0.06360633
74	0x3e0bcc8a	0.13652244
75	0xbe9288e0	-0.28620052
76	0xbdd2dfd7	-0.102966
77	0xbdd0f856	-0.10203616
78	0x3e29adc7	0.16570197
79	0xbe3bba16	-0.18332705
80	0xbce6876f	-0.028140752
81	0xbd6a88de	-0.057259433
82	0x3e8e99e1	0.27851775
83	0xbef7c08b	-0.48389086
84	0xbe07eca0	-0.13273859
85	0x3e01a5d8	0.1266092
86	0xbdd6dc63	-0.10491254
87	0x3d3cc9ec	0.046091005
88	0x3e07e510	0.13270974
89	0x3e2ea0ee	0.17053577
90	0x3cf4ca9a	0.029881764
91	0x3e90779f	0.28216264
92	0x3daefddc	0.085445136
93	0xbd16ae15	-0.03678711
94	0x3db4e8c8	0.08833462
95	0x3ea00215	0.31251588
96	0x3d0fbcbf	0.03509211
97	0x3d78fee2	0.06078995
98	0x3d827c83	0.06371405
99	0x3cd024c5	0.025408158
100	0x3e660979	0.22464551
101	0xbdf6b5b5	-0.120463766
102	0x3e889a33	0.26680145
103	0xbd6ae055	-0.057342846
104	0x3ddcb773	0.10777178
105	0xbd766856	-0.060158096
106	0x3db7b0e8	0.08969289
107	0x3e0e9e10	0.13927484
108	0xbc8a1bb4	-0.016858913
109	0x3e5fea49	0.21866716
110	0x3e1958f6	0.14975342
111	0x3e7dbd4b	0.24779241
112	0x3d666890	0.056252062
113	0x3e5ec00d	0.21752949
114	0x3d2c0390	0.041995585
115	0x3be11c80	0.0068698525
116	0xbb56cf00	-0.003277719
117	0x3e10d372	0.1414316
118	0xbda530b9	-0.08065934
119	0x3de52bdc	0.11190006
120	0x3e25689e	0.1615319
121	0x3e2969aa	0.16544214
122	0x3e1c6ba4	0.15275437
123	0x3dca6744	0.098829776
124	0xbd530ad6	-0.051524006
125	0x3e5f6a1f	0.21817826
126	0x3e930ce4	0.28720772
127	0xbb3c67fc	-0.0028748503
128	0x3e9270b2	0.28601605
129	0x3d0ef15a	0.03489814
130	0x3e8b4113	0.27198085
131	0x3cfebfaa	0.031097252
132	0x3e127168	0.14301074
133	0x3e0bccbd	0.1365232
134	0x3ea099dd	0.31367388
135	0xbdf10c86	-0.11769967
136	0x3da5f7cf	0.08103906
137	0x3e169d01	0.1470833
138	0x3e5100c9	0.20410456
139	0xbc375918	-0.011190675
140	0x3e0a3b4f	0.13499187
141	0x3d579920	0.052636266
142	0x3d8d39c4	0.068957835
143	0xbe3c9b10	-0.18418527
144	0xbe2153f7	-0.15754686
145	0x3dbbb01c	0.091644496
146	0x3e3a8192	0.1821349
147	0xbd894682	-0.067029014
148	0x3e10307e	0.14080998
149	0x3cdeccd8	0.027197286
150	0x3c7bce18	0.015368961
151	0x3e31b837	0.17355429
152	0x3df5c7b2	0.120009795
153	0xbe0334e6	-0.12813148
154	0x3e1f0064	0.15527493
155	0xbe38e633	-0.18056564
156	0xbe5225ad	-0.20522185
157	0xbda05fe9	-0.078307934
158	0xbe25be4b	-0.16185872
159	0xb9253c48	-0.00015758083
160	0x3cbe05d9	0.023196148
161	0xbdb0232d	-0.08600459
162	0x3e037fe0	0.12841749
163	0xbe00b1bb	-0.12567799
164	0xbe5ec36a	-0.21754232
165	0x3e2da13a	0.16956034
166	0x3e6eecee	0.23332569
167	0x3db4afc9	0.08822591
168	0x3b05dd0f	0.002042595
169	0xbd911246	-0.070835635
170	0x3d4d4887	0.050117996
171	0x3e8dc5c9	0.2768996
172	0x3e861244	0.2618581
173	0xbdc801c4	-0.09765962
174	0x3d118e1c	0.035535917
175	0x3dd6bdf4	0.104854494
176	0x3e022280	0.12708473
177	0x3d01efac	0.03172271
178	0xbe11e192	-0.14246204
179	0x3e29f106	0.1659585
180	0x3c9a714c	0.018852852
181	0xbd9ac414	-0.0755693
182	0xbda41770	-0.08012283
183	0xbcaef221	-0.02135569
184	0x3d86b50c	0.06577501
185	0x3e6f8667	0.23391114
186	0xbdf7c822	-0.12098719
187	0x3d7f0615	0.06226166
188	0x3d27049e	0.040775888
189	0x3d88d9e7	0.066821866
190	0xbe03a090	-0.12854218
191	0x3e300218	0.17188299
192	0x3e401851	0.18759276
193	0xbd37d143	-0.044877302
194	0xbe01fc14	-0.12693816
195	0xbd3d66ca	-0.046240605
196	0xbe396795	-0.1810592
197	0x3dc02315	0.09381691
198	0x3d859f87	0.06524568
199	0x3f106c20	0.56414986
200	0xbd3e92e4	-0.046526805
201	0x3eb03b4f	0.3442025
202	0x3db31b4b	0.0874544
203	0x3d1f6013	0.038909983
204	0xbd9517e3	-0.07279947
205	0xbdebad8b	-0.1150771
206	0x3e03264c	0.12807578
207	0x3da31a64	0.07964018
208	0x3e293db0	0.16527438
209	0x3e0db532	0.13838652
210	0xbd626f02	-0.055281647
211	0xbd710c4a	-0.05884961
212	0xbce9e28e	-0.028550413
213	0x3d62cdc8	0.05537203
214	0x3ce3ecda	0.0278229
215	0x3d6760e5	0.05648889
216	0x3e46e8d0	0.19424748
217	0x3e872a8e	0.26399654
218	0x3d3b4417	0.045719232
219	0xbe843f17	-0.25829384
220	0x3b93653d	0.0044981525
221	0xbd0680d7	-0.032837715
222	0xbd103ef1	-0.035216276
223	0x3e753eae	0.23949692
224	0x3e2afcf6	0.1669806
225	0x3e28fd07	0.16502772
226	0x3e93ffb2	0.28906018
227	0xbd9a238e	-0.07526313
228	0xbcea33b4	-0.028589107
229	0xbe960ac0	-0.29305077
230	0x3c329f4a	0.010902235
231	0x3e1e6dd6	0.15471587
232	0xbd94c548	-0.07264191
233	0x3dbb7441	0.09153033
234	0x3dd045f4	0.101695925
235	0xbd6aa268	-0.05728379
236	0x3daea674	0.08527842
237	0xbe19b56a	-0.1501061
238	0xbc1598b0	-0.009130642
239	0x3bb061e0	0.0053827614
240	0x3d6d328d	0.057909537
241	0x3e0a7926	0.13522777
242	0xbe34e82f	-0.17666696
243	0xbc91d8ce	-0.017803576
244	0xbdd55b05	-0.10417751
245	0x3bd93112	0.006628164
246	0xbe8083c0	-0.25100517
247	0x3cc5d977	0.024151547
248	0xbb1d6ecb	-0.0024022337
249	0x3dc25858	0.094895065
250	0xbe3a160f	-0.18172477
251	0x3e176355	0.14783986
252	0x3d71feed	0.059081007
253	0x3bad75fd	0.0052936063
254	0xbe87ec3c	-0.2654742
255	0x3d94d240	0.072666645

network.0.bias f4 [128]
0	0x3e70bb48	0.23508942
1	0xbe44ecc9	-0.19230951
2	0xbe0bbb58	-0.13645685
3	0xbe22e0c3	-0.15906052
4	0x3df6e189	0.12054736
5	0x3e459d64	0.19298321
6	0x3e2867ef	0.16445898
7	0xbe5217cc	-0.2051689
8	0x3dacd2eb	0.08438667
9	0x3e39a623	0.18129782
10	0xbbb6963c	-0.0055721086
11	0xbe0d8e4a	-0.1382381
12	0x3dd8ea16	0.10591523
13	0x3e235602	0.15950778
14	0xbdbeb7bc	-0.09312388
15	0x3e37f19e	0.17963263
16	0xbd5ff788	-0.054679424
17	0x3e79bee2	0.24389222
18	0x3e7cd4d2	0.2469056
19	0x3cd8bd6e	0.026457515
20	0x3e07ea54	0.13272983
21	0x3cfc96ff	0.03083372
22	0xbe1db9a7	-0.15402852
23	0xbde26608	-0.11054617
24	0xbd9835b7	-0.0743212
25	0xbe467e78	-0.19384181
26	0x3de8590d	0.1134511
27	0x3e2001cd	0.15625687
28	0x3e5450ed	0.20733996
29	0xbc23ef36	-0.010005763
30	0xbd920a7d	-0.07130907
31	0xbc5e3015	-0.013561268
32	0xbdb3eb8b	-0.08785161
33	0x3e438cca	0.19096676
34	0x3e60c7ae	0.21951172
35	0xbdcd776d	-0.10032544
36	0x3e0e1a89	0.1387731
37	0x3e83fae5	0.25777355
38	0x3e61655f	0.22011326
39	0xbd3bc96b	-0.045846384
40	0x3e1ee563	0.15517192
41	0xbd28a758	-0.041175216
42	0xbe2d44dc	-0.16920799
43	0x3e2f87ca	0.17141643
44	0x3bc1775a	0.0059041204
45	0xbe8bd1e6	-0.27308577
46	0xbd5c68e1	-0.053810958
47	0x3cab0b4b	0.020879408
48	0xbe0fd5d6	-0.14046416
49	0x3e380b11	0.17972971
50	0x3e4ea3a7	0.20179616
51	0x3eab2aaa	0.33430988
52	0x3e2b413a	0.167241
53	0x3dc1ef99	0.09469528
54	0x3dc517f2	0.09623708
55	0xbd520fee	-0.051284723
56	0x3de42d72	0.111414805
57	0x3e025233	0.12726669
58	0x3e04e600	0.12978363
59	0x3d9a7290	0.07541382
60	0x3e0c0e24	0.13677269
61	0x3e9b01cb	0.30274805
62	0x3dcce847	0.10005241
63	0x3d230ce0	0.0398072
64	0xbd93a134	-0.072084814
65	0xbde504fe	-0.11182593
66	0xbe2a86fe	-0.16653058
67	0x3c3d641a	0.011559511
68	0x3e4396b8	0.19100463
69	0x3e09b7ac	0.13448972
70	0x3d91b107	0.071138434
71	0x3e4e717e	0.20160481
72	0xbc50efc7	-0.01275248
73	0x3da7927e	0.08182238
74	0x3e5c6f73	0.2152689
75	0x3e25c4bc	0.1618833
76	0xbea64dbc	-0.32481182
77	0x3cb85a9d	0.022504145
78	0x3ce525e7	0.027972175
79	0xbdbfce55	-0.093655266
80	0x3db69cb3	0.08916607
81	0xbe610ec8	-0.21978295
82	0x3c3a053d	0.011353788
83	0x3e3dfdc1	0.1855383
84	0xbd854536	-0.065073416
85	0xbc83d288	-0.0160916
86	0x3d5ebe4d	0.054380704
87	0x3e405b86	0.18784913
88	0x3e488d20	0.19585085
89	0xbd10e5ef	-0.03537553
90	0xbe680e65	-0.22661741
91	0x3c71935d	0.014744607
92	0x3ddc5e9b	0.10760232
93	0x3e6de179	0.23230542
94	0x3e250b20	0.16117525
95	0xbda58db7	-0.080836706
96	0x3e15b245	0.14618786
97	0x3e76d0fa	0.24103156
98	0xbbcaf01a	-0.006193173
99	0x3e6e4148	0.2326709
100	0xbdb5e70c	-0.08881959
101	0x3dd8407e	0.10559176
102	0x3b5e84d8	0.0033953693
103	0xbbcf454b	-0.006325399
104	0x3e512350	0.20423627
105	0x3df3a019	0.118957706
106	0xbe386920	-0.18008852
107	0xbb8c22e2	-0.0042766193
108	0x3e1a9a86	0.15098009
109	0xbdbd99e7	-0.0925787
110	0xbe4e3414	-0.20137054
111	0xb7da5c70	-2.603067e-05
112	0x3eac0804	0.33599865
113	0x3d8db10f	0.06918537
114	0x3de1303a	0.109955266
115	0x3e550bcd	0.20805283
116	0xbe26ff69	-0.16308369
117	0x3e6ab0fe	0.2291908
118	0xbec35067	-0.3814728
119	0x3de40922	0.111345544
120	0x3e8eb8cf	0.27875373
121	0xbe241ec9	-0.16027369
122	0x3db35d89	0.08758075
123	0xbe62ef4f	-0.22161601
124	0x3cf59c6c	0.029981814
125	0x3e4f1c95	0.20225747
126	0x3cd03ce5	0.025419662
127	0x3d850784	0.06495574

network.2.weight f4 [64, 128]
0	0x3c92eddd	0.017935688
1	0x3c1e6690	0.0096680075
2	0xbd064e08	-0.03278926
3	0xbc51cd72	-0.01280533
4	0xbda16139	-0.07879872
5	0x3ca2c0c2	0.019867305
6	0xbd82e624	-0.06391552
7	0xbe196ac0	-0.14982128
8	0x3b2ff601	0.002684951
9	0x3d559a25	0.052148957
10	0x3d75fef6	0.060057603
11	0x3d8d7000	0.06906128
12	0xbdd34d34	-0.1031746
13	0xbe361973	-0.17783146
14	0xbce0992b	-0.027416786
15	0xbcad5a89	-0.021161335
16	0x3a8b759a	0.0010639906
17	0x3c13f283	0.009029987
18	0x3c3bba7d	0.0114580365
19	0xbd03e752	-0.032203026
20	0xbd8e12ff	-0.06937217
21	0x3c41c835	0.011827518
22	0xbd6d66df	-0.057959434
23	0x3bcb07fe	0.006196021
24	0xbda614ec	-0.08109459
25	0xbdc4892a	-0.095964745
26	0xbd79b97b	-0.060967904
27	0xbced877f	-0.028995274
28	0xbce34a6e	-0.027745452
29	0x3d4a7e56	0.04943689
30	0x3d6d6919	0.057961557
31	0xbda22d20	-0.07918763
32	0x3c21415a	0.009842241
33	0x3b364507	0.002781214
34	0x3d68f3bc	0.05687307
35	0xbe023ee2	-0.127193
36	0xbde54d98	-0.111964405
37	0x3ce9333c	0.028466813
38	0xbe114b69	-0.14188923
39	0xbd67bd2c	-0.056576893
40	0x3d245706	0.040122055
41	0xbe23c2c4	-0.15992266
42	0x3d68f210	0.056871474
43	0x3bb77195	0.005598257
44	0x3cffbfaf	0.031219332
45	0xbcbce0c4	-0.023056395
46	0x3ce2831e	0.027650412
47	0xbdf060cd	-0.11737213
48	0xbda03ca6	-0.07824068
49	0x3d3c1f94	0.045928553
50	0xbc1bac68	-0.009501554
51	0xbd85fec2	-0.06542732
52	0x3bfcb8ed	0.0077124746
53	0x3ce0123e	0.027352449
54	0xbd82a6cf	-0.063794725
55	0xbe5f7fef	-0.21826147
56	0xbe337d26	-0.17528209
57	0xbda75f59	-0.08172483
58	0x3d9bf27b	0.07614609
59	0xbdc469fa	-0.09590526
60	0x3d15a2d6	0.036532246
61	0xbdd80f20	-0.1054976
62	0xbe6ad875	-0.22934134
63	0xbbe304b6	-0.006928052
64	0xbc658b12	-0.014010208
65	0xbd815cb0	-0.06316507
66	0xbddafdd0	-0.10692942
67	0xbd098006	-0.03356936
68	0x3d6e26c9	0.058142457
69	0xbca1a71e	-0.019733008
70	0xbdb07579	-0.08616156
71	0x3d836ec0	0.06417608
72	0xbe7f3c2a	-0.24925295
73	0x3a98207c	0.0011606361
74	0xbd07a940	-0.033120394
75	0x3c841aec	0.016126119
76	0xbe16bb3d	-0.14719863
77	0xbe043b09	-0.12913145
78	0xbcc7e66b	-0.024401864
79	0xbd32e3f5	-0.043674428
80	0xbd631e91	-0.055449072
81	0x3cf12531	0.02943668
82	0xbda7c342	-0.08191539
83	0xbc521139	-0.012821489
84	0x3dcf09aa	0.10109265
85	0xbe2a3f88	-0.16625798
86	0xbda4f63c	-0.08054778
87	0xbcf026d9	-0.029315399
88	0xbddf8e48	-0.1091581
89	0x3de2dfa0	0.11077809
90	0x3d8a9cd9	0.067681976
91	0x3bd6c350	0.006554045
92	0x3b6a40c3	0.0035744167
93	0x3ab5e5af	0.0013877655
94	0x3caf721f	0.021416722
95	0x3d755cad	0.059902836
96	0xbe367c3b	-0.17820828
97	0x3d1a5505	0.037678737
98	0xbd465e10	-0.04842955
99	0x3bebe7c0	0.0071992576
100	0xbe2f06e0	-0.17092466
101	0x3d09f986	0.03368523
102	0x3c89dada	0.01682799
103	0xbde13bcb	-0.10997733
104	0xbd6c8755	-0.05774625
105	0xbd3e3c2d	-0.046444107
106	0x3cde6c56	0.027151268
107	0xbd8a1bcc	-0.06743583
108	0xbe4bb5b5	-0.19893534
109	0x3be8c4b1	0.0071035256
110	0xbdbf6ccc	-0.09346923
111	0xba9bf4ec	-0.0011898554
112	0xbe05bef7	-0.13061129
113	0x3d9c1a62	0.076222196
114	0xbb47d5b8	-0.0030492377
115	0x3d7c9dab	0.0616738
116	0x3d20247f	0.039097305
117	0xbd726639	-0.05917952
118	0x3b98d3a2	0.0046639005
119	0xbcb5beb8	-0.022185668
120	0xbd4169ce	-0.047220044
121	0xbd2a88d3	-0.041634392
122	0x3d1cec89	0.038311515
123	0xbd5b5002	-0.0535431
124	0x3d87253d	0.065988995
125	0x3c48eeaa	0.012263933
126	0xbd4e0fb3	-0.05030794
127	0xbd8eb571	-0.06968201
128	0x3e2ce174	0.16882879
129	0x3e40e8ec	0.18838853
130	0xbe584034	-0.21118242
131	0xbdcdadd0	-0.10042918
132	0xbe9ab428	-0.30215573
133	0x3e7d76d2	0.24752358
134	0xbdd18863	-0.10231092
135	0x3ee99588	0.45621896
136	0x3caceeb9	0.021109926
137	0x3e3824b5	0.17982753
138	0x3d9ab7b8	0.07554573
139	0x3c8fc8ff	0.017551897
140	0x3d8082c5	0.06274942
141	0xbd21afa6	-0.039474152
142	0x3e0c6ddb	0.13713782
143	0x3e356306	0.17713556
144	0x3e7671ee	0.24066898
145	0xbd4a0a43	-0.049326193
146	0x3e7eaa5c	0.24869674
147	0x3e345b3c	0.17612928
148	0xbe64f592	-0.22359303
149	0x3e8eafa4	0.27868378
150	0x3d1b3b79	0.037898514
151	0x3eb79ae2	0.35860354
152	0x3d5b107e	0.053482525
153	0xbe2f48b5	-0.1711758
154	0xbe030109	-0.12793364
155	0xbe7d1327	-0.24714337
156	0x3ea219e7	0.31660387
157	0x3dec1ac8	0.115285456
158	0xbe0c61df	-0.1370921
159	0xbd2f15b9	-0.042745326
160	0x3e15bffc	0.14624017
161	0x3bf8050e	0.007568962
162	0x3db9d21a	0.09073277
163	0x3be36288	0.006939236
164	0xbe51e278	-0.20496547
165	0xbc0223d2	-0.007943111
166	0x3d025b67	0.03182545
167	0xbc8185f1	-0.015810939
168	0x3e0acf97	0.13555752
169	0xbe83ef76	-0.25768632
170	0x3e7fc5f9	0.24977864
171	0x3deee585	0.11664871
172	0xbb28e30c	-0.0025770096
173	0x3d2d3502	0.04228688
174	0x3e4a647b	0.19764893
175	0xbe0beb11	-0.1366389
176	0xbd4e6b8a	-0.050395526
177	0x3d900957	0.070330314
178	0x3d7481a3	0.059693944
179	0x3e158016	0.14599642
180	0x3e735b6a	0.2376534
181	0x3e06814e	0.13135263
182	0x3cbccfcc	0.023048304
183	0x3d9d8760	0.07691836
184	0xbd74e175	-0.059785325
185	0x3d4a33e4	0.049365893
186	0x3e2d26c3	0.16909318
187	0x3d95a4c5	0.07306818
188	0x3d52cd09	0.051465068
189	0xbcd9d534	-0.026590921
190	0x3e8bdf0d	0.27318612
191	0x3d58c225	0.052919526
192	0x3e52f4cf	0.206012
193	0x3de9f300	0.11423302
194	0x3e192822	0.14956716
195	0xbd970564	-0.07374075
196	0x3e5795b8	0.21053207
197	0x3e1ac766	0.15115127
198	0x3d085f24	0.03329386
199	0xbe917a8f	-0.28413817
200	0x3e601dc7	0.21886359
201	0x3e4d4c59	0.20048656
202	0x3d3573b1	0.044299785
203	0x3ddcc8b6	0.1078047
204	0x3ec432d5	0.38320032
205	0xbdd81d3e	-0.105524525
206	0x3e33cbf8	0.17558277
207	0xbe896778	-0.26836753
208	0xbe49d51c	-0.19710201
209	0xbc16afb8	-0.009197168
210	0x3d2a5011	0.041580264
211	0x3d8cd2b1	0.06876124
212	0x3e4ffec5	0.2031203
213	0x3d3a4853	0.04547913
214	0x3e6c75b1	0.2309177
215	0x3e016973	0.12637882
216	0x3ecfc7fd	0.40582266
217	0x3e655be6	0.22398338
218	0x3da71722	0.08158709
219	0xbe813881	-0.25238422
220	0xbcac5aa4	-0.021039315
221	0x3d99615b	0.07489272
222	0x3e435057	0.19073616
223	0x3d8ef379	0.069800325
224	0xbe7eaa70	-0.24869704
225	0xbe9511fa	-0.29115278
226	0x3d592db4	0.0530221
227	0x3dc15b55	0.09441248
228	0x3e2f12da	0.17097035
229	0x3e22b910	0.15890908
230	0xbe54a2f4	-0.20765287
231	0x3d1bc328	0.038027912
232	0x3dcf3b44	0.10118726
233	0xbe6e3252	-0.23261383
234	0xbdd058bd	-0.101731755
235	0x3e3b139a	0.18269196
236	0xbe8fe132	-0.28101498
237	0x3cf22c94	0.029562272
238	0xbc9b46b0	-0.018954605
239	0x3e581587	0.21101962
240	0xbc609a2d	-0.013708633
241	0x3e65da53	0.22446565
242	0x3e502fd5	0.20330746
243	0x3e049623	0.12947898
244	0xbe834826	-0.25640982
245	0x3e0b24ec	0.13588303
246	0x3f05957b	0.52181214
247	0x3e5ead34	0.21745759
248	0xbe66a66b	-0.22524421
249	0x3e553002	0.20819095
250	0x3e1c14d6	0.15242323
251	0xbdb926c2	-0.090405956
252	0xbd1eded1	-0.038786713
253	0x3e140d6a	0.14458242
254	0xbd8e17f0	-0.069381595
255	0x3d7665b1	0.060155574

network.2.bias f4 [64]
0	0x3d5f424f	0.054506596
1	0x3d2797c2	0.040916212
2	0xbd84408e	-0.06457625
3	0x3e1c7e5b	0.15282576
4	0x3c9e9522	0.019358221
5	0x3e2d1499	0.16902389
6	0x3e27cb62	0.16386178
7	0xbd81334e	-0.06308614
8	0xbdbe4d14	-0.09292045
9	0x3d80cc77	0.062889986
10	0x3de9bf72	0.114134684
11	0x3cb12326	0.021623205
12	0xbe2660f3	-0.1624792
13	0xbd93d76a	-0.07218821
14	0x3daf3957	0.085558586
15	0x3df86955	0.121294655
16	0xbca19a61	-0.019726934
17	0xbe3d68a3	-0.18496947
18	0x3ce7314c	0.028221749
19	0x3e1ebc02	0.15501407
20	0x3d0d7d34	0.03454323
21	0xbcb6ec71	-0.02232954
22	0x3d8e1187	0.06936937
23	0x3e119c8e	0.14219877
24	0xbd805828	-0.062668145
25	0x3e0d7c37	0.13816915
26	0xbd4c15ac	-0.049825355
27	0xbcd9d797	-0.026592059
28	0xbdaacfc4	-0.083404094
29	0xbb821192	-0.0039693797
30	0xbc8621e9	-0.016373591
31	0xbd0ceb79	-0.03440425
32	0xbca80fba	-0.020515312
33	0xbcca73a9	-0.024713354
34	0xbd137404	-0.035999313
35	0x3e460291	0.19336917
36	0x3e352895	0.17691262
37	0x3cdd92b9	0.027047502
38	0xbc5a2afa	-0.0133159105
39	0x3dc440b0	0.09582651
40	0xbe35c193	-0.17749624
41	0x3d05b680	0.03264475
42	0x3dee898a	0.11647327
43	0x3baa09c6	0.0051891534
44	0x3c9540ba	0.01821934
45	0xbcf6d1dd	-0.030129367
46	0xbde6ab74	-0.11263171
47	0x3e0130a4	0.12616211
48	0x3c47dac6	0.012198156
49	0xbca74466	-0.020418357
50	0x3e488877	0.19583307
51	0xbd783443	-0.060596716
52	0x3dade3e6	0.08490734
53	0x3d671fe0	0.056426883
54	0x3dc10a1f	0.094257586
55	0x3df445c1	0.11927367
56	0xbd824864	-0.06361464
57	0x3dd457cd	0.10368309
58	0xbbd8ec27	-0.0066199484
59	0x3d79ec11	0.061016146
60	0xbd94cc7e	-0.07265566
61	0x3d6affc5	0.057372827
62	0xbdbbcd0e	-0.091699705
63	0x3bac297e	0.0052539697
