models/ppo_agent_ep50.pt (torch, 364210 bytes, 45 tensors)

network.0.weight f4 [128, 30]
0	0xbda41338	-0.08011478
1	0x3e2eaf1f	0.17058991
2	0x3e15319f	0.1456971
3	0xbda816ee	-0.082074985
4	0xbe8434ac	-0.25821435
5	0xbda405db	-0.08008929
6	0xbd39b8d9	-0.0453423
7	0xbde2b0b9	-0.110688634
8	0x3c888322	0.016664091
9	0x3dc9ceff	0.098539345
10	0xbdda4c89	-0.10659129
11	0xbc921c09	-0.017835634
12	0x3e322351	0.17396285
13	0x3e6684af	0.22511552
14	0x3e0bd471	0.13655259
15	0x3b809b14	0.0039247368
16	0x3be35aca	0.006938313
17	0x3d3308b3	0.043709468
18	0xbdb2fe38	-0.08739895
19	0xbd830b9a	-0.06398697
20	0xbc8ae587	-0.01695515
21	0x3ddb534c	0.10709247
22	0x3e0325a5	0.12807329
23	0xbc58a957	-0.0132239675
24	0x3de53d08	0.111932814
25	0xbe1803ff	-0.14845274
26	0xbe350268	-0.17676699
27	0x3d450740	0.048102617
28	0xbd4cf808	-0.05004123
29	0xbdc9fc49	-0.09862573
30	0x3d630252	0.055422135
31	0xbded843a	-0.11597486
32	0xbe048f3e	-0.12945268
33	0x3d958c63	0.07302167
34	0xbe56804f	-0.20947383
35	0x3de69773	0.112593554
36	0x3e488ce9	0.19585003
37	0x3dc8f9ed	0.098132946
38	0xbdc2b79b	-0.09507676
39	0x3e00642d	0.12538214
40	0xbd532ada	-0.05155454
41	0x3cdeace0	0.027182043
42	0x3d818ef1	0.06326092
43	0x3e29a6b0	0.16567492
44	0x3dc6ad74	0.09701052
45	0xbe11db59	-0.1424383
46	0x3e1e080c	0.15432757
47	0xbde04e28	-0.10952407
48	0xbd4372f2	-0.047717042
49	0x3d2e96fb	0.042624455
50	0x3e2c7a38	0.16843498
51	0x3e1d10c4	0.15338427
52	0xbd841fa3	-0.06451347
53	0x3dfff06c	0.12497029
54	0xbd94a2bb	-0.07257601
55	0x3cabaf80	0.020957708
56	0xbc3c3740	-0.011487782
57	0x3bae6e60	0.0053232163
58	0xbdb7eb76	-0.089804575
59	0xbd32f490	-0.043690264
60	0xbddc0694	-0.10743442
61	0xbd3df15a	-0.04637275
62	0x3e223a80	0.15842628
63	0xbbdd0eea	-0.0067461627
64	0xbd8b5874	-0.068039805
65	0x3db19e36	0.086727545
66	0x3cd83717	0.026393456
67	0x3d65a89c	0.056069
68	0x3e147018	0.14495885
69	0x3d0698f4	0.03286071
70	0x3b3b0966	0.0028539537
71	0x3dc4dd81	0.09612561
72	0x3c99a9e7	0.018757774
73	0xbe26f4cf	-0.16304325
74	0x3e0201ec	0.12696046
75	0xbd4bd9a1	-0.049768094
76	0x3e1671ee	0.14691898
77	0x3df5b67c	0.11997697
78	0xbe19a24b	-0.15003316
79	0xbe3ba476	-0.18324456
80	0x3dbb0a76	0.09132855
81	0x3e04a874	0.12954885
82	0xbe2f5ea7	-0.17125951
83	0x3e2cb170	0.16864562
84	0x3e124d3e	0.14287278
85	0x3e372dcc	0.17888564
86	0xbd925357	-0.07144802
87	0x3dc83db8	0.09777397
88	0xbde16a01	-0.11006547
89	0xbdb9be9a	-0.090695575
90	0xbdac9033	-0.08425941
91	0xbdbb089a	-0.091325
92	0x3d25a68f	0.040442046
93	0x3c4e0d4a	0.012576411
94	0xbe914572	-0.28373295
95	0xbd2996c9	-0.041403566
96	0xbd3c8a38	-0.046030253
97	0xbe3fadad	-0.18718596
98	0x3e2c3548	0.168172
99	0xbd13450e	-0.035954528
100	0xbd505aa3	-0.050867688
101	0x3ce35d4a	0.027754445
102	0xbda6e9b9	-0.08150048
103	0x3d5fc068	0.054626852
104	0xbdcd832b	-0.10034784
105	0x3e41c794	0.1892379
106	0x3de02633	0.10944786
107	0x3d0e7e6a	0.034788527
108	0xbd4eaf4d	-0.05046015
109	0x3d609cb2	0.054836936
110	0x3d621b37	0.055201735
111	0x3c2b65ac	0.010461252
112	0xbe734cbf	-0.23759745
113	0x3e577cff	0.21043776
114	0xbe099386	-0.13435182
115	0x3e324344	0.17408472
116	0x3de1de84	0.110287696
117	0x3ddedb30	0.108816504
118	0x3c42a0e0	0.011879176
119	0xbda5133a	-0.08060308
120	0x3e126b55	0.14298756
121	0xbd472570	-0.048619688
122	0x3c17a28b	0.009255062
123	0x3e2e2b9b	0.17008822
124	0x3bdf5ab9	0.006816235
125	0xbe252488	-0.16127217
126	0xbe289d30	-0.16466212
127	0x3dc78e68	0.09743959
128	0x3e4b0fc0	0.19830227
129	0xbd1fb092	-0.03898675
130	0x3e5ebd45	0.21751888
131	0x3d31c3a7	0.04339948
132	0x3e03625f	0.12830494
133	0xbdc08a62	-0.094013944
134	0x3d906cda	0.07052012
135	0x3e86e689	0.2634776
136	0xbd86ff6d	-0.06591687
137	0xbd6395d7	-0.05556282
138	0xbe22fc69	-0.159166
139	0x3d20e149	0.03927735
140	0x3e220533	0.15822296
141	0xbdc839a7	-0.09776621
142	0xbcab13dc	-0.020883493
143	0xbdd53b55	-0.10411707
144	0x3c23b7d0	0.009992555
145	0x3d84057e	0.0644636
146	0xbdbf72e9	-0.09348089
147	0xbd286130	-0.04110831
148	0x3d702004	0.058624282
149	0xbb5b2000	-0.0033435822
150	0xbd55eeaf	-0.05222958
151	0x3d1f8770	0.038947523
152	0xbe134dc9	-0.14385141
153	0xbd4aaf20	-0.04948342
154	0x3e0a9362	0.13532785
155	0xbe479e1c	-0.19493908
156	0xbe0457b8	-0.12924087
157	0x3d4eb241	0.050462965
158	0xbe3a0ec1	-0.1816969
159	0x3d992037	0.074768476
160	0x3dbb2abc	0.0913901
161	0xbd87da37	-0.06633418
162	0xbd6e00da	-0.05810628
163	0xbe1eb121	-0.15497257
164	0xbb08afdd	-0.0020856776
165	0x3b60c3f1	0.0034296478
166	0x3dad5745	0.08463911
167	0xbdbd3595	-0.092387356
168	0x3e0503dd	0.12989755
169	0xbca61266	-0.020272445
170	0xbdcb1644	-0.09916356
171	0xbdd7d692	-0.10538973
172	0xbde6d81f	-0.112716906
173	0x3e12b3bd	0.14326377
174	0x3d54f314	0.05198963
175	0x3d17cfb4	0.037063316
176	0xbe09220e	-0.13391897
177	0xbcd5d0f8	-0.02610062
178	0x3de9a378	0.11408132
179	0xbd92207b	-0.071351014
180	0x3e2347b0	0.15945315
181	0xbcb8cfde	-0.022560056
182	0x3e4498d4	0.19198924
183	0x3e3b5269	0.18293156
184	0xbe20fa3c	-0.15720457
185	0xbe087eed	-0.13329668
186	0xbe0930fc	-0.13397592
187	0x3e43b1f0	0.19110847
188	0xbc35381d	-0.011060742
189	0x3d085db4	0.033292487
190	0x3e33d145	0.17560299
191	0xbc48125a	-0.012211407
192	0xbdf7dd93	-0.12102809
193	0x3e392dcf	0.18083881
194	0x3d850c96	0.06496541
195	0x3cee6646	0.029101502
196	0x3dd6c491	0.10486711
197	0x3c200fa6	0.009769356
198	0x3e26da3f	0.16294192
199	0xbd56de0c	-0.052457854
200	0x3c414a0c	0.011797439
201	0xbdecc674	-0.115612894
202	0x3da4909e	0.08035396
203	0x3e808d41	0.25107768
204	0x3d54bb88	0.051936656
205	0x3e2afc78	0.16697872
206	0x3e38235c	0.17982239
207	0xbe28ae3b	-0.16472714
208	0xbde5703a	-0.11203046
209	0xbe35cbf0	-0.17753577
210	0x3e24e9bd	0.16104789
211	0xbe1f324f	-0.15546535
212	0xbdc7528a	-0.0973254
213	0x3e147695	0.1449836
214	0xbe08adb3	-0.13347511
215	0xbd5d8e41	-0.054090742
216	0xbd1e32c9	-0.03862265
217	0xbc88332b	-0.016625961
218	0x3e2f508d	0.17120571
219	0x3d032b52	0.032023735
220	0x3e339159	0.17535914
221	0x3b34dee3	0.002759867
222	0x3e2976aa	0.16549173
223	0x3e094180	0.13403893
224	0xbc8b5e2b	-0.017012676
225	0xbe0d7dfb	-0.13817589
226	0x3e1d6a59	0.153726
227	0x3e060b73	0.13090305
228	0xbda486be	-0.080335125
229	0x3c241763	0.010015341
230	0xbe0246bb	-0.12722294
231	0x3e1be5ce	0.15224382
232	0xbde6ba56	-0.112660095
233	0x3d96934a	0.07352312
234	0xbe1d71df	-0.1537547
235	0x3dc1f0a0	0.09469724
236	0xba63a700	-0.0008684248
237	0xbd1b64e4	-0.037938014
238	0x3c415bd0	0.011801675
239	0x3e124a7e	0.14286229
240	0xbe465882	-0.193697
241	0x3c9e0a8e	0.019292142
242	0x3cde1f3c	0.027114503
243	0x3db7eeb5	0.08981077
244	0xbd40c2f5	-0.047060926
245	0xbd6bc017	-0.057556238
246	0xbdc1a880	-0.09455967
247	0x3d17b4f7	0.037037816
248	0xbdb2b7ec	-0.087264866
249	0x3dd1b160	0.1023891
250	0x3e8011d9	0.25013617
251	0x3dbd34f7	0.09238618
252	0xbdea3c70	-0.11437309
253	0xbdf799d5	-0.12089888
254	0x3d7feca5	0.06248154
255	0x3d18418c	0.037171885

network.0.bias f4 [128]
0	0xbde64813	-0.11244216
1	0x3c8601a2	0.0163582
2	0x3e2bdbba	0.16783038
3	0xbe003980	-0.12521935
4	0x3ddd150e	0.107950315
5	0xbe00b025	-0.12567194
6	0x3ca6ccee	0.02036139
7	0xbdd454ce	-0.10367738
8	0xbd9c0f36	-0.07620089
9	0x3cfbdb59	0.030744242
10	0x3e11f068	0.14251864
11	0x3e04920a	0.12946334
12	0xbdd790ac	-0.10525641
13	0xbcd2f3f4	-0.025751092
14	0x3d756c4a	0.059917726
15	0x3e22ab26	0.158856
16	0xbe261a70	-0.16221023
17	0x3e36997f	0.17831992
18	0x3e826b38	0.25472426
19	0xbdefaedb	-0.11703273
20	0x3dc76122	0.097353235
21	0xbdce2d35	-0.10067216
22	0xbcefde43	-0.029280787
23	0x3d99dfa3	0.075133584
24	0xbd7bef1e	-0.061507337
25	0x3c1f59fb	0.009726043
26	0x3e1bc37f	0.15211295
27	0x3e1738b1	0.1476772
28	0x3dd0a5d8	0.10187882
29	0xbe38ecd8	-0.18059099
30	0xbe18f43a	-0.14936915
31	0x3e170696	0.14748606
32	0xbd8ec02a	-0.06970246
33	0x3da2bc6f	0.07946097
34	0x3d852cf2	0.06502713
35	0xbca5efa2	-0.020255867
36	0x3bdebba2	0.00679727
37	0x3cfdc422	0.030977312
38	0x3d2299e1	0.03969753
39	0x3d4c714a	0.04991273
40	0xbbe363eb	-0.0069394014
41	0x3dcb9a78	0.09941572
42	0xbbe1a471	-0.006886058
43	0x3e2831ee	0.16425297
44	0xbc27887e	-0.010225413
45	0xbe1e7d61	-0.15477516
46	0x3e265a87	0.16245471
47	0x3dc332ec	0.09531197
48	0xbc7c004e	-0.015380932
49	0x3e592950	0.21207166
50	0xbe161cf3	-0.14659481
51	0xbe021ff9	-0.12707509
52	0x3da71c61	0.0815971
53	0xbdd18cd6	-0.102319404
54	0x3e30b914	0.17258102
55	0x3d1af39e	0.037829988
56	0x3c808581	0.01568866
57	0x3bd0dde5	0.006374108
58	0xbdf9790c	-0.12181291
59	0xbc292555	-0.010323842
60	0x3df0778d	0.117415525
61	0xbb92024c	-0.00445584
62	0x3e1ffe91	0.15624453
63	0x3e253a72	0.16135576
64	0x3d510419	0.0510293
65	0xbe2fc779	-0.17165937
66	0x3daf5a32	0.08562125
67	0xbdba32b9	-0.09091706
68	0xbd7311c0	-0.0593431
69	0x3d62430e	0.05523973
70	0xbd4a681b	-0.04941569
71	0xbe23c9d4	-0.1599496
72	0xbcc621ba	-0.024186004
73	0xbcc55c2b	-0.0240918
74	0x3cb1ced5	0.02170507
75	0xbcab4453	-0.020906603
76	0x3d8be3d2	0.06830563
77	0xbddb679f	-0.107131235
78	0x3e16ed3f	0.1473894
79	0xbde857c3	-0.11344864
80	0x3e059b98	0.13047636
81	0x3df78644	0.12086156
82	0x3ce220a9	0.027603464
83	0x3d584101	0.052796368
84	0x3d15fc37	0.036617484
85	0x3df96d65	0.121790685
86	0x3e20dad9	0.15708484
87	0xbdbd2e4f	-0.09237348
88	0xbdd05aa4	-0.10173538
89	0x3e091681	0.13387491
90	0xbe38e327	-0.18055402
91	0xbc7f3902	-0.015577557
92	0x3e4f010a	0.2021524
93	0xbc9779c9	-0.018490689
94	0xbe1b8776	-0.15188393
95	0xbdf4250c	-0.11921129
96	0xbc880b68	-0.016607001
97	0xbded6c42	-0.11592914
98	0x3dc57b18	0.09642619
99	0xbd255064	-0.04035987
100	0x3e315c9f	0.17320488
101	0x3e29a949	0.16568483
102	0x3dcf2906	0.101152465
103	0x3dbaabe1	0.091148145
104	0x3d3e8f76	0.046523534
105	0x3de659ed	0.11247621
106	0x3dc43c97	0.09581869
107	0x3db9b883	0.09068396
108	0xbd1e9192	-0.038713045
109	0xbd0c57b6	-0.034263335
110	0x3d082d7b	0.0332465
111	0xbd4369c9	-0.047708306
112	0xbc7c71d5	-0.015407999
113	0x3ce19209	0.027535455
114	0x3e042b11	0.12907054
115	0xbe115e44	-0.14196116
116	0x3e0c2b26	0.13688335
117	0xbce0133e	-0.027352925
118	0x3e1a1657	0.15047584
119	0x3db71a12	0.089405194
120	0xbcc5d452	-0.024149094
121	0x3e706543	0.23476128
122	0x3da00cac	0.07814917
123	0x3e2694d8	0.16267717
124	0x3d93860b	0.07203301
125	0x3d9a47ac	0.075332016
126	0xbdd91f16	-0.10601632
127	0x3cdea709	0.027179258

network.2.weight f4 [64, 128]
0	0x3dca81ab	0.098880135
1	0x3d6e29d3	0.058145355
2	0x3d22dfb8	0.039764136
3	0x3d667e5b	0.056272846
4	0x3d27680e	0.04087072
5	0x3b1b0bc5	0.0023658138
6	0xbd112d86	-0.035443805
7	0xbc826eb9	-0.015921937
8	0x3d204f4c	0.039138123
9	0x39c26439	0.00037077235
10	0xbd8bc086	-0.0682383
11	0x3be36e44	0.006940635
12	0xbd8da028	-0.06915313
13	0x3bae1d9a	0.0053135874
14	0xbdc4a847	-0.09602409
15	0xbd4c3734	-0.049857333
16	0xbcdeda74	-0.027203776
17	0x3dd6a58a	0.10480793
18	0x3c628b1e	0.013827113
19	0x3d6b214e	0.05740481
20	0xbc323197	-0.010876081
21	0x3d9395c6	0.072063014
22	0x3d5ff9fc	0.054681763
23	0x3d379352	0.04481823
24	0x3ddad356	0.106848404
25	0x3d09d861	0.03365362
26	0x3da24287	0.07922845
27	0xbd0b94f0	-0.034077585
28	0x3dc5c08d	0.09655867
29	0x3dca29d6	0.09871261
30	0x3a9ee013	0.0012121223
31	0x3d35b8f6	0.044365846
32	0x3d6c3b8e	0.057673983
33	0x3d2cfa2c	0.04223077
34	0x3d911204	0.07083514
35	0xbd5c95fe	-0.05385398
36	0x3d987944	0.074450046
37	0x3d179f64	0.03701724
38	0x3ded2957	0.115801506
39	0x3d7e3d72	0.062070318
40	0x3d9f30a2	0.07772948
41	0x3d71c720	0.05902779
42	0xbc06748a	-0.008206496
43	0x3b6e6935	0.0036378626
44	0xbd6bd8b2	-0.057579704
45	0xbc3ae128	-0.0114062205
46	0x3da85545	0.08219389
47	0xbd4c9885	-0.04995014
48	0x3d66ae11	0.056318346
49	0xbc43b9e2	-0.011946173
50	0xbd1584b7	-0.03650352
51	0x3db2a3a2	0.08722617
52	0x3d96f18e	0.07370292
53	0xbd11fbf2	-0.035640664
54	0x3daa8f4c	0.08328113
55	0xbba0140a	-0.0048852013
56	0x3da6a044	0.08136037
57	0x3b358673	0.0027698546
58	0x3d5349ec	0.05158417
59	0xbc56a876	-0.013101688
60	0xbd07c602	-0.03314782
61	0x3d7c3129	0.06157032
62	0x3dd01f22	0.10162188
63	0xbd9fa812	-0.07795729
64	0xb98b186e	-0.00026530348
65	0x3d278c89	0.04090551
66	0x3d7e6ebd	0.062117327
67	0xbc0f8569	-0.008759835
68	0xbd9081ba	-0.070559934
69	0xbd0ead1a	-0.03483305
70	0xbc0c30b5	-0.008556535
71	0xbbea6782	-0.0071534524
72	0xbd28f452	-0.041248627
73	0xbdad3de5	-0.08459071
74	0xbc0be750	-0.008539036
75	0x3db89a9c	0.090138644
76	0x3d8594ce	0.06522523
77	0x3d66f675	0.056387383
78	0x3c5581ed	0.013031465
79	0x3d4d06f3	0.050055455
80	0x3dfd6c7c	0.123742074
81	0x3d5b4ec4	0.053541914
82	0xbc831e0f	-0.016005544
83	0xbbf8d28e	-0.0075934594
84	0x3c80c809	0.015720384
85	0x3bfecc15	0.0077757933
86	0xbbb5a003	-0.0055427565
87	0xbd33592c	-0.043786213
88	0xbd1e01ad	-0.038575817
89	0x3e0f2e70	0.13982558
90	0x3d081ffa	0.03323362
91	0xbd9a096f	-0.075213306
92	0x3de7a653	0.11311021
93	0x3d1abe39	0.037779067
94	0xbcd9e1ad	-0.026596868
95	0xbc62799c	-0.013822939
96	0x3d8c69da	0.06856127
97	0x3d2e34ac	0.0425307
98	0xbd32681e	-0.043556325
99	0xbb90d34e	-0.0044197207
100	0xbd860685	-0.06544212
101	0xbd209b87	-0.039210822
102	0xbbd68c7d	-0.006547509
103	0xbc7f6869	-0.015588858
104	0x3dd238a8	0.102647126
105	0x3bfd4b7c	0.0077299457
106	0x3da1f324	0.079077035
107	0x3dfb89a0	0.12282109
108	0x3d1aef04	0.0378256
109	0xbbc8c529	-0.006127019
110	0x3d33b61a	0.043874837
111	0xbcd7683d	-0.026294822
112	0x3cdf9efa	0.027297486
113	0xbc3e8e85	-0.011630659
114	0xba53ad72	-0.00080748566
115	0xbbeca63e	-0.007221966
116	0xbae8e06d	-0.0017767079
117	0x3c911deb	0.017714461
118	0xbc809f8d	-0.01570108
119	0x3d8fc6be	0.07020329
120	0x3d2a4e0e	0.041578345
121	0x3dc11250	0.09427321
122	0x3c850850	0.016239315
123	0x3c309f8f	0.010780229
124	0x3d413715	0.04717167
125	0xbcc66eb5	-0.024222711
126	0x3da48593	0.0803329
127	0x3dfdc96d	0.123919345
128	0x3d72fb62	0.05932177
129	0x3d5eeb77	0.054423776
130	0x3c568736	0.01309376
131	0x3d4738cd	0.048638154
132	0xbd4ca92e	-0.04996603
133	0x3d22f549	0.039784703
134	0xbc154872	-0.009111511
135	0x3d8486e6	0.06471042
136	0xbdba84ea	-0.091073826
137	0x3db20c4f	0.08693754
138	0x3dd43c98	0.1036312
139	0xbc05dd23	-0.008170399
140	0x3d670bfd	0.056407917
141	0xbcfdcc1f	-0.030981122
142	0xbb90911f	-0.004411831
143	0x3d0f57ad	0.034995724
144	0x3c410a49	0.011782237
145	0x3d813776	0.063094065
146	0x3dbd6159	0.09247083
147	0x3bc87f31	0.006118678
148	0xbd7b9bbb	-0.061427813
149	0xbc71e64c	-0.01476438
150	0x3c6cc721	0.014451773
151	0xbd3384d2	-0.04382784
152	0xbd849ba3	-0.06474998
153	0xbbacbf2e	-0.005271814
154	0x3e006ed5	0.12542279
155	0x3d10e988	0.035378963
156	0x3dd89ce9	0.10576803
157	0xbd8ae231	-0.06781424
158	0x3d0c75a3	0.034291875
159	0x3dda3ea0	0.10656476
160	0x3ca8fa07	0.020627035
161	0x3d5f795b	0.054559093
162	0xbcf26889	-0.029590862
163	0xbc53df51	-0.012931661
164	0xbdba4b94	-0.09096447
165	0x3ded8c19	0.11598987
166	0x3dcdc63a	0.10047574
167	0x3d2934f4	0.041310266
168	0x3d33a80f	0.043861445
169	0xbcd1f3ec	-0.025629006
170	0x3dad4eed	0.084623195
171	0xbdc676f3	-0.096906565
172	0xbcfe4fd9	-0.031043934
173	0x3d104b9e	0.035228364
174	0x3caa2104	0.020767696
175	0xbc93b3c2	-0.018030051
176	0x3d35c930	0.04438132
177	0xbc1efbe4	-0.00970361
178	0xbcf19ba1	-0.029493155
179	0xbcfa880c	-0.03058245
180	0x3d9fb4e6	0.077981755
181	0xbce38d38	-0.0277773
182	0x3d89d6d5	0.06730429
183	0xbd3a2a11	-0.045450274
184	0x3c601417	0.013676665
185	0x3d8e2864	0.06941298
186	0xbd4c84d6	-0.04993137
187	0x3c36b733	0.011152077
188	0xbd3d1b67	-0.04616871
189	0x3d75b7b5	0.05998965
190	0x3dc4efaa	0.09616025
191	0x3da13eac	0.07873282
192	0x3d1b932d	0.037982155
193	0x3d095d97	0.03353652
194	0x3c6664fd	0.014062163
195	0x3d88c7bf	0.066787235
196	0x3c942324	0.018083163
197	0x3c9a5835	0.018840889
198	0xbdd35afe	-0.1032009
199	0xbca659b1	-0.02030644
200	0x3cf75f99	0.030196952
201	0x3d845594	0.06461635
202	0xbdbbd49e	-0.09171413
203	0x3c2362a9	0.009972253
204	0x3d7fff50	0.062499344
205	0x3dc71a0f	0.09721767
206	0x3d026c1c	0.031841382
207	0x3e2cf668	0.16890872
208	0x3c56b2fb	0.013104196
209	0x3dede143	0.11615231
210	0x3d3e8fdb	0.04652391
211	0x3df89279	0.121373124
212	0xbbf30af1	-0.007417076
213	0x3e0b004a	0.13574329
214	0xba8c54ba	-0.0010706403
215	0xbd5f3988	-0.054498225
216	0x3db292f8	0.08719438
217	0x3d3b4bf7	0.045726743
218	0xbdc2c1a1	-0.09509588
219	0xbc7e64b4	-0.015526939
220	0x3e2357e2	0.15951493
221	0xbe027823	-0.12741141
222	0xbdf08c9f	-0.11745571
223	0xbd2f999b	-0.0428711
224	0x3d724d36	0.059155665
225	0xbd587518	-0.052846044
226	0xbc2923e8	-0.010323502
227	0x3d4bbabf	0.04973864
228	0x3ce22d6a	0.027609546
229	0x3ddbb519	0.10727901
230	0x3db835a7	0.08994608
231	0xbda3a58a	-0.079905584
232	0xbd81bd91	-0.06334985
233	0xbdd3cbcc	-0.103416055
234	0xbcf6e322	-0.030137602
235	0x3d953650	0.0728575
236	0x3ce5aba4	0.028035946
237	0x3d71dd43	0.059048902
238	0x3bb4b24c	0.0055144187
239	0xbd6ee36d	-0.05832236
240	0x3ccf469b	0.025302222
241	0xbdbd329b	-0.09238168
242	0x3da61400	0.081092834
243	0x3d5f5567	0.054524805
244	0x3d4a2f5e	0.04936158
245	0x3cc455bf	0.023966668
246	0x3cecdaeb	0.028912982
247	0x3ae599f5	0.0017517196
248	0x3d390614	0.045171812
249	0x3bd08214	0.006363163
250	0xbd4cee2f	-0.050031837
251	0x3d6ecd1f	0.058301087
252	0x3d68f47a	0.056873776
253	0xbd488011	-0.04895026
254	0x3db217e0	0.0869596
255	0x3ca64d04	0.020300396

network.2.bias f4 [64]
0	0x3c881864	0.016613193
1	0xbd0ccc0c	-0.03437428
2	0x3d7c5cf8	0.0616121
3	0x3cd18d1c	0.025579982
4	0xbc2c0e03	-0.0105013875
5	0xbc48b0db	-0.012249197
6	0xbba8bddf	-0.0051495875
7	0x3db29818	0.08720416
8	0xbadc358b	-0.0016800625
9	0x3da51bb6	0.08061926
10	0x3d4ebc70	0.050472677
11	0x3dbd083c	0.09230086
12	0xbce2a339	-0.027665721
13	0xbc92eadb	-0.017934253
14	0x3d3006cc	0.042975232
15	0xbcae09e5	-0.021244952
16	0x3a1c00dc	0.0005951056
17	0xbb02dd12	-0.0019968194
18	0xbd1f0fbf	-0.038833376
19	0xba904f97	-0.0011010048
20	0xbd6b8917	-0.057503786
21	0xbc231109	-0.009952792
22	0xbd561eea	-0.052275576
23	0xbcb335f4	-0.021876313
24	0x3ca8b5e1	0.02059454
25	0x3d0a8158	0.033814758
26	0xbd8470b1	-0.06466807
27	0xbd608f59	-0.054824207
28	0xbd6b5d63	-0.057462107
29	0xbdc1dbf2	-0.09465779
30	0xbd3bd891	-0.04586083
31	0xbcf83f7b	-0.030303707
32	0xbd8a1cc5	-0.067437686
33	0x3d227376	0.039660893
34	0x3c84fe5e	0.016234573
35	0x3ceac828	0.028659895
36	0x3d229c30	0.039699733
37	0x3d6f5c4a	0.058437623
38	0xbb983e04	-0.0046460647
39	0xbaf953fc	-0.0019022222
40	0x3ce5400d	0.027984643
41	0x3d8a3064	0.06747511
42	0x3dba8584	0.09107497
43	0xbd7183e2	-0.058963664
44	0xbc9467b3	-0.018115854
45	0xbd8ea675	-0.06965343
46	0x3d9bda7d	0.07610033
47	0x3d96fb7d	0.07372186
48	0xbd3742ef	-0.044741567
49	0x3d6ad0fb	0.057328206
50	0x3c8003cc	0.01562681
51	0x3daa3216	0.083103344
52	0xbd805b6f	-0.062674396
53	0x3bf0fae7	0.0073541286
54	0x3b843d5d	0.0040356354
55	0x3c304b75	0.010760178
56	0xbd0316d6	-0.0320042
57	0x3ca35580	0.01993823
58	0x3c0e8a92	0.00870003
59	0x3c157792	0.009122746
60	0x3d951fe6	0.07281475
61	0xbc18ffb9	-0.009338313
62	0x3da5d83c	0.08097884
63	0xbbfb8884	-0.007676186

network.4.weight f4 [32, 64]
0	0xbd984904	-0.074358016
1	0x3d88300a	0.06649788
2	0x3de16dcb	0.110072695
3	0xbd6acf70	-0.057326734
4	0xbc8f32b2	-0.017480228
5	0x3dd9a2b3	0.106267355
6	0x3c8ddefd	0.017318243
7	0x3e1c3906	0.15256128
8	0xbdfe0c5f	-0.12404703
9	0xbbee139b	-0.0072655207
10	0x3d4e276f	0.050330576
11	0x3d01ebc4	0.031718984
12	0xbded307b	-0.115815125
13	0xbd67a66c	-0.056555197
14	0xbc2313f7	-0.00995349
15	0x3dfc51c5	0.12320284
16	0xbe21dad9	-0.1580614
17	0x3e20e97b	0.15714066
18	0xbd0aaaf1	-0.03385443
19	0xbdc3f9f1	-0.09569157
20	0x3dfd5cfe	0.123712525
21	0x3d803f83	0.06262114
22	0x3bdde871	0.006772094
23	0x3cab1cf7	0.020887835
24	0x3e063a8f	0.13108276
25	0xbc41cf63	-0.01182923
26	0xbd21db03	-0.039515506
27	0xbce41008	-0.027839676
28	0x3e30d163	0.17267375
29	0x3e29a685	0.16567428
30	0xbdf6ff67	-0.12060433
31	0xbd76abb1	-0.06022233
32	0xbddbf1e0	-0.10739493
33	0x3cb0f069	0.021599011
34	0x3e18b898	0.14914167
35	0xbcffa8f4	-0.031208493
36	0x3e206c7f	0.15666388
37	0x3d515696	0.051107965
38	0xbcbc94b0	-0.023020118
39	0x3e1cbe4c	0.15306967
40	0x3dae12ad	0.08499656
41	0x3d84183b	0.06449934
42	0x3da1a8bc	0.07893512
43	0xbd72c677	-0.059271302
44	0xbe40f7d1	-0.18844534
45	0x3e156679	0.14589871
46	0xbdbff057	-0.09372013
47	0x3d6b7aee	0.05749028
48	0x3dafda12	0.085865155
49	0xbdabfa4d	-0.083973505
50	0x3e401930	0.18759608
51	0x3e052f7d	0.13006397
52	0x3dc26069	0.09491045
53	0xbd95c676	-0.07313244
54	0x3e24de7d	0.16100498
55	0x3c700dd0	0.014651731
56	0xbbb4d746	-0.0055188267
57	0x3e5aba1b	0.21360056
58	0xbd6570cc	-0.056015775
59	0xbe3c3b1b	-0.18381922
60	0xbe208e59	-0.15679301
61	0x3e218d41	0.1577654
62	0x3dcf5ab6	0.101247236
63	0x3d17d945	0.03707244
64	0xbdf8dd5d	-0.12151597
65	0x3be4c523	0.0069815083
66	0xbd113208	-0.035448104
67	0x3d6007b2	0.05469484
68	0xbdbb0052	-0.091309205
69	0x3db9e826	0.09077482
70	0x3dda895e	0.10670732
71	0x3dd40113	0.103517674
72	0x3dc18ca6	0.09450655
73	0xbbbf72ce	-0.005842543
74	0x3d881fa7	0.06646662
75	0xbd875685	-0.06608299
76	0x3d0ecf4a	0.034865655
77	0xbcb609f8	-0.02222155
78	0x3d87b584	0.06626418
79	0xbd810edd	-0.06301663
80	0xbdf3b269	-0.118992634
81	0xbd3b5a70	-0.045740545
82	0x3d9d242c	0.07672915
83	0x3c0d9449	0.008641311
84	0xbced290f	-0.028950242
85	0xbd057539	-0.032582495
86	0xbd3cc2c8	-0.046084195
87	0x3de2ee0d	0.11080561
88	0xbe09d2dc	-0.13459343
89	0x3bdc8bbb	0.0067305244
90	0x3d977038	0.07394451
91	0x3d4ddbc0	0.050258398
92	0x3d0efd7f	0.03490972
93	0xbcb896e3	-0.022532886
94	0x3d91010a	0.07080276
95	0x3d242a30	0.040079296
96	0x3dcd5be0	0.100272894
97	0xbd590119	-0.052979562
98	0xbda7c717	-0.0819227
99	0xbda1658c	-0.07880697
100	0xbda8fe34	-0.082516104
101	0xbd2636ba	-0.040579535
102	0xbc8e8835	-0.017398933
103	0xbc94b62a	-0.018153269
104	0xbe0bd279	-0.13654508
105	0x3c5e77d4	0.013578374
106	0xbd99fe23	-0.07519176
107	0xbb10d275	-0.0022098098
108	0xbd27c548	-0.040959626
109	0x3de18f87	0.11013704
110	0xbc88bd9c	-0.016691975
111	0x3d1e7f40	0.038695574
112	0xbcd2ee3f	-0.02574837
113	0x3d7b16dc	0.061301097
114	0xbb302da8	-0.0026882682
115	0xbdbd571c	-0.092451304
116	0xbd8334b5	-0.064065374
117	0xbdbd609b	-0.09246942
118	0x3daf1df7	0.08550637
119	0xbe06b80d	-0.13156147
120	0xbd453b4f	-0.048152264
121	0xbc1697e0	-0.009191483
122	0x3d231596	0.039815508
123	0x3d2dfcad	0.0424773
124	0x3d9ac75c	0.07557556
125	0xbd29d594	-0.04146345
126	0x3d4a91c2	0.04945541
127	0xbd824775	-0.063612856
128	0xbba9e8d1	-0.0051852246
129	0xbb6dfc87	-0.0036313848
130	0x3d53eb1d	0.051737893
131	0x3db0af37	0.086271696
132	0x3d68c2fa	0.05682657
133	0x3db1e740	0.086866856
134	0x3dbf67a7	0.09345942
135	0x3d33db74	0.04391046
136	0x3de97e32	0.11401023
137	0x3dcaa2b1	0.09894312
138	0x3dee749e	0.11643337
139	0x3c626e9b	0.013820316
140	0x3d01a429	0.031650696
141	0xbc2a0153	-0.010376292
142	0xbc88b668	-0.01668854
143	0xbccaa1bd	-0.024735326
144	0xbcbf6ac8	-0.023366347
145	0xbd2c622c	-0.04208581
146	0xbcbdede9	-0.023184733
147	0x3de09a2c	0.10966906
148	0x3e214599	0.15749206
149	0x3d3f7c12	0.046749182
150	0x3cb02ff9	0.02150725
151	0xbd5ee14b	-0.054414075
152	0x3e049635	0.12947924
153	0xbafd7dcb	-0.0019339857
154	0x3da5202d	0.08062778
155	0x3dfb9bee	0.122856006
156	0xbd3a5bce	-0.045497708
157	0xbcb67c20	-0.022275984
158	0xbc8afe8d	-0.016967082
159	0xbcd05ca2	-0.025434796
160	0x3dbe0751	0.09278739
161	0xbd7aad22	-0.06120027
162	0xbdce3ca0	-0.10070157
163	0xbbb84000	-0.005622864
164	0xba53b4c5	-0.0008075948
165	0x3de9f0e3	0.114228986
166	0xbd99c5b8	-0.07508415
167	0x3dd52de8	0.104091465
168	0xbdcbc9ce	-0.099506006
169	0x3d8ac14a	0.06775148
170	0x3db9516e	0.090487346
171	0xbd2e0bf7	-0.04249188
172	0xbcc9852d	-0.024599636
173	0xbdc96c60	-0.09835124
174	0x3bf14590	0.007363029
175	0x3d89af61	0.06722904
176	0xbd8372e1	-0.06418396
177	0xbd6f1e58	-0.058378547
178	0x3d89f015	0.06735245
179	0x3d56209b	0.05227719
180	0x3db512ae	0.088414535
181	0xbdf4e072	-0.11956872
182	0x3ddb4dc6	0.107081935
183	0x3abe11fd	0.001450121
184	0x3c52d568	0.012868263
185	0x3bbdc882	0.0057917247
186	0x3e4e3e68	0.20140994
187	0x3c5fdb5d	0.01366314
188	0x3d1e322d	0.03862207
189	0xbdf98366	-0.121832654
190	0xbdfbb246	-0.12289862
191	0x3cf8c6ec	0.03036829
192	0x3cb27a2d	0.021786774
193	0xbd6387bb	-0.055549365
194	0xbd950985	-0.07277206
195	0x3da859ed	0.08220277
196	0x3deca0d8	0.11554116
197	0x3dbb4336	0.09143679
198	0xbdc25f1e	-0.094907984
199	0xbd325da2	-0.043546326
200	0x3d960204	0.07324603
201	0xbd86f432	-0.06589545
202	0x3c90dea4	0.017684288
203	0xbd233030	-0.039840877
204	0x3daa0b92	0.08302988
205	0x3c62d3fb	0.013844485
206	0xbbdbbc97	-0.0067058313
207	0xbe114b45	-0.1418887
208	0xbcd02d29	-0.025412159
209	0xbcc23bb6	-0.023710113
210	0xbcc8f5f1	-0.024531337
211	0x3c6de9dc	0.014521088
212	0xbd1f1f74	-0.038848355
213	0x3c92b390	0.017907888
214	0xbd79a2a9	-0.06094614
215	0xbd446018	-0.047943205
216	0xbdd7fb35	-0.10545961
217	0x3af30cb6	0.0018543217
218	0xbe17f67e	-0.14840123
219	0x3da967aa	0.082717255
220	0x3d8012e9	0.06253607
221	0xbcae7cfe	-0.021299835
222	0xbd49d4a3	-0.04927505
223	0x3d72f8d5	0.059319336
224	0x3db29b33	0.08721008
225	0x3d815f11	0.063169606
226	0xbd3ca195	-0.046052534
227	0xbd82d597	-0.06388395
228	0xbc24c09f	-0.01005569
229	0xbbb484ae	-0.0055089807
230	0x3dfe1ea3	0.12408187
231	0x3c2451e9	0.0100292945
232	0x3d17a8b1	0.03702611
233	0x3d995465	0.074868
234	0x3de434a4	0.11142853
235	0xbd9cddd1	-0.076594956
236	0x3db61c70	0.08892143
237	0x3db2c6fe	0.08729361
238	0x3db36f1f	0.08761429
239	0xbd161ea5	-0.03665032
240	0x3db27dde	0.087154135
241	0x3dc412db	0.09573909
242	0xbd15e073	-0.036591005
243	0x3df3099f	0.118670695
244	0x3d9d02f7	0.07666581
245	0x378ed264	1.702569e-05
246	0xbdac1afa	-0.08403583
247	0xbd74d876	-0.059776746
248	0x3cd6ad75	0.026205758
249	0x3d0f1ef6	0.034941636
250	0xbe0d15b0	-0.13777804
251	0xbc3a89bf	-0.01138538
252	0x3df0ef93	0.11764445
253	0x3c050ab3	0.008120227
254	0x3da1ca5c	0.07899925
255	0xbdef0c19	-0.11672229

network.4.bias f4 [32]
0	0x3d93dba8	0.072196305
1	0xbdd37f5e	-0.10327028
2	0x3e13b4a6	0.1442438
3	0xbd8a4607	-0.06751638
4	0x3d78f05f	0.06077611
5	0xbd93d6e6	-0.07218723
6	0xbd94685e	-0.07246469
7	0xbe05c2dc	-0.13062614
8	0x3d882563	0.06647756
9	0x3dd918cb	0.10600432
10	0x3dd9c893	0.106339596
11	0x3e1936e9	0.14962353
12	0xbd94d8b3	-0.072678946
13	0xbd450341	-0.048098806
14	0x3cf8599b	0.030316165
15	0xbdc4f9e5	-0.09617976
16	0x3dfb487b	0.12269684
17	0x3ce634eb	0.028101405
18	0xbd9abfc3	-0.07556107
19	0xbd1a74df	-0.037709113
20	0x3d93850c	0.07203111
21	0xbc99cbcc	-0.018773936
22	0xbc67d24e	-0.014149262
23	0x3ca4f64c	0.020136975
24	0xbdc02410	-0.093818784
25	0x3d82f136	0.063936636
26	0xbcb5955e	-0.02216595
27	0x3e1857c1	0.14877225
28	0x3ddf052d	0.10889659
29	0xbc53151a	-0.012883449
30	0x3d059daf	0.032621082
31	0x3da6302d	0.081146576

network.6.weight f4 [3, 32]
0	0x3dbb7f5b	0.091551505
1	0xbd3a1209	-0.045427356
2	0xbd8b326d	-0.06796727
3	0xbe37a87a	-0.17935362
4	0x3dffd2e7	0.12491398
5	0x3e6d8de5	0.2319866
6	0x3dd29ebf	0.10284185
7	0x3de3da2a	0.11125596
8	0x3e7daa24	0.24771935
9	0x3e63b9ad	0.22238798
10	0xba0b6d9e	-0.00053187634
11	0xbce8b869	-0.028408246
12	0xbde0308d	-0.1094676
13	0xbe81a277	-0.25319263
14	0xbd3c59b9	-0.045984004
15	0xbd442148	-0.047883302
16	0x3d5efea3	0.05444206
17	0xbc8c4494	-0.017122544
18	0xbd57189d	-0.052513707
19	0x3dba0d1b	0.09084531
20	0xbe1c0819	-0.15237464
21	0xbd0e7173	-0.034776162
22	0x3e3438f9	0.17599858
23	0x3dde5ef2	0.10857953
24	0xbb0c2200	-0.002138257
25	0x3dd047b9	0.1016993
26	0x3e8000a5	0.25000492
27	0x3e4d33ab	0.20039241
28	0x3e3935dd	0.18086953
29	0xbcf78309	-0.03021385
30	0x3d86904d	0.06570492
31	0x3e2bee77	0.16790186
32	0xbd039566	-0.0321249
33	0xbe062470	-0.13099837
34	0xbe1292bc	-0.14313787
35	0x3db1ec5e	0.086876616
36	0xbe09a7a3	-0.13442855
37	0x3cfe9dee	0.031081166
38	0x3d33cb1f	0.043894883
39	0xbe060c84	-0.13090712
40	0x3d602353	0.054721188
41	0xbe890038	-0.2675798
42	0xbdf163e4	-0.11786631
43	0x3e7b35f8	0.24532306
44	0x3e6064c2	0.21913436
45	0x3d86846e	0.06568228
46	0xbe2d98d4	-0.1695283
47	0xbd517a69	-0.05114213
48	0x3e121708	0.14266598
49	0x3dfb6165	0.12274436
50	0x3e09cb4b	0.13456456
51	0xbe4a0d27	-0.1973158
52	0x3dd9cbcd	0.10634575
53	0xbe06eaff	-0.13175581
54	0xbe121a28	-0.1426779
55	0x3d144ad5	0.036204178
56	0x3c33e6d0	0.010980323
57	0x3d88f28c	0.06686887
58	0xbe743e8a	-0.23851982
59	0xbd703736	-0.058646403
60	0x3e31367e	0.17305943
61	0xbd4f016d	-0.05053847
62	0x3dc3211c	0.095277995
63	0x3e261b18	0.16221273
64	0xbe678e10	-0.22612786
65	0x3cca5801	0.024700167
66	0x3e26e698	0.16298902
67	0x3d01a6c9	0.0316532
68	0x3d7efacb	0.062250894
69	0xbe0045c3	-0.12526612
70	0x3a55b04b	0.0008151575
71	0xbe138fc5	-0.14410312
72	0xbe082fa0	-0.13299417
73	0x3da40924	0.08009556
74	0xbe3d0c89	-0.18461813
75	0x3e0fcc65	0.14042814
76	0x3e24939a	0.1607193
77	0x3e810b04	0.25203717
78	0x3ddbc40e	0.10730754
79	0xbcd4f99e	-0.025997933
80	0xbe0932d6	-0.13398299
81	0x3dfb6602	0.12275316
82	0x3d6dde9a	0.058073618
83	0xbd371f85	-0.044707794
84	0xbd88c263	-0.06677701
85	0x3df9c9a0	0.1219666
86	0xbe26846c	-0.16261452
87	0xbe1a6951	-0.15079238
88	0x3da575aa	0.08079083
89	0xbe1a89b4	-0.15091592
90	0xbcedcdee	-0.029028859
91	0xbe3657c1	-0.17806913
92	0xbdabd57b	-0.083903275
93	0x3de5c37e	0.11218928
94	0xbe1d6749	-0.15371431
95	0xbe814aab	-0.2525228

network.6.bias f4 [3]
0	0x3e2cab63	0.16862254
1	0xbddeae27	-0.10873061
2	0x3c8d4038	0.017242536

network.0.weight f4 [128, 30]
0	0xbdd75150	-0.10513556
1	0xbdd91618	-0.10599917
2	0xbd080b9d	-0.0332142
3	0xbd27fde7	-0.041013625
4	0xbb2e8238	-0.002662791
5	0xbd666047	-0.05624416
6	0x3e0157d2	0.12631157
7	0xbdeea996	-0.1165344
8	0x3d713bda	0.05889497
9	0xbc1d3b31	-0.009596632
10	0x3da4395d	0.08018754
11	0xbd985826	-0.07438688
12	0xbe4a05b5	-0.1972874
13	0xbd2e7357	-0.042590465
14	0x3dde097d	0.108416535
15	0xbdf099e5	-0.11748103
16	0xbda66b08	-0.08125883
17	0xbe6a4d18	-0.22880971
18	0x3e989d64	0.2980758
19	0xbedd6dac	-0.43247736
20	0x3e904fd7	0.28185913
21	0x3f067c17	0.52533096
22	0xbe11e97e	-0.14249226
23	0xbe79a4e5	-0.24379309
24	0x3e205fd2	0.15661553
25	0xbc523000	-0.012828827
26	0xbdf8485f	-0.12123179
27	0xbd0004cc	-0.031254575
28	0xbe1ee20f	-0.15515922
29	0xbd0fef84	-0.03514053
30	0xbcfcf6bb	-0.030879369
31	0xbd29718a	-0.041368045
32	0x3d99220d	0.07477198
33	0xbc3f9b28	-0.011694707
34	0x3bd328e2	0.0064440826
35	0xbd5c3091	-0.053757254
36	0x3e36a43f	0.17836092
37	0x3dd35aad	0.103200294
38	0xbe17156b	-0.14754264
39	0xbd8a810f	-0.06762897
40	0x3e26f2ff	0.16303633
41	0x3dd53b1e	0.10411666
42	0xbda544f5	-0.08069793
43	0x3e9ef571	0.31046632
44	0xbe85be7a	-0.26121885
45	0x3ec2f2a2	0.3807574
46	0x3e8d84f9	0.27640513
47	0xbe369005	-0.17828377
48	0xbe2edb36	-0.1707581
49	0xbed56a16	-0.416825
50	0x3cc680e1	0.024231376
51	0x3d94d9bf	0.07268094
52	0xbe01a89c	-0.12661976
53	0xbdda2b56	-0.10652797
54	0xbdc0f74a	-0.09422167
55	0xbdf74f3a	-0.12075658
56	0xbdc9c447	-0.0985189
57	0x3b9dfa00	0.004821062
58	0x3d9644bc	0.07337329
59	0xbcb77fe0	-0.022399843
60	0x3e1c2786	0.15249452
61	0xbd995693	-0.07487216
62	0x3d748549	0.059697423
63	0x3ddc63de	0.10761236
64	0xbba79209	-0.0051138443
65	0x3dcfc1f0	0.101444125
66	0x3e1b9d45	0.15196712
67	0xbe22e40f	-0.1590731
68	0x3d9a8a6a	0.07545932
69	0xbd685930	-0.05672568
70	0x3e4eb35b	0.20185606
71	0xbdffcbdc	-0.12490055
72	0xbcf3ac0a	-0.02974512
73	0x3e45c5de	0.19313762
74	0x3d8d8a1c	0.06911108
75	0xbe7c088a	-0.24612632
76	0xbcc87e4a	-0.024474282
77	0xbd90ac1f	-0.070640795
78	0x3d95184e	0.072800264
79	0xbe671903	-0.22568135
80	0xbd46956d	-0.048482347
81	0xbdcec750	-0.100966096
82	0x3e87f29d	0.26552287
83	0xbee2cb5e	-0.44295782
84	0xbe07eca0	-0.13273859
85	0x3e01a5d8	0.1266092
86	0xbdd6dc63	-0.10491254
87	0x3d3cc9ec	0.046091005
88	0x3e07e510	0.13270974
89	0x3e2ea0ee	0.17053577
90	0xbc6d5d95	-0.014487644
91	0x3e74d199	0.2390808
92	0x3d1a5090	0.037674487
93	0xbdbc26fb	-0.091871224
94	0x3e122863	0.14273219
95	0x3e76e1ee	0.24109623
96	0x3d0df29e	0.034655206
97	0x3d897b50	0.06712973
98	0xbd4dff0f	-0.05029207
99	0x3ce80ef2	0.028327439
100	0x3d23177b	0.039817315
101	0xbe20d677	-0.15706812
102	0x3e53cfd1	0.20684744
103	0x3bd96584	0.006634416
104	0xbd9d3fdd	-0.076781966
105	0xbd705f29	-0.0586845
106	0x3dc3a0e9	0.095521756
107	0x3dbf6820	0.09346032
108	0xbe14d666	-0.14534912
109	0x3e7d4be9	0.24735989
110	0x3db5c742	0.08875896
111	0x3df2f241	0.118626125
112	0x3c846a9f	0.016164122
113	0x3daff122	0.08590914
114	0x3d2c0390	0.041995585
115	0x3be11c80	0.0068698525
116	0xbb56cf00	-0.003277719
117	0x3e10d372	0.1414316
118	0xbda530b9	-0.08065934
119	0x3de52bdc	0.11190006
120	0x3d526b17	0.05137166
121	0x3d6d8eb0	0.057997406
122	0x3d1da9a3	0.038491856
123	0xbc864f6d	-0.016395295
124	0xbcdc008c	-0.02685573
125	0x3d99e058	0.07513493
126	0x3e5539b0	0.20822787
127	0xbd84cde8	-0.06484586
128	0x3db30e3c	0.08742949
129	0x3b99838d	0.0046848715
130	0x3b2f7358	0.002677163
131	0xbd9f087a	-0.07765289
132	0x3c72b0ac	0.01481263
133	0x3e229e62	0.15880731
134	0x3e2a36a2	0.16622403
135	0xbe08bbfd	-0.13352962
136	0x3c91c038	0.017791852
137	0x3d4cd807	0.050010707
138	0xbd42ef1c	-0.047591314
139	0xbdf11a21	-0.11772562
140	0x3dac2dce	0.08407174
141	0xbe35727f	-0.17719458
142	0xbc2bde17	-0.010489962
143	0xbe6b2550	-0.22963452
144	0xbe2153f7	-0.15754686
145	0x3dbbb01c	0.091644496
146	0x3e3a8192	0.1821349
147	0xbd894682	-0.067029014
148	0x3e10307e	0.14080998
149	0x3cdeccd8	0.027197286
150	0xbc1e1463	-0.009648415
151	0x3e0cf370	0.13764739
152	0x3dc8eba2	0.098105684
153	0xbe1a006a	-0.1503922
154	0x3e0a6420	0.13514757
155	0xbe49bb17	-0.19700275
156	0xbe7daf6e	-0.24773952
157	0xbde4ee81	-0.111783035
158	0xbe3547eb	-0.17703216
159	0xbc8e3d90	-0.01736334
160	0xbbb2de68	-0.005458642
161	0xbdbd0afd	-0.092306115
162	0x3e002ea3	0.1251779
163	0xbe07316b	-0.13202445
164	0xbe23cef2	-0.15996912
165	0x3e3dc33a	0.18531504
166	0x3e5a1a6c	0.21299142
167	0x3db28c0c	0.08718118
168	0x3c04b3ba	0.008099491
169	0xbd885369	-0.06656534
170	0x3de14c40	0.11000872
171	0x3e87f07c	0.26550663
172	0x3e2ece78	0.17070949
173	0xbdb4d9b0	-0.08830583
174	0x3d118e1c	0.035535917
175	0x3dd6bdf4	0.104854494
176	0x3e022280	0.12708473
177	0x3d01efac	0.03172271
178	0xbe11e192	-0.14246204
179	0x3e29f106	0.1659585
180	0x3a88ac32	0.0010427295
181	0xbdcafd39	-0.0991158
182	0xbdcdd55f	-0.10050463
183	0xbd209d52	-0.039212532
184	0x3dc913d5	0.09818236
185	0x3e52cf4e	0.20586893
186	0xbe01a9d9	-0.12662448
187	0x3d86355e	0.06553148
188	0x3c26bbbd	0.010176596
189	0x3d37fad5	0.044916946
190	0xbe262107	-0.16223536
191	0x3e1cba72	0.15305498
192	0x3e2c143e	0.16804597
193	0xbd2609b5	-0.0405366
194	0xbe034f57	-0.12823234
195	0x3cd108b4	0.025516845
196	0xbe2bc930	-0.16775966
197	0x3d9364ae	0.071969375
198	0x3d45bf3e	0.048278086
199	0x3ef9059a	0.48637086
200	0xbdf0a70a	-0.1175061
201	0x3e87a818	0.26495433
202	0x3decbfdc	0.11560032
203	0x3d981ff2	0.07427968
204	0xbd9517e3	-0.07279947
205	0xbdebad8b	-0.1150771
206	0x3e03264c	0.12807578
207	0x3da31a64	0.07964018
208	0x3e293db0	0.16527438
209	0x3e0db532	0.13838652
210	0xbe023e66	-0.12719116
211	0xbe0bcc9c	-0.13652271
212	0xbdcbcfd6	-0.09951751
213	0xbc737553	-0.014859515
214	0xbb8a1760	-0.0042142123
215	0x3cb51479	0.022104489
216	0x3dd5f713	0.10447516
217	0x3e404e28	0.18779814
218	0xbc665690	-0.014058724
219	0xbe807a98	-0.25093532
220	0xbe272e92	-0.16326359
221	0xbd171cc0	-0.036892653
222	0xbc3f2982	-0.011667611
223	0x3e147cda	0.14500752
224	0x3e5bbfc6	0.21459875
225	0x3e0bc659	0.13649882
226	0x3e5ea573	0.21742801
227	0xbd2ca650	-0.042150795
228	0x3d12940e	0.035785727
229	0xbe74a0d5	-0.23889478
230	0x3b080aab	0.0020758312
231	0x3e25d4b3	0.1619442
232	0xbd50fb2b	-0.051020782
233	0x3d8e7afb	0.069570504
234	0x3dd045f4	0.101695925
235	0xbd6aa268	-0.05728379
236	0x3daea674	0.08527842
237	0xbe19b56a	-0.1501061
238	0xbc1598b0	-0.009130642
239	0x3bb061e0	0.0053827614
240	0x3dbf8f57	0.09353512
241	0x3e228f1e	0.15874907
242	0xbe0d56aa	-0.13802591
243	0x3cad087a	0.021122206
244	0xbddd4f91	-0.10806192
245	0x3cd9e714	0.026599444
246	0xbe9a4248	-0.30128694
247	0x3d54de49	0.0519698
248	0x3ba19583	0.0049311533
249	0x3e06d09e	0.13165519
250	0xbe849f4b	-0.2590278
251	0x3e6617cf	0.2247002
252	0x3e1ba82d	0.15200873
253	0xbc7646d4	-0.015031535
254	0xbe4ae9c5	-0.19815738
255	0x3de833a4	0.11337975

network.0.bias f4 [128]
0	0x3e7bbdb3	0.24584083
1	0xbe392631	-0.18080975
2	0xbe667a54	-0.22507602
3	0xbe6d55b7	-0.23177229
4	0xbda49e0c	-0.080379575
5	0x3e574b88	0.21024907
6	0x3e218964	0.15775067
7	0xbddd5fc8	-0.108092844
8	0x3daa4b51	0.08315147
9	0x3e42132a	0.18952623
10	0x3d15d0fa	0.03657625
11	0xbe6b89df	-0.23001812
12	0x3e6be492	0.23036411
13	0x3e35fbb6	0.17771801
14	0xbcbff9aa	-0.023434479
15	0x3ddb41a5	0.1070588
16	0x3cd58f04	0.026069172
17	0x3e9e440a	0.30911285
18	0x3e80c4dc	0.25150192
19	0x3e021a27	0.12705289
20	0x3dcc3ef6	0.09972946
21	0x3d5f729a	0.054552652
22	0xbe1407bb	-0.14456074
23	0xbda396d9	-0.07987756
24	0xbd997a92	-0.074940816
25	0xbe7513a4	-0.23933274
26	0xbcd226fa	-0.025653351
27	0x3cff9471	0.031198712
28	0x3e5abca7	0.21361028
29	0x3d2dd27d	0.042437065
30	0xbdeea8d6	-0.11653297
31	0x3be4e7fc	0.0069856625
32	0xbd694ab5	-0.05695601
33	0x3e6b1cce	0.22960207
34	0x3e7e0050	0.24804807
35	0xbd628530	-0.0553028
36	0xbd3ec994	-0.04657896
37	0x3e86263e	0.2620105
38	0x3e50e328	0.20399153
39	0x3b90cb50	0.004418768
40	0x3e4b89fb	0.19876854
41	0xbd96dc44	-0.07366231
42	0xbd9f2d6e	-0.07772337
43	0x3e3cf227	0.18451749
44	0x3db1bde1	0.08678795
45	0xbe416832	-0.18887404
46	0xbd5a76ba	-0.053335883
47	0xbdac5a67	-0.084156804
48	0xbe2c50a7	-0.16827641
49	0x3dfd2466	0.12360458
50	0x3e58980c	0.21151751
51	0x3ec96759	0.3933666
52	0x3de8f91e	0.1137564
53	0x3e4946cb	0.19655912
54	0x3e633bcf	0.22190784
55	0x3b508cb4	0.0031822147
56	0x3e11a423	0.1422277
57	0x3e1dc7b3	0.1540821
58	0x3e2720f5	0.16321166
59	0x3d95ec5c	0.073204726
60	0x3de4e93e	0.111773
61	0x3e95cb97	0.2925689
62	0x3cc41f4e	0.023940708
63	0x3d582f32	0.052779384
64	0x3ac60842	0.0015108662
65	0xbdcc09b2	-0.09962787
66	0xbd96e87a	-0.0736856
67	0x3a3b8b3e	0.00071542326
68	0x3e09db8c	0.13462657
69	0x3e0179bd	0.12644096
70	0x3dc9c279	0.09851546
71	0x3e10487c	0.1409015
72	0x3c404e18	0.011737369
73	0x3d976577	0.073924
74	0x3e817776	0.25286454
75	0x3e350577	0.17677866
76	0xbe66df03	-0.2254601
77	0x3d96a044	0.07354787
78	0x3bf42f78	0.007451948
79	0xbe812003	-0.25219736
80	0x3a5a561a	0.000832887
81	0xbdeee9f9	-0.116657205
82	0x3d900e46	0.070339724
83	0x3e4e73ad	0.20161314
84	0xbcf46a68	-0.029835895
85	0xbd1f74be	-0.038929693
86	0x3cf80873	0.030277466
87	0x3e9cce5a	0.30626184
88	0x3e770fdf	0.24127148
89	0x3d5fbea1	0.054625157
90	0xbe0703fe	-0.13185117
91	0xbe108b6d	-0.14115687
92	0x3e347c66	0.17625579
93	0x3e87b67b	0.2650641
94	0x3e5ea305	0.21741875
95	0x3b9e95ca	0.0048396336
96	0x3e0495c8	0.12947762
97	0x3db5d39a	0.088782504
98	0x3db55666	0.0885437
99	0x3e8ff111	0.28113607
100	0xbdb6fbc9	-0.08934743
101	0x3e33fe7d	0.17577548
102	0xbe016111	-0.12634684
103	0xbe32b4d4	-0.17451793
104	0x3e7855cf	0.24251483
105	0x3dc34bf1	0.09535969
106	0xbe0f6922	-0.14004949
107	0x3db83f95	0.08996502
108	0x3d35b0f8	0.044358224
109	0xbdf630c4	-0.1202102
110	0xbdc47b06	-0.09593777
111	0x3d74d689	0.05977491
112	0x3e90ba85	0.28267303
113	0x3e11fb2a	0.14255968
114	0x3e42746f	0.18989728
115	0x3e8a41af	0.27003238
116	0xbe4f6e53	-0.20256929
117	0x3e9ccad8	0.30623507
118	0xbe980d1b	-0.296975
119	0x3e45bc0d	0.19310017
120	0x3e7e0cf6	0.24809632
121	0xbe52bc79	-0.20579709
122	0x3ddb9e03	0.10723498
123	0xbe6548dc	-0.22391075
124	0x3d664edd	0.056227554
125	0x3e2e3cbb	0.17015354
126	0x3d05560f	0.032552775
127	0x3db88168	0.09009057

network.2.weight f4 [64, 128]
0	0x3c92eddd	0.017935688
1	0x3c1e6690	0.0096680075
2	0xbd064e08	-0.03278926
3	0xbc51cd72	-0.01280533
4	0xbda16139	-0.07879872
5	0x3ca2c0c2	0.019867305
6	0xbd82e624	-0.06391552
7	0xbe196ac0	-0.14982128
8	0x3b2ff601	0.002684951
9	0x3d559a25	0.052148957
10	0x3d75fef6	0.060057603
11	0x3d8d7000	0.06906128
12	0xbdd34d34	-0.1031746
13	0xbe361973	-0.17783146
14	0xbce0992b	-0.027416786
15	0xbcad5a89	-0.021161335
16	0x3a8b759a	0.0010639906
17	0x3c13f283	0.009029987
18	0x3c3bba7d	0.0114580365
19	0xbd03e752	-0.032203026
20	0xbd8e12ff	-0.06937217
21	0x3c41c835	0.011827518
22	0xbd6d66df	-0.057959434
23	0x3bcb07fe	0.006196021
24	0xbda614ec	-0.08109459
25	0xbdc4892a	-0.095964745
26	0xbd79b97b	-0.060967904
27	0xbced877f	-0.028995274
28	0xbce34a6e	-0.027745452
29	0x3d4a7e56	0.04943689
30	0x3d6d6919	0.057961557
31	0xbda22d20	-0.07918763
32	0x3c21415a	0.009842241
33	0x3b364507	0.002781214
34	0x3d68f3bc	0.05687307
35	0xbe023ee2	-0.127193
36	0xbde54d98	-0.111964405
37	0x3ce9333c	0.028466813
38	0xbe114b69	-0.14188923
39	0xbd67bd2c	-0.056576893
40	0x3d245706	0.040122055
41	0xbe23c2c4	-0.15992266
42	0x3d68f210	0.056871474
43	0x3bb77195	0.005598257
44	0x3cffbfaf	0.031219332
45	0xbcbce0c4	-0.023056395
46	0x3ce2831e	0.027650412
47	0xbdf060cd	-0.11737213
48	0xbda03ca6	-0.07824068
49	0x3d3c1f94	0.045928553
50	0xbc1bac68	-0.009501554
51	0xbd85fec2	-0.06542732
52	0x3bfcb8ed	0.0077124746
53	0x3ce0123e	0.027352449
54	0xbd82a6cf	-0.063794725
55	0xbe5f7fef	-0.21826147
56	0xbe337d26	-0.17528209
57	0xbda75f59	-0.08172483
58	0x3d9bf27b	0.07614609
59	0xbdc469fa	-0.09590526
60	0x3d15a2d6	0.036532246
61	0xbdd80f20	-0.1054976
62	0xbe6ad875	-0.22934134
63	0xbbe304b6	-0.006928052
64	0xbc658b12	-0.014010208
65	0xbd815cb0	-0.06316507
66	0xbddafdd0	-0.10692942
67	0xbd098006	-0.03356936
68	0x3d6e26c9	0.058142457
69	0xbca1a71e	-0.019733008
70	0xbdb07579	-0.08616156
71	0x3d836ec0	0.06417608
72	0xbe7f3c2a	-0.24925295
73	0x3a98207c	0.0011606361
74	0xbd07a940	-0.033120394
75	0x3c841aec	0.016126119
76	0xbe16bb3d	-0.14719863
77	0xbe043b09	-0.12913145
78	0xbcc7e66b	-0.024401864
79	0xbd32e3f5	-0.043674428
80	0xbd631e91	-0.055449072
81	0x3cf12531	0.02943668
82	0xbda7c342	-0.08191539
83	0xbc521139	-0.012821489
84	0x3dcf09aa	0.10109265
85	0xbe2a3f88	-0.16625798
86	0xbda4f63c	-0.08054778
87	0xbcf026d9	-0.029315399
88	0xbddf8e48	-0.1091581
89	0x3de2dfa0	0.11077809
90	0x3d8a9cd9	0.067681976
91	0x3bd6c350	0.006554045
92	0x3b6a40c3	0.0035744167
93	0x3ab5e5af	0.0013877655
94	0x3caf721f	0.021416722
95	0x3d755cad	0.059902836
96	0xbe367c3b	-0.17820828
97	0x3d1a5505	0.037678737
98	0xbd465e10	-0.04842955
99	0x3bebe7c0	0.0071992576
100	0xbe2f06e0	-0.17092466
101	0x3d09f986	0.03368523
102	0x3c89dada	0.01682799
103	0xbde13bcb	-0.10997733
104	0xbd6c8755	-0.05774625
105	0xbd3e3c2d	-0.046444107
106	0x3cde6c56	0.027151268
107	0xbd8a1bcc	-0.06743583
108	0xbe4bb5b5	-0.19893534
109	0x3be8c4b1	0.0071035256
110	0xbdbf6ccc	-0.09346923
111	0xba9bf4ec	-0.0011898554
112	0xbe05bef7	-0.13061129
113	0x3d9c1a62	0.076222196
114	0xbb47d5b8	-0.0030492377
115	0x3d7c9dab	0.0616738
116	0x3d20247f	0.039097305
117	0xbd726639	-0.05917952
118	0x3b98d3a2	0.0046639005
119	0xbcb5beb8	-0.022185668
120	0xbd4169ce	-0.047220044
121	0xbd2a88d3	-0.041634392
122	0x3d1cec89	0.038311515
123	0xbd5b5002	-0.0535431
124	0x3d87253d	0.065988995
125	0x3c48eeaa	0.012263933
126	0xbd4e0fb3	-0.05030794
127	0xbd8eb571	-0.06968201
128	0x3d150aa5	0.036387105
129	0x3affa024	0.0019502682
130	0xbe047364	-0.12934643
131	0xbd917ecb	-0.07104262
132	0xbe44ac35	-0.19206317
133	0x3e123e51	0.14281584
134	0xbe37f1b1	-0.17963292
135	0x3e8c7433	0.27432403
136	0xbd42b20d	-0.047533084
137	0x3d94cbea	0.07265456
138	0xbd0da2b4	-0.034578994
139	0xbd75fc39	-0.06005499
140	0xbcc766fd	-0.0243411
141	0xbe030711	-0.12795664
142	0x3ce800e4	0.028320737
143	0xbdc1fadc	-0.09471676
144	0x3e127272	0.1430147
145	0xbe42f198	-0.19037473
146	0x3e0eadc5	0.13933475
147	0x3dc30264	0.0952194
148	0xbea35b92	-0.319058
149	0x3e2114a2	0.15730527
150	0xb9c98f53	-0.00038444492
151	0x3e4ba885	0.19888504
152	0xbe00f4bb	-0.12593357
153	0xbd9ca38b	-0.07648381
154	0xbd371d16	-0.044705473
155	0xbe454d8a	-0.1926786
156	0x3e3b819c	0.18311161
157	0x3da9a7ac	0.08283934
158	0xbdd69b3a	-0.10478826
159	0xbd5ff4d8	-0.05467686
160	0x3ccb2fa4	0.02480299
161	0xbe2950a9	-0.16534676
162	0xbc973a9d	-0.018460566
163	0xbdee6eed	-0.11642251
164	0xbe0f302c	-0.1398322
165	0xbcd4e02e	-0.025985803
166	0xbcff944b	-0.031198641
167	0xbd2366ad	-0.03989284
168	0x3d2ee224	0.042696133
169	0xbe2c7073	-0.16839771
170	0x3e0675d1	0.13130881
171	0x3d0e2a05	0.03470804
172	0xbcdd6aa4	-0.02702839
173	0xbda382c5	-0.07983927
174	0x3d07a2b9	0.03311417
175	0xbd219fa7	-0.039458897
176	0x3d85d054	0.06533876
177	0xbd5bf8f8	-0.053704232
178	0xbd288b93	-0.041148733
179	0xbd4a6445	-0.04941203
180	0xbd69e70f	-0.05710512
181	0x3da6a7f4	0.08137503
182	0x3a469ffc	0.000757694
183	0xbd092671	-0.033483926
184	0xbe5d8f8c	-0.2163679
185	0xbe6b0d81	-0.2295437
186	0x3de01d06	0.10943036
187	0x3c0bb95c	0.00852808
188	0x3c01f4cb	0.007931898
189	0xbe21b4d5	-0.15791638
190	0xbc83b66b	-0.016078195
191	0xbda3d439	-0.07999463
192	0x3d96902b	0.073517166
193	0x3c191645	0.009343688
194	0x3b282d07	0.0025661604
195	0xbdf92e71	-0.12167061
196	0x3d7902cd	0.060793687
197	0x3d883e85	0.0665255
198	0xbe5a8d2e	-0.21342918
199	0xbe6160a3	-0.2200952
200	0x3de5c728	0.11219627
201	0x3dbc6a7f	0.092
202	0xbdadcf6b	-0.084868275
203	0x3da4e204	0.080509216
204	0x3e25d27a	0.16193572
205	0xbe74bbd4	-0.23899776
206	0x3ac980a0	0.0015373416
207	0xbe103e5a	-0.14086285
208	0xbe2e128e	-0.16999266
209	0xbde3eedf	-0.111295454
210	0xbd845341	-0.06461192
211	0x3c97b7b1	0.018520208
212	0x3e06fdf5	0.13182814
213	0xbd0b62b6	-0.034029685
214	0xbca74846	-0.020420205
215	0x3d87bddd	0.066280104
216	0x3e84b871	0.25921968
217	0x3d8cace4	0.06868914
218	0xbd64f5f3	-0.055898618
219	0xbe28c1c3	-0.16480164
220	0xbd8f5e39	-0.070003934
221	0xbda87a7d	-0.08226488
222	0x38708ed3	5.7353474e-05
223	0xbddbbcb9	-0.10729355
224	0xbe56226d	-0.2091157
225	0xbe4b22c1	-0.19837476
226	0xbc301160	-0.01074633
227	0xbe0aff18	-0.13573873
228	0xbac557e5	-0.0015056102
229	0x3da8991a	0.08232327
230	0xbdf6a5bf	-0.12043332
231	0xbdd63ef5	-0.10461227
232	0x3d0b2590	0.03397137
233	0x3d8bd1de	0.06827138
234	0xbcab6adc	-0.020924978
235	0x3da8ce5a	0.082424834
236	0xbe74831a	-0.23878136
237	0x3b9ccb5a	0.0047849836
238	0xbd47333a	-0.048632838
239	0x3e15a01d	0.1461186
240	0xbe8f3221	-0.27967933
241	0x3e0edde9	0.1395184
242	0x3e171de8	0.14757502
243	0xbb7013c2	-0.003663287
244	0xbe14322e	-0.14472267
245	0xbc553dd0	-0.0130152255
246	0x3e22fb9b	0.15916292
247	0x3cd7a2d8	0.026322767
248	0xbe5d5ab5	-0.21616633
249	0x3d5e8a22	0.054330952
250	0x3dc7cc4c	0.097557634
251	0xbd944731	-0.07240141
252	0xbd43164a	-0.04762868
253	0x3dc04fae	0.09390198
254	0xbdb190b0	-0.08670175
255	0xbc0ab17a	-0.008465165

network.2.bias f4 [64]
0	0x3d5f424f	0.054506596
1	0xbdb2311a	-0.08700772
2	0xbd7c1d50	-0.061551392
3	0x3e127d76	0.14305672
4	0x3c9ab90f	0.018887071
5	0x3e496e73	0.1967104
6	0x3e4ac519	0.1980175
7	0xbd79da19	-0.06099901
8	0xbdff3b8e	-0.12462531
9	0x3dc44970	0.095843196
10	0x3e1a0870	0.15042281
11	0x3cb12326	0.021623205
12	0xbe2327a1	-0.15933086
13	0xbd93d76a	-0.07218821
14	0x3d7cce7f	0.061720368
15	0x3db1625d	0.086613394
16	0x3ccc4a7f	0.024937866
17	0xbe4f0805	-0.20217903
18	0x3d2c19dc	0.04201685
19	0x3e0ab4ad	0.13545485
20	0x3d0d7d34	0.03454323
21	0xbc52f2cd	-0.012875271
22	0x3da74420	0.08167291
23	0x3e0df529	0.13863052
24	0xbd806eac	-0.06271109
25	0x3e02f107	0.12787257
26	0xbd4c15ac	-0.049825355
27	0xbd311c0b	-0.043239634
28	0xbdaacfc4	-0.083404094
29	0xbb5252ba	-0.0032092766
30	0xbc8d2da1	-0.017233672
31	0xbd0ceb79	-0.03440425
32	0xbd4932d8	-0.049120754
33	0xbcca73a9	-0.024713354
34	0xbc83242a	-0.016008455
35	0x3e68426f	0.22681592
36	0x3e1b6c99	0.15178145
37	0x3d6bbb42	0.05755163
38	0xbbf06993	-0.007336804
39	0x3e039306	0.12849054
40	0xbe35c193	-0.17749624
41	0x3d05b6d4	0.03264506
42	0x3dcbef01	0.09957696
43	0x3d3ca203	0.046052944
44	0xbbab490b	-0.0052272133
45	0xbdcbd3c3	-0.099525
46	0xbdde5398	-0.10855788
47	0x3e0dd595	0.13851006
48	0xbb0d0989	-0.0021520576
49	0xbd5ef60e	-0.054433875
50	0x3e5d8aaa	0.21634927
51	0xbd783443	-0.060596716
52	0x3e0a8b2c	0.13529652
53	0x3d4452a3	0.04793037
54	0x3dd46739	0.10371251
55	0x3de7efbf	0.11325025
56	0xbd824864	-0.06361464
57	0x3df81899	0.12114067
58	0x3cb8e7e8	0.022571519
59	0x3d7c7441	0.061634306
60	0xbd94cc7e	-0.07265566
61	0x3d6aa612	0.057287283
62	0xbdbb222c	-0.09137377
63	0xbceec6ad	-0.02914747
