models/ppo_agent_ep20.pt (torch, 364210 bytes, 45 tensors)

network.0.weight f4 [128, 30]
00000000: 3546 14be 652e d43d e1a7 a33d 7930 15be
00000010: 8e19 74be f1ab f1bd 0046 8fbd 1026 14be
00000020: 7c80 edbc a5cf 9e3d b5cb 15be ea0b 89bd
00000030: 6194 063e 1aae 4e3e 3d60 1c3e 53aa 4cbb
00000040: 5564 c6bc 355c f23b a9bf c1bd 45fb 33bd
00000050: aad2 24bd 585d bc3d 67f2 173e dc63 aabb
00000060: 083d e53d ff03 18be 6802 35be 4007 453d
00000070: 08f8 4cbd 49fc c9bd e53c 233c a5e2 22be
00000080: 9b21 34be 60d5 ef3c d53d 44be a201 d53d
00000090: 7456 513e f547 543d d2a8 c8bd dd7d e13d
000000a0: 2f13 33bd 39a0 89bc 990c f63c e831 f63d
000000b0: 0be9 fc3d 2507 0dbe 6af9 d93d da41 26be
000000c0: 2234 7fbd 79d5 533c 4fdc 1f3e d97a 093e
000000d0: 65c6 b4bd ed8b c43d bba2 94bd 80af ab3c
000000e0: 4037 3cbc 606e ae3b 76eb b7bd 90f4 32bd
000000f0: 3b59 ebbd ce9a 55bd 2ff4 1c3e 65e0 5bbc
00000100: 6ca7 b8bd bfbf ba3d c22a 283d d69f eb3c
00000110: abbb 1b3e b8c5 083d 3db2 2b3c e244 b03d
00000120: f08e 2c3c 249d 2bbe e5bc 173e 2790 cabd
00000130: d64a 013e f912 cc3d f56e 0fbe f8b9 38be
00000140: 607b d73d 1963 183e d61e 27be ff5f 093e
00000150: 3e4d 123e cc2d 373e 5753 92bd b83d c83d
00000160: 016a e1bd 9abe b9bd aba9 c8bd 5d66 d7bd
00000170: 78bd ef3c 2af7 a5ba ee37 71be 0c55 90bd
00000180: 96c7 8cbd 0029 2bbe c414 173e 70d2 9bbd
00000190: 0b49 38bd 6fda 2f3d 3b88 a2bd f4ec ae3d
000001a0: 7e52 cebd d54a 253e 5c1d fd3d b141 083d
000001b0: d63f a0bd 3328 263d 36c7 c2bb 9c05 85bd
000001c0: 1f9a 6dbe 9132 663e 8693 09be 4443 323e
000001d0: 84de e13d 30db de3d e0a0 423c 3a13 a5bd
000001e0: 06d4 fb3d ac46 92bd 55af 43bc 64e6 173e
000001f0: 9a01 193d ddd4 3dbe 0a58 3fbe 45d5 ca3d
00000200: 6570 303e e13a 65bd c7b3 4b3e 4080 2e3d
00000210: ca6d fc3d cce9 a8bd 89c5 2a3d 88e5 503e
00000220: 0f6f 8bbd d746 79bd 0c37 26be 008e 1d3d
00000230: ef56 253e 71bc c2bd 59b0 bbbc 9ab1 e5bd
00000240: d0b7 233c 7e05 843d e972 bfbd 3061 28bd
00000250: 0420 703d 0020 5bbb 7abf 3abd 0d2e 363d
00000260: 7e45 0fbe 6085 35bd b5e8 0e3e 3079 44be
00000270: 10b3 07be 188d 7b3d 67c6 2fbe 9064 873d
00000280: 56d4 f13d 65a5 49bd e956 28bd 2912 1dbe
00000290: 8730 dbbc 441a acbb 74c4 b83d 9e43 9ebd
000002a0: b494 043e 85fc 06bd 8c62 99bd 8ee4 bfbd
000002b0: 518a 0bbe 9763 e93d 14f3 543d b4cf 173d
000002c0: 0e22 09be f8d0 d5bc 78a3 e93d 7b20 92bd
000002d0: fbea e63d caf4 94bd a469 163e b589 0c3e
000002e0: 5aed f6bd 5eb5 31be 5ab2 32be 9861 2c3e
000002f0: b878 4cbd 5e2b b3bb 3917 2c3e da61 9dbc
00000300: bf51 00be 75cf 2f3e a8b8 b83d 62f8 bcbc
00000310: 8609 be3d 4558 a0bb 13eb 193e 0d5e fbbc
00000320: a46c f43c 60a0 e2bd 2e5d 883d 75e1 553e
00000330: 88bb 543d 78fc 2a3e 5c23 383e 3bae 28be
00000340: 3a70 e5bd f0cb 35be 8a87 1c3e 39ad 2abe
00000350: d2a9 dbbd 02d2 093e 9240 b0bd 0b7e 99bd
00000360: e5d7 85bd c9b4 90bc 40e7 153e 67a5 a73c
00000370: 27cd 193e 435c a03b 4a44 263e abf6 1b3e
00000380: e2db 77bd 914f 37be 3769 273e f381 0d3e
00000390: a7e2 9dbd 3f4f 573c ef3e f1bd 1972 2b3e
000003a0: b4e9 e1bd 46d7 c03d df71 1dbe a0f0 c13d
000003b0: 00a7 63ba e464 1bbd d05b 413c 7e4a 123e
000003c0: 37bf 36be 5677 0b3d 58b7 2b3d 131a d03d
000003d0: 48c1 85bd 679d 51bd 6158 9dbd e442 fc3c
000003e0: 80af c6bd 7b4f 083e 71d1 473e 9ce3 dc3d
000003f0: 60c3 d5bd 1ac5 d2bd a9eb 303b cce8 b03b
-0.14479907 0.103604116 0.07991005 -0.14569272 -0.23837873 -0.11800373 -0.06995773 -0.14467645
-0.02899193 0.07754449 -0.1462849 -0.066917256 0.1314254 0.20183602 0.15271087 -0.003122945
-0.024217764 0.007396246 -0.094603844 -0.0439408 -0.040239967 0.091974914 0.14838563 -0.0051998924
0.111932814 -0.14845274 -0.17676699 0.048102617 -0.05004123 -0.09862573 0.009963249 -0.1590677
-0.17590944 0.02927655 -0.19164212 0.10400702 0.20443135 0.051826436 -0.09797825 0.11010335
-0.043719467 -0.016800033 0.030035304 0.120212376 0.12349137 -0.13772257 0.10643275 -0.16236058
-0.062305577 0.012929314 0.15611385 0.13425769 -0.08826903 0.09597001 -0.07257601 0.020957708
-0.011487782 0.0053232163 -0.089804575 -0.043690264 -0.11491629 -0.052149586 0.15327524 -0.013420199
-0.09016308 0.09118604 0.041056402 0.02876274 0.15208308 0.033391684 0.010479507 0.08606888
0.010532126 -0.16759163 0.14818151 -0.09890776 0.12626204 0.09964556 -0.1400717 -0.18039691
0.10521579 0.14881553 -0.16320357 0.13415526 0.14287278 0.17888564 -0.07144802 0.09777397
-0.11006547 -0.090695575 -0.097979866 -0.10517571 0.02926515 -0.0012662162 -0.23556492 -0.070474714
-0.068740055 -0.16714859 0.14754015 -0.07608497 -0.044991534 0.042932924 -0.0793614 0.08541289
-0.10074328 0.16141827 0.123591155 0.033265773 -0.07824676 0.04056568 -0.005944158 -0.064952105
-0.23203324 0.22480227 -0.13435182 0.17408472 0.110287696 0.108816504 0.011879176 -0.08060308
0.122963 -0.07142386 -0.011943658 0.14833981 0.037355043 -0.18538232 -0.18685928 0.09903959
0.17230375 -0.055964354 0.19892798 0.042602777 0.12325628 -0.08247718 0.04169229 0.20400059
-0.06808292 -0.060858574 -0.16231936 0.0384655 0.16146444 -0.095085986 -0.022911238 -0.112155154
0.009992555 0.0644636 -0.09348089 -0.04110831 0.058624282 -0.0033435822 -0.045592763 0.04447751
-0.13991353 -0.04431665 0.13955958 -0.19186854 -0.132519 0.061413854 -0.17165528 0.06610978
0.11808078 -0.04923 -0.04109851 -0.15338959 -0.026756538 -0.0052521545 0.090218455 -0.07727741
0.1294735 -0.032955665 -0.074894994 -0.09369765 -0.13626982 0.113959484 0.05198963 0.037063316
-0.13391897 -0.02610062 0.11408132 -0.071351014 0.11275288 -0.07273252 0.14688736 0.13724406
-0.1205699 -0.17354342 -0.17450848 0.16834104 -0.049919814 -0.0054678163 0.16805734 -0.019211698
-0.12531184 0.17168982 0.090195954 -0.023067657 0.0927916 -0.004893335 0.1503108 -0.030684495
0.02983696 -0.11065745 0.066583976 0.20886786 0.051936656 0.16697872 0.17982239 -0.16472714
-0.11203046 -0.17753577 0.15286079 -0.16667642 -0.1072575 0.13459018 -0.08606066 -0.07494744
-0.06535319 -0.01766433 0.14638996 0.020464612 0.15019666 0.004893811 0.16236988 0.15230815
-0.06051243 -0.17901446 0.1634873 0.13819103 -0.07709246 0.013141452 -0.11779582 0.16742744
-0.110309035 0.0941606 -0.1537547 0.09469724 -0.0008684248 -0.037938014 0.011801675 0.14286229
-0.1784638 0.034049354 0.041922897 0.10161223 -0.06531006 -0.0511755 -0.076828726 0.030793615
-0.09701443 0.1331157 0.1951349 0.107856005 -0.104376554 -0.102915004 0.0026995933 0.0053988453

network.0.bias f4 [128]
00000000: e660 debd de53 1dbb 2bd7 353e 9f0d 1bbe
00000010: 27cd e13d 21ec 04be b3e9 573c ca98 b9bd
00000020: f27e 91bd 6515 293d f02d 213e 285e 053e
00000030: 6da0 eebd ad00 3abd 6f1e 213d cfd2 1e3e
00000040: 72d2 15be 497b 293e 5c91 653e d4e2 febd
00000050: 5ee3 a73d a97e 98bd 11d5 4abc 6e98 7e3d
00000060: b912 0dbd 0cc8 5aba c5ee 203e 816d 153e
00000070: 064e e53d e19d 3abe e617 07be 4e23 1a3e
00000080: 7279 b2bd 9965 b03d f8bc 943d 0236 fabc
00000090: 640a 72bc a297 643d 3bc7 263d 36d2 f03c
000000a0: 27cb dfbc 3d58 d33d e11a ad3b 0060 213e
000000b0: 6e33 09bd 4798 15be c058 1d3e ce86 b03d
000000c0: 49ef a2bc 0873 4e3e 3471 22be 6ab4 01be
000000d0: 477a a53d 3fb3 84bd 600b 363e aac1 f53c
000000e0: b8eb de3c 9a12 83bc a978 21be ea24 f13c
000000f0: b62a 023e 52c8 523a d135 093e a2f3 373e
00000100: 0a10 3d3a 9e67 1ebe ea76 883d 26ec e0bd
00000110: eced 24bd 9a9a d73c 9709 92bd 4c87 2bbe
00000120: b0c1 3a3c 0eaa 3fbc 5ad5 363b 087d f7bc
00000130: 60b5 5a3d a9db cdbd 3e34 293e 94f5 eabd
00000140: c3b8 e43d 7014 0c3e 63e7 063d 0ad5 9a3d
00000150: 5b92 6d3c 1309 c03d a108 3b3e 8a7a fcbd
00000160: 6801 e4bd fc80 083e b1cf 3cbe e69e 62bc
00000170: c5ec 143e 0988 e5bc 8e07 0cbe 7be1 09be
00000180: 3608 633c dfe3 edbd 80fc dc3d bea3 9fbd
00000190: beb0 223e 67ab 3b3e a92e 903d 68c2 c43d
000001a0: e2bc 843d e864 da3d bf4c 053e 6a79 ae3d
000001b0: f337 c4bd d200 adbc 9b6c 9e3b 4213 44bd
000001c0: a121 7dbb 87d6 363c e2ed 2f3e 3c87 fabd
000001d0: 2226 f63d 7143 05bd 51f0 0d3e 0776 723d
000001e0: 58b4 5cbc 181e 6f3e 6c24 d03d 20df 1a3e
000001f0: 637e 983d bfae 8b3d 0d00 c0bd ff1b d03c
-0.10858326 -0.0024006288 0.17757861 -0.15141915 0.11025458 -0.12980701 0.013178277 -0.09062345
-0.07104291 0.04128017 0.1574018 0.13024199 -0.116516925 -0.0454108 0.039335664 0.15510105
-0.1463106 0.16550936 0.22418731 -0.12445608 0.08197664 -0.074460335 -0.012379901 0.062157087
-0.034441683 -0.00083458493 0.15716083 0.14592554 0.111965224 -0.18224289 -0.1319271 0.1505253
-0.0871457 0.08613128 0.072626054 -0.030543331 -0.014772985 0.05580867 0.040717345 0.029397111
-0.02731855 0.103195645 0.005282745 0.15759277 -0.033496313 -0.1460887 0.15365887 0.08619462
-0.01988949 0.20161068 -0.15863496 -0.12666479 0.08079963 -0.06479501 0.17777777 0.029999573
0.027212009 -0.01600008 -0.15768684 0.029436547 0.12711605 0.00080407143 0.13399436 0.17964032
0.0007212168 -0.15469214 0.06663306 -0.10982542 -0.040265962 0.026318837 -0.07130735 -0.1675083
0.011398718 -0.011698259 0.0027898164 -0.030210987 0.05339563 -0.100516625 0.16523835 -0.114726216
0.11168053 0.13679671 0.03293551 0.07560165 0.014500226 0.09376731 0.1826501 -0.1232806
-0.11133081 0.13330454 -0.18438603 -0.01383183 0.14543445 -0.028018968 -0.13674757 -0.1346492
0.013856938 -0.116157286 0.10790348 -0.07794903 0.15887734 0.18327104 0.0704015 0.096073925
0.06481339 0.106637776 0.13017558 0.08519252 -0.09580984 -0.021118555 0.004834724 -0.04786993
-0.003862478 0.011159546 0.17180589 -0.12232825 0.12018992 -0.03253502 0.13861205 0.05919459
-0.013470732 0.23351324 0.10163197 0.15124178 0.07445981 0.068204395 -0.0937501 0.025403975

network.2.weight f4 [64, 128]
00000000: 2e7c 943d 9ace 143d be6a 363d 0c6b f03c
00000010: 8287 433d d874 423d 18ab 7ebd 47a6 d8bc
00000020: bb5a 733d 4165 10bc 8f6f 91bd 92ca 8c3c
00000030: 9286 a1bd f35f 853b 2c29 aabd 6522 fdbc
00000040: 2cbb b9bc dfed cb3d 82e6 a2bc e681 763d
00000050: 0963 b0bc 3ec0 803d 2d9b 133d 845b 043d
00000060: c4ac f73d 6efa 003c 2756 a63d 1a30 0ebd
00000070: 244f 903d 83d0 c43d c56a 94bc 3724 a63c
00000080: 1b9e 853d 1d82 783c fe72 8e3d ddcb e0bc
00000090: 9d6c 893d a277 fa3c 3d7e f43d 1536 2f3c
000000a0: a9a9 943d 8a5e 783d 2ce9 2bbd c1d5 faba
000000b0: c264 85bd d072 443b 62d3 513d cbfa 69bd
000000c0: 41aa 313d 7094 07bd 482d 43bd a540 9e3d
000000d0: 0823 ab3d 42cf 04bd fb49 bb3d 8ff2 8dbc
000000e0: 2b6c 933d 61ab 31bc 5ab5 903c 21a5 6b3a
000000f0: c724 5abd 8f2b 763d ec69 803d eca2 8fbd
00000100: b885 bcbc 8cca d03c 030b 463d a86b a6bc
00000110: 8649 4fbd 19f8 9dbc ed3d aabc ad62 b1bb
00000120: 72cc 8dbc 7522 91bd 8cbe 7bbc 15fd 573d
00000130: 01d0 1e3d cb8d b63d 50bc a73c 5478 a83c
00000140: b26e c73d a72d 073d de67 aeb9 3b37 07bd
00000150: ce06 f33b b904 febb e55b b1bc e551 1bbd
00000160: 106a 4fbd 5803 f93d a825 903c e2e5 69bd
00000170: 51b8 9f3d 89c0 ab3d 5f99 86bc 5628 c1bc
00000180: c946 a73d adbb cd3c 3244 40bd 1ea6 bbbc
00000190: 17d8 9dbd 5250 26bd 5e2e 3ebc 7c3e 2cbb
000001a0: b7d6 c33d f29d 3f3c 9b26 913d 0a51 c43d
000001b0: 14d4 4d3c cc33 6fbc 3171 eb3c 5e84 9bbc
000001c0: 44ba 733d abe4 9fbc 8514 8fb9 818e 2e3a
000001d0: ea41 04bd 2324 873c 0922 2cbc 724e 873d
000001e0: e0ab 113d 5315 9c3d 2a02 ce3c dc46 2e3c
000001f0: 3d41 ed3c f8fb 1abd 76be b03d e642 fe3d
00000200: 6822 1e3d 465b 9b3c 445a d539 02e0 083d
00000210: 4122 6bbd 9bcc 8e3d 398f 3fbd acb3 253d
00000220: c75f 9abd 0302 903d 604d ba3d d8e8 81bc
00000230: c82f 823d 6786 61bd 93fa a13c 6134 d33c
00000240: b3db 55bc 5be1 143d cc3f 673d e41f 87bc
00000250: a107 a3bd 548f 083c 63ee d4ba 38bf 04bd
00000260: 5be8 95bd bfcf bfbb 94b0 003e d9c5 1f3d
00000270: e047 a43d 7d6f eebc c766 893c 0133 ed3d
00000280: 742e 16bc b69d 8a3d cf69 6ebd bc7d 8a3c
00000290: 0849 9cbd 5806 fb3d 4241 e63d 6fff 4f3c
000002a0: f864 173d 0970 3dbd 6b22 8f3d d854 c1bd
000002b0: 8447 9bbc e8f0 2e3c dc2f 69bc c01b 7a3b
000002c0: df6c 2a3d 098e 78bb ac7c 5abc ab23 47bc
000002d0: 44d4 813d af72 21bc f325 343d 0dfc 57bd
000002e0: 3a55 3bbc 3eb8 853d 267f afbc b8c3 e83c
000002f0: 4569 68bd 04f0 1a3d b81a 693d 54fc b33d
00000300: 84a4 60bb 29be 803c 88eb 013d 4185 123d
00000310: d6c6 683b cdfd dc3c a809 97bd 9cbb 0fbd
00000320: 2a95 6d3d 1ad2 9d3d 8208 aabd 683c 56bc
00000330: a0b7 103d 8e3a f23d 8276 063d ee95 313e
00000340: 08a9 bd3c 866b f63d c011 293d 377c f73d
00000350: cb88 40bd 4beb 0a3e 94ff c3bb 5b9c 24bd
00000360: ecb5 ba3d 9770 b93c b23a 97bd 4995 efbb
00000370: 66f0 e73d bc8b fbbd 4a76 cbbd 6df3 06bd
00000380: 4cee 8b3d 6da3 c8bd ea03 c1bc 87e4 7b3d
00000390: 62fa 033d 03d2 fc3d a7f6 863d 0336 72bd
000003a0: d870 86bd e615 f7bd deb3 0ebd 6e7d a63d
000003b0: 476e a0bc b6a6 283d 5104 303b 5d7b 4bbd
000003c0: bfad ea3c 4b26 c2bd 6d1c de3d 87ab 6f3d
000003d0: f954 493d c7ee c1ba 6389 113d 2d01 893c
000003e0: 0c0b 273b b2b3 eebb 6cd0 48bd b40e 543d
000003f0: 3598 733d d063 88bd bc2b a13d df48 9ebb
0.07250248 0.036329843 0.04453539 0.029347919 0.047736652 0.047474712 -0.062174886 -0.026446475
0.0594127 -0.008813203 -0.07101356 0.017186437 -0.078869954 0.004070276 -0.08308634 -0.03090019
-0.022672258 0.0995748 -0.019885305 0.060182475 -0.021531599 0.06286667 0.03603666 0.03231384
0.12093499 0.007872207 0.08121901 -0.034713842 0.07046345 0.09610083 -0.018117318 0.02028094
0.06524297 0.01516774 0.06955527 -0.02744096 0.067101695 0.030574623 0.119381405 0.0106940465
0.072589226 0.060637034 -0.041970417 -0.001913719 -0.06513359 0.002997566 0.05122698 -0.05712394
0.043375257 -0.033100545 -0.047650605 0.07727174 0.08356291 -0.03242422 0.0914497 -0.017327575
0.07198366 -0.010844083 0.0176646 0.00089891447 -0.05325773 0.060100134 0.06270203 -0.07013497
-0.02301298 0.025487207 0.048350345 -0.020315006 -0.050607227 -0.019283341 -0.020781482 -0.0054133744
-0.017309401 -0.0708665 -0.015365254 0.052731592 0.038772587 0.089137636 0.020475537 0.02056519
0.0973791 0.03300252 -0.00033265253 -0.033011656 0.0074165827 -0.007752028 -0.021650264 -0.037919898
-0.05063826 0.12158841 0.01759608 -0.057104 0.077988274 0.083863325 -0.016430555 -0.023578804
0.08167798 0.025113905 -0.046940036 -0.02290636 -0.077072315 -0.040603943 -0.0116077345 -0.002628236
0.09562438 0.011695372 0.070874415 0.095857695 0.01256277 -0.014599752 0.028740497 -0.018984016
0.05950381 -0.019518217 -0.00027290374 0.0006658808 -0.032289423 0.016496724 -0.0105061615 0.06606759
0.035564303 0.07621255 0.025147516 0.010637011 0.028961772 -0.037837952 0.086300775 0.124151036
0.03860703 0.018964421 0.0004069378 0.033416755 -0.057405714 0.06972619 -0.046767447 0.04045455
-0.07537799 0.07031634 0.09096789 -0.015858099 0.0635677 -0.055059817 0.019772803 0.025781812
-0.013052869 0.03634773 0.056457326 -0.016494699 -0.079604395 0.008334953 -0.0016245361 -0.032408923
-0.07319709 -0.0058536227 0.12567359 0.03900704 0.080215216 -0.029105896 0.01677264 0.11581994
-0.009166349 0.06768362 -0.058206376 0.016905658 -0.07631117 0.12257069 0.11242916 0.012695177
0.036961526 -0.046249423 0.069889866 -0.09440011 -0.018955 0.010677554 -0.014232602 0.0038163513
0.041607734 -0.0037926456 -0.013335388 -0.0121545 0.063393146 -0.009854003 0.043981504 -0.05273061
-0.011433894 0.06529282 -0.021422934 0.028413638 -0.056741018 0.037826553 0.056910247 0.08788362
-0.0034277746 0.015715675 0.03171876 0.035771612 0.0035518906 0.02697649 -0.07374889 -0.035091028
0.058003582 0.07706089 -0.08302404 -0.013075925 0.03533137 0.11827575 0.03282786 0.1734235
0.02315189 0.12032227 0.041276693 0.12084239 -0.047005456 0.1356632 -0.005981395 -0.040188175
0.0911673 0.022636695 -0.07384242 -0.0073114973 0.11325149 -0.122825116 -0.09934671 -0.032946993
0.06832561 -0.09796796 -0.023561437 0.061497238 0.032221206 0.12344744 0.06590014 -0.05913354
-0.06564492 -0.12064724 -0.034839503 0.081293926 -0.019583834 0.041174613 0.0026858042 -0.049678195
0.028647302 -0.0947996 0.108452655 0.05851319 0.049153302 -0.0014795893 0.035531413 0.016724193
0.0025488762 -0.007284605 -0.04902689 0.051771834 0.059471328 -0.06659663 0.0786967 -0.0048304643

network.2.bias f4 [64]
00000000: 18f4 8d3b 956d 2ebd 75fc 443d 702f b93c
00000010: 65a0 fbbc d36c f7bc e6c2 2dbb a855 9a3d
00000020: b0ea 5cbc 9404 953d e7f1 523d a924 b53d
00000030: e5a7 1ebd 8824 20bd 25a3 343d 4937 90bc
00000040: 9716 7abc 2e1f 22bb bf0f 1fbd c989 01bc
00000050: a592 4abd fe55 0cbd 9165 81bd 8f3e 49bc
00000060: de9b 8b3c 6588 6b3d baf4 b6bd 05f4 9bbd
00000070: 0f36 31bd 09ce 93bd 6acd 09bd 5fce c4bc
00000080: c51c 8abd 58c3 723d dfbe 693c 8b6b f43c
00000090: c9f5 fe3c 3311 993d 0922 a4bc de99 283c
000000a0: 1801 0b3d 47d3 4b3d 3dcf b03d b8d0 7abd
000000b0: 08cc febc 5245 83bd 1534 993d 1adc 863d
000000c0: 4a93 28bd f682 723d f687 41ba 7ea0 c23d
000000d0: 999e 5bbd 9929 bd3c 1763 823c 45ae b13a
000000e0: a915 33bd a6a8 dd3c 22fc 40bc 213f d0ba
000000f0: 85ed b53d 34f6 a43c eedb 833d bff0 183c
0.0043320768 -0.042584974 0.048092324 0.022605628 -0.03071613 -0.030203259 -0.0026513874 0.07535869
-0.013483688 0.07276264 0.051500227 0.08844883 -0.038734335 -0.03909734 0.0441009 -0.017604487
-0.015264175 -0.0024737823 -0.038833376 -0.007906386 -0.049456257 -0.034261696 -0.063182004 -0.012282982
0.017042097 0.057503123 -0.08933397 -0.076149024 -0.043264445 -0.072170325 -0.033643164 -0.024024187
-0.067437686 0.059268326 0.014266699 0.029836437 0.031123059 0.074739836 -0.02003576 0.010290591
0.03393659 0.049762037 0.086332776 -0.061234206 -0.031103149 -0.06409706 0.07480637 0.0658495
-0.04115609 0.059206925 -0.00073826255 0.09503268 -0.053618047 0.023091124 0.01591639 0.0013555965
-0.04372183 0.027057957 -0.011778863 -0.0015887955 0.08883194 0.02013693 0.06438433 0.009334742

network.4.weight f4 [32, 64]
00000000: 149c cebd 52a7 8e3d 8a63 d63d 6797 7bbd
00000010: ec1e ea3a d933 d73d 4dea 8c3c acb2 123e
00000020: 3d28 e6bd 87b0 81bc f5c8 153d a2f6 c73c
00000030: 23c4 e2bd fbdc 9dbb bea0 a03b 79f0 d23d
00000040: fd74 eabd 77c4 123e f1aa 0abd 7334 bfbd
00000050: dc70 073e d1d1 8d3d da19 e63c 79c5 15bc
00000060: 25d1 023e 502f 7cbc f31c 15bd 22d2 82bb
00000070: d63d 323e d7e7 1c3e ad6a ccbd 249b 35bd
00000080: e0f1 dbbd 61d1 1d3d eb31 123e 0cea a2bc
00000090: 17e1 143e e706 163d 3aae 1e3d fc9d 163e
000000a0: 3419 9e3d 9e6e 6d3d 48d2 c03d ea6d 27bd
000000b0: 73c4 07be 2c1e 263e 95bd cfbd 5fd9 3a3d
000000c0: ab28 ac3d fad3 abbd 1b6d 2d3e 1c52 093e
000000d0: 546c d53d 1333 b4bd 0dfe 143e e7bd 023d
000000e0: 50ba 0dbd 682a 3e3e 4a89 49bd d813 22be
000000f0: 21f3 f8bd 8043 1e3e ca6a 853d 0bc8 e53c
00000100: 54a5 f3bd 31d3 983c 3b57 0cbd 5bc8 753d
00000110: 7fee adbd bfe8 b33d 5e89 da3d 24da db3d
00000120: b7a4 b73d bbc7 46bb 8a76 8c3d 57e3 60bd
00000130: c940 163d f809 b6bc 84b5 873d 07cd 6dbd
00000140: 69b2 f3bd 2c32 35bd 2c24 9d3d 09c9 683c
00000150: 5c11 bebc efda c6bc c8c2 3cbd 68bb e63d
00000160: 619d 05be deed 4c3c 7fd3 ae3d 0163 4e3d
00000170: 0da1 473d b990 95bc 6b5f 893d 302a 243d
00000180: e05b cd3d 81b1 46bd d453 9dbd 8c65 a1bd
00000190: eff1 a3bd 6a99 03bd 21d0 41bc f75e 4dbc
000001a0: 3aa1 08be a8e8 863c 35c7 88bd 75d2 10bb
000001b0: a397 23bd 878f e13d 1136 67bc b7d0 243d
000001c0: fdee c6bc dc16 7b3d 8014 3fbb 1c57 bdbd
000001d0: 16bb 82bd 1718 bcbd 4df5 bf3d 14ff febd
000001e0: 797c 46bd d2bb 8abb 4da4 463d adfc 2d3d
000001f0: fd5d a73d 94d5 29bd 3782 513d 9171 85bd
00000200: 2dd4 80b9 86c8 07bd de7a 163d 3b83 d93d
00000210: 4bf6 453c 7d74 9e3d a3b0 bf3d f433 183d
00000220: c5d3 aa3d 2e12 bb3d e5a5 df3d d78e 8a3c
00000230: adfb 483a f60b 6cbd 4d2c 5abd 8dbb c1bb
00000240: c62d b1bd 1196 03bd e9ed bdbc 3ff5 b63d
00000250: 016f 133e d903 eb3c 0594 00bd 6a73 08bd
00000260: 42a0 d33d 4909 03bd 1f88 923d 1c7d 863d
00000270: d5ce 85bd b46e babc af93 91bd ae3d a6bd
00000280: 5107 be3d 4e30 a4bd 5d15 d1bd 3769 63bd
00000290: 2af0 b9bb 3af4 e93d 6864 97bd e656 c23d
000002a0: fae5 cebd e0b3 593d ee57 233d 2eb8 b1bd
000002b0: 4b05 cebd f0f3 17be 484d 21ba 5654 583d
000002c0: dc2b aebd 0ffa 6ebd c0d7 873d 6af2 323c
000002d0: 7b51 6b3d 09ce 0abe fca7 bc3d 2411 5fbd
000002e0: d50e 973c dd12 203b e97b 3b3e bf68 f4bc
000002f0: 4c9f 9dbc 8451 04be 4c92 c0bd 67a2 1b3c
00000300: dfb3 b73c 5467 e6bc d4fd 93bd 015d 9e3d
00000310: cd36 ce3d bb0d 9a3d 1e5f c2bd 5cde 22bd
00000320: 85d5 853d 7da2 8ebd fa19 903c 2f9f e5bc
00000330: 47e8 8b3d f91e d4bc abc2 9fbc 3aef ffbd
00000340: 0a74 2fbd b117 c8bc f1f5 c8bc cec1 e53c
00000350: 14f1 c2bc c42e ab3c 8d86 6fbd 16f9 8abd
00000360: c666 d9bd 3b0d 2c3c 2d3d fbbd f6bc 883d
00000370: a33d 8f3d 23b8 8dbc 82a7 68bd 0b23 763d
00000380: 339b b23d 90c9 4c3d d65a ffbc b4ee 8dbd
00000390: 5e94 83bc 1d78 143c f741 723d ed93 2b3b
000003a0: ead5 7b3d 3c0a 843d 8deb cf3d 7759 89bd
000003b0: 3bab 7c3d 110c ab3d bc6c ab3d ece6 1abd
000003c0: 1069 a53d e901 c43d ac1a 7bbd a3ee eb3d
000003d0: 52da ab3d 7fcc c33c 68ad 91bd 02ab 87bd
000003e0: e369 dd3b 1e83 273d c7a4 10be be75 a8bc
000003f0: b57b be3d 2dc8 883c d881 b13d 3c31 c7bd
-0.10088363 0.069655076 0.10468204 -0.061423685 0.0017861999 0.10507936 0.017201567 0.1432597
-0.112381436 -0.015831245 0.0365686 0.024409596 -0.11072566 -0.0048176027 0.0049019745 0.10299773
-0.11448095 0.14332758 -0.03385443 -0.09336176 0.13226646 0.06924785 0.028088499 -0.009141319
0.12775095 -0.01539214 -0.03640456 -0.003992335 0.17406401 0.15322815 -0.09981284 -0.044337407
-0.10739493 0.038529757 0.14276855 -0.019886993 0.1453899 0.036627676 0.038740374 0.14708704
0.07719651 0.05796682 0.09415108 -0.040876307 -0.13258533 0.16222447 -0.10143582 0.045617457
0.08406194 -0.08390041 0.16936152 0.13410228 0.104210526 -0.08798804 0.14550038 0.031919386
-0.03460151 0.18570864 -0.049203195 -0.15827882 -0.12155748 0.15455437 0.06514509 0.02804949
-0.11896768 0.018655391 -0.034262877 0.060005527 -0.08492755 0.08784627 0.10670732 0.107349664
0.08966964 -0.003033145 0.06858547 -0.05490431 0.036682878 -0.02222155 0.06626418 -0.058056857
-0.118992634 -0.0442373 0.07672915 0.014208087 -0.023201637 -0.024274318 -0.046084195 0.11266214
-0.13048317 0.012507884 0.085364334 0.050387386 0.048737574 -0.018257486 0.06707653 0.040079296
0.100272894 -0.048509125 -0.076820046 -0.07880697 -0.080051295 -0.03212873 -0.011829407 -0.012534848
-0.13342753 0.016468361 -0.06678621 -0.0022098098 -0.039939534 0.11013704 -0.0141120115 0.04023811
-0.02428388 0.061301097 -0.0029156506 -0.092451304 -0.0638334 -0.09184282 0.09372959 -0.12450996
-0.04845855 -0.0042338157 0.048496533 0.0424773 0.08172224 -0.04146345 0.051149573 -0.06515802
-0.00024572146 -0.03315022 0.03673827 0.10620733 0.012082647 0.07737062 0.09359863 0.03715892
0.08341173 0.09134327 0.10920314 0.016913814 0.0007666897 -0.057628594 -0.053264905 -0.0059122504
-0.08651309 -0.032125536 -0.023184733 0.08933496 0.14397813 0.028688358 -0.031391162 -0.033313192
0.10333301 -0.031991277 0.07154869 0.065668315 -0.06533591 -0.022757865 -0.071082465 -0.08117233
0.09278739 -0.08017026 -0.10209153 -0.055520263 -0.0056743817 0.11423536 -0.07392198 0.09489231
-0.10102458 0.053150058 0.03987878 -0.086777076 -0.10059603 -0.14839149 -0.00061531784 0.052814804
-0.08504459 -0.058343943 0.06632948 0.010922054 0.057450753 -0.13555159 0.09211728 -0.054459706
0.01843969 0.0024425306 0.18308987 -0.029835103 -0.019240998 -0.1292172 -0.09402904 0.009499169
0.022424636 -0.028125443 -0.07226148 0.07732583 0.10069046 0.0752215 -0.094907984 -0.03976284
0.06534866 -0.06964586 0.017590512 -0.028030006 0.06831413 -0.025893675 -0.019502005 -0.12496801
-0.042835273 -0.02442536 -0.024531337 0.028046515 -0.023796596 0.020896323 -0.058477927 -0.067857906
-0.106153056 0.010501201 -0.12267528 0.066766664 0.06994178 -0.017299717 -0.056800373 0.060092013
0.08721008 0.049996912 -0.031171244 -0.06930295 -0.016061958 0.00906184 0.05914494 0.00261807
0.0614833 0.064472646 0.101523496 -0.06706517 0.061686736 0.08351911 0.08370349 -0.03781788
0.0807668 0.09570677 -0.061304733 0.11520126 0.08391251 0.023901222 -0.07113153 -0.06624414
0.0067570074 0.040896527 -0.14125358 -0.020563956 0.09300939 0.016697014 0.08667344 -0.097261876

network.4.bias f4 [32]
00000000: 03f7 8d3d 897b cebd 0d4a f93d 438f 92bd
00000010: 42ce 343d d630 8bbd 9e96 82bd 3262 eabd
00000020: 9277 713d 228e db3d 0768 ca3d c9b4 0b3e
00000030: f72e abbd ddd3 8bbd b306 613c e5f9 c4bd
00000040: e6a0 103e eb34 e63c 963d 9abd 9bce 5fbd
00000050: a0e7 993d 34f3 33bc da18 91bc d0ee d83c
00000060: 1024 c0bd 2603 993d 9e84 9fbc 1cdf 103e
00000070: 34c5 f53d d11a 54bc 9d65 3d3d d2d4 b73d
0.06931879 -0.10082156 0.12172327 -0.07156231 0.044142015 -0.06796424 -0.06376384 -0.114445105
0.05895192 0.10720469 0.09883123 0.13643183 -0.08358567 -0.06827519 0.013734507 -0.09617976
0.14123878 0.028101405 -0.07531278 -0.054640394 0.07514882 -0.010983277 -0.017712045 0.026481062
-0.093818784 0.07471304 -0.019472416 0.1414761 0.12000504 -0.012945847 0.046239484 0.08976139

network.6.weight f4 [3, 32]
00000000: d039 9b3d 15cf 3bbd a418 8cbd 59e8 23be
00000010: 3f9f db3d 4db8 643e a6ff e33d 27fe 0f3e
00000020: ba9c 693e c324 513e 50c5 28bc 91ae ccba
00000030: 88a5 8dbd b9a9 34be b506 36bd 4821 44bd
00000040: baa8 4a3d 9444 8cbc 27ff c9bc 170d 893d
00000050: f8a8 0cbe 5c0c f8bc 9fed 243e 13da b23d
00000060: 0022 0cbb bedf ab3d 08a9 703e df47 383e
00000070: 46b6 2b3e 1ec6 f8bc 4a9a 4a3d a3e5 203e
00000080: 01e8 dabc f98a fcbd 8ef6 06be 162d 993d
00000090: 3216 debd c4c6 123d 1434 103d 55d0 fabd
000000a0: fdf7 703d 7dde 82be a8ff d9bd 5f24 753e
000000b0: 9c5e 5d3e 2a5f 6f3d 509b 24be 697a 51bd
000000c0: 4f67 133e 6561 fb3d 6b90 073e f182 2cbe
000000d0: 9a66 d03d 5eee 08be fc8a 07be 1cba 4b3d
000000e0: d0e6 333c 751f 9b3d 4460 6ebe d35a 41bd
000000f0: 74b5 333e 034e 4ebd b457 d33d 03b3 233e
00000100: 9f21 58be 512c bc3c 18d3 1d3e 722f ad3c
00000110: 4f27 863d 52e7 f6bd b03b 1b3c 5294 2fbe
00000120: db5e e2bd 4d77 c13d 0229 3dbe 6ed4 ea3d
00000130: fc39 fa3d 842c 3a3e d4f4 c93d 9ef9 d4bc
00000140: 81ad 04be 0266 fb3d 8634 e73c 4885 1abd
00000150: de46 a5bd ef6e f33d 703f 1cbe 9853 0ebe
00000160: aa75 a53d 4463 0cbe c444 7abc 549d 25be
00000170: 8984 8abd e7bf e53d 682e 12be 8ffc 6bbe
0.07579386 -0.045851786 -0.06840637 -0.16006602 0.10723733 0.2233593 0.111327454 0.14061795
0.22813693 0.2042418 -0.010300949 -0.001561599 -0.06916338 -0.17642869 -0.04443999 -0.047883302
0.049477316 -0.017122544 -0.024657799 0.0669195 -0.13736331 -0.03027933 0.1610627 0.087330006
-0.002138257 0.08392285 0.2350198 0.17996167 0.1676875 -0.030367907 0.049463548 0.157126
-0.026721956 -0.123311944 -0.1317999 0.074793026 -0.10844077 0.03583409 0.035205916 -0.122467674
0.05883025 -0.2556037 -0.10644466 0.23939656 0.21618122 0.058440365 -0.16074872 -0.05114213
0.14394878 0.12274436 0.13238685 -0.16846825 0.1017582 -0.1337218 -0.13236612 0.049738035
0.010980323 0.07574359 -0.2327891 -0.047205757 0.17549688 -0.050367367 0.103194624 0.15986256
-0.21106575 0.02297035 0.15412557 0.021140788 0.06550466 -0.120558396 0.00947468 -0.17146423
-0.110532485 0.09446583 -0.18472674 0.11466299 0.12218091 0.18181044 0.098611504 -0.025997933
-0.12956811 0.12275316 0.028223287 -0.037724763 -0.080701575 0.11886393 -0.15258574 -0.13899076
0.08079083 -0.13709742 -0.015275184 -0.16173297 -0.0676356 0.11218243 -0.14275515 -0.23045562

network.6.bias f4 [3]
00000000: 03b7 303e a193 d2bd 41b1 ac3b
0.17257313 -0.10282064 0.0052701537

network.0.weight f4 [128, 30]
00000000: 83d7 40bd fce3 65bd 281d de3c 597d cd3b
00000010: ea4d f7bc 445f 9bbc ac75 c23d 4000 30be
00000020: 3804 f83d 2a41 8ebc 90dd 633e 272c 3f3d
00000030: 743a 83bd 85e6 75bd 1458 0ebe a201 38bd
00000040: 012f d7bd 12f5 12be 1935 313e 3f58 60be
00000050: ca98 393c 3094 0b3e 377e 0cbe 199c 39be
00000060: d25f 203e 0030 52bc 5f48 f8bd cc04 00bd
00000070: 0fe2 1ebe 84ef 0fbd 5146 ddbd 0946 f1bd
00000080: 729d 213c af6a aabd 31cb c73c 6ce7 5bbd
00000090: ecf2 ce3d 485e 533d 5b8f 0cbe 9a0b abbd
000000a0: 60e2 673e d1b3 e53d bfc0 94bc ae9f 2c3e
000000b0: 301e fcbd f025 5a3e a588 033e 3b93 31be
000000c0: 39a4 bfbd e36d 47be e788 7ebd 5178 3a3c
000000d0: c6a7 98bd 7854 bdbd 4af7 c0bd 3a4f f7bd
000000e0: 47c4 c9bd 00fa 9d3b bc44 963d e07f b7bc
000000f0: 6d02 4f3e 6493 b8bc ea7a d03d 0ac4 1f3e
00000100: ad0d 4a3d d4af 5f3e 9cca e33d f617 29be
00000110: e9b2 443e 006a 8f3c 1fc0 633e b0ee bdbd
00000120: e907 203d a8cd 853d 314b f63c cb50 41be
00000130: 8c11 28bd 0633 cebc 2244 303e 57dc 50be
00000140: 04c4 183e 5795 4f3c 2d6c b73d 0f1d 3fbe
00000150: a0ec 07be d8a5 013e 63dc d6bd ecc9 3c3d
00000160: 10e5 073e eea0 2e3e 574c 71bd 8828 443e
00000170: d657 08bc b9f4 09be 6603 363e d3ee 3c3e
00000180: fed3 89bd cb16 c53d ee56 c4bd a693 1bbd
00000190: be8d 543d 115b a8bd b292 913e 4890 883c
000001a0: 1c5b 04bd 165b e2bd 64d3 003e 4855 1f3e
000001b0: d57c 81bc 8139 803e 7116 f43d 3acd 3e3e
000001c0: f3ef 4d3d 09bd f33d 9003 2c3d 801c e13b
000001d0: 00cf 56bb 72d3 103e b930 a5bd dc2b e53d
000001e0: 5fe5 b93d 9c04 c93d f05a 953d 7a50 b33c
000001f0: 5886 b5bc 6b98 2c3e ed80 5b3e fe04 64bd
00000200: 37da 2f3e a2a9 ac3d 7fe3 953c f62a 37bd
00000210: 6ad9 a13d b4a2 ac3d 10c5 ec3d 4eba 17be
00000220: 9dde 073c 373c a33d f873 383d 9d60 a5bd
00000230: f5fd 453e 817f edbd 7756 f1bd 22f1 13bd
00000240: f753 21be 1cb0 bb3d 9281 3a3e 8246 89bd
00000250: 7e30 103e d8cc de3c 2582 dfbb 358f 0d3e
00000260: 7367 da3d 49de 14be 5cff e33d 8468 43be
00000270: 7d28 b6be 5468 c5bd 4bbe 28be 7c44 acbc
00000280: 7638 d23c 52ec 203d 3d1c 903e d06d 2fbe
00000290: 7eb8 f5bd 732d dd3d 4998 4f3e 8507 473e
000002a0: 2a5a 023d 9986 543c 6538 153d cbf0 6b3e
000002b0: b312 813e af47 c3bd 1c8e 113d f4bd d63d
000002c0: 8022 023e acef 013d 92e1 11be 06f1 293e
000002d0: d39e 32bc 4f03 e7bd 8c8a ebbd d8d3 4abd
000002e0: deae cc3d 0c34 4e3e 25d5 25be 09e4 873d
000002f0: 2333 5aba bd11 4b3d 8e51 45be 5820 473e
00000300: 2ecb 5f3e ef66 7dbd bbbd cbbd bd32 3a3c
00000310: 74d7 29be 22af d53d d51c bb3d 082e e13e
00000320: 4fe1 acbd 4753 923e 8b4d c43d c285 323d
00000330: e317 95bd 8bad ebbd 4c26 033e 641a a33d
00000340: b03d 293e 32b5 0d3e 3abc 17be bb97 1fbe
00000350: 6857 edbd 6b43 15bd 4612 1c3c d06a e23c
00000360: db93 c83d bbd2 123e b879 5dbb c5dc 81be
00000370: 9f3d 01be 36a1 f6bc 90df a63a c4e3 083e
00000380: 2081 533e 923b 7dbc a1c3 1b3e c995 73bd
00000390: 029c e2b9 52b8 05be 5b7b 07be 4ef4 2d3d
000003a0: fec3 cd3c 97c6 0c3e f445 d03d 68a2 6abd
000003b0: 74a6 ae3d 6ab5 19be b098 15bc e061 b03b
000003c0: 9740 ed3d b635 3d3e 6606 f0bd 660b 333d
000003d0: 656d 38be 7c45 893d b083 5abe ad50 e93b
000003e0: 0bcc 403d 605a 283e 6ab1 60be a8b3 0d3e
000003f0: 269e 4d3d 931c 0f3c 1c0f 37be e857 103e
-0.047080528 -0.056125626 0.027113512 0.006271046 -0.03018852 -0.018966325 0.094951004 -0.17187595
0.1211018 -0.017365057 0.22252488 0.046672966 -0.064076334 -0.060034294 -0.13900787 -0.044923432
-0.10507012 -0.143513 0.17305411 -0.21908663 0.011327932 0.13630748 -0.13720022 -0.18125953
0.15661553 -0.012828827 -0.12123179 -0.031254575 -0.15515922 -0.03514053 -0.108044274 -0.11780936
0.009864198 -0.083211295 0.024388881 -0.053687498 0.101049274 0.051603585 -0.13726561 -0.08351822
0.22644949 0.11215938 -0.018158315 0.16857788 -0.12310445 0.21303535 0.12845095 -0.1734132
-0.09357495 -0.19475512 -0.06214228 0.011381225 -0.07453875 -0.09244627 -0.09422167 -0.12075658
-0.0985189 0.004821062 0.07337329 -0.022399843 0.20215769 -0.022531219 0.10179694 0.15602127
0.04932945 0.21844417 0.11122629 -0.16513047 0.19208874 0.0175066 0.22241257 -0.09274042
0.039070044 0.065333664 0.030065151 -0.18878476 -0.04103236 -0.025170814 0.1721349 -0.20396553
0.14918524 0.012669883 0.0895618 -0.18663429 -0.13273859 0.1266092 -0.10491254 0.046091005
0.13270974 0.17053577 -0.058910694 0.19156086 -0.008321723 -0.1347226 0.17774734 0.18450479
-0.067298874 0.09623488 -0.09586893 -0.037982605 0.05189299 -0.082204945 0.28432232 0.016670361
-0.03231345 -0.110525295 0.12580639 0.15559876 -0.015806595 0.25043872 0.11918343 0.18632975
0.05027766 0.1190129 0.041995585 0.0068698525 -0.003277719 0.1414316 -0.08065934 0.11190006
0.09076952 0.09815332 0.072927356 0.02188896 -0.022158787 0.16855018 0.214359 -0.055668823
0.17173086 0.084307924 0.018296955 -0.044718705 0.079027966 0.08429471 0.11561024 -0.14817163
0.008292821 0.079704694 0.04503247 -0.08075068 0.19335158 -0.11596585 -0.1178407 -0.036118634
-0.15754686 0.091644496 0.1821349 -0.067029014 0.14080998 0.027197286 -0.0068209344 0.1382416
0.106642626 -0.1453792 0.1113269 -0.19082838 -0.35577765 -0.0963904 -0.16478841 -0.02102875
0.025661688 0.039287873 0.28146544 -0.17131734 -0.1199808 0.107996844 0.20272936 0.19436462
0.03182427 0.012971544 0.036430735 0.23041074 0.2520958 -0.09535157 0.035535917 0.104854494
0.12708473 0.03172271 -0.14246204 0.1659585 -0.010902124 -0.11279928 -0.11501035 -0.049518436
0.09994291 0.20137042 -0.1619459 0.06635291 -0.000832366 0.049577463 -0.19269392 0.19445932
0.2185485 -0.061865743 -0.099482976 0.011364636 -0.16586095 0.104337946 0.09136359 0.43980432
-0.08441412 0.2857916 0.09585103 0.043584593 -0.07279947 -0.1150771 0.12807578 0.07964018
0.16527438 0.13838652 -0.14817896 -0.15585224 -0.11588937 -0.036441248 0.009525841 0.027638823
0.09793826 0.143382 -0.0033794474 -0.25363746 -0.12621163 -0.030106168 0.0012731422 0.13368136
0.20654726 -0.015456097 0.15211345 -0.059469018 -0.00043222314 -0.13058594 -0.1323065 0.042469315
0.02511787 0.13747631 0.101695925 -0.05728379 0.08527842 -0.1501061 -0.009130642 0.0053827614
0.11584585 0.1847752 -0.117199704 0.043712042 -0.1801048 0.06702706 -0.21339297 0.007120213
0.04706959 0.16440725 -0.21942678 0.13838065 0.05019965 0.00873484 -0.17876858 0.14096034

network.0.bias f4 [128]
00000000: 7e3e b23d 46a5 eebd 749e d1bd 9993 01be
00000010: 3609 983c 2b00 633e 7554 3e3e 0215 fbbd
00000020: aea0 243d d03a 323e 9b7f 1c3d 9eef 87be
00000030: fc04 bc3d 9868 4b3e 2714 3cbd 3836 28bb
00000040: 8547 f53b 0b38 9e3e 9d7f 7c3e 7908 d53d
00000050: c41f 783e 9577 7dbd 8869 08be 870d 27bd
00000060: 5e47 09bd 4e6f 8abd 0318 043e 7a51 613d
00000070: a31e 4f3e a882 9e3d 8777 5ebd 3b1b b43c
00000080: b27f 15bd f3f1 313e 3ebd 8e3e 5a46 c83c
00000090: a8ae 1ebb 43a9 943e 5064 4f3e b06c 41bd
000000a0: 0f5d f33d 184b 92bd a095 6cbd 43bf 513e
000000b0: c436 e23d e60f e1bd 87c2 a3ba 533b 103d
000000c0: 63c2 17be 4b54 e03d d4d3 6d3e 128c 913e
000000d0: e18a 003d f015 253e b853 383e 2355 dc3c
000000e0: d87f ed3d 700b 3e3d ff05 793d 8cae d53d
000000f0: 8942 0b3e 2aaf a33e ce48 b83d 787b 36bc
00000100: 386f 903c 1167 ebbd 5442 98bd 82c4 693d
00000110: 0898 113e 3f04 e23d 49db a13c 1588 de3d
00000120: d178 48bd 90cd 9e3d d396 503e 6d30 353e
00000130: de3d 32be ec6d 583d aefe 15bb 3ee6 c3bd
00000140: 5371 223d 34d8 f0bd 280f e53d e2b3 4c3e
00000150: d7ee 06bd 63a0 a73c 2b09 8fbd 883e 843e
00000160: 4f0a 463e 09fe c23d 8ae3 8cbd 8eea 69bc
00000170: 06a1 313e 2fe0 143e 7b7a 303e 9637 733c
00000180: 884f 0a3e c403 113e 6be0 253e 92fd 883e
00000190: d2a4 afbd 9171 773e fd08 01bd 7a07 ebbd
000001a0: 58f3 6b3e 2b81 a63d 124d 0fbe fcc1 ac3d
000001b0: b009 b53d 94da 1cbe 9eaf 25be 1316 653d
000001c0: bfcb 453e 8ac0 043e 0721 463e e3c6 7e3e
000001d0: 12a1 c7bd 3a53 873e d4bf 59be ff25 ba3d
000001e0: a7fd 383e a50b 48be 6584 c83d 3a57 2cbe
000001f0: 282e b63d 5b69 483e 91b4 843c 7e9d bc3d
0.08703326 -0.11652617 -0.10235301 -0.1265396 0.01855908 0.22168033 0.18586905 -0.12259866
0.0401923 0.17405248 0.03820763 -0.2655 0.09180638 0.19864118 -0.045917656 -0.0025667083
0.0074853324 0.30902132 0.24658056 0.10402007 0.24230868 -0.06188162 -0.13321507 -0.040784385
-0.033515327 -0.06759511 0.12899785 0.055009343 0.2022653 0.077397645 -0.05431321 0.02198564
-0.036498733 0.17377453 0.27878755 0.024447609 -0.002421299 0.29035386 0.2025311 -0.047222793
0.11882984 -0.07143229 -0.05775988 0.20483117 0.11045602 -0.109893605 -0.0012493887 0.035212826
-0.14820246 0.109535776 0.23225337 0.28427178 0.031382445 0.1612165 0.18000686 0.026896065
0.1159665 0.046397626 0.060796734 0.10433683 0.135996 0.31969577 0.089982614 -0.011137836
0.017631158 -0.11494268 -0.07434526 0.05707217 0.14218152 0.11035966 0.019757884 0.10865799
-0.048943345 0.07754052 0.20370035 0.17694254 -0.17406413 0.052839205 -0.0022887397 -0.095653996
0.039658856 -0.117599875 0.111845315 0.19990495 -0.03294262 0.02046222 -0.069841705 0.25828958
0.1933987 0.095211096 -0.06879337 -0.014277114 0.17346582 0.14538644 0.17234223 0.014844796
0.13506901 0.14161593 0.1619889 0.2675596 -0.08576359 0.24164416 -0.031502713 -0.114760354
0.23042047 0.081301056 -0.13994244 0.08435437 0.08839738 -0.15317756 -0.16180274 0.055929255
0.19316004 0.12964073 0.19348536 0.24880557 -0.097475186 0.26430684 -0.21264583 0.090892784
0.1806551 -0.19535692 0.09790877 -0.1683015 0.08895522 0.1957144 0.016199382 0.09209727

network.2.weight f4 [64, 128]
00000000: 1d38 943c 1e50 203c 3202 06bd 2604 4dbc
00000010: 9f43 a1bd ffa9 aa3c 95a8 80bd 5002 19be
00000020: 5672 5a3b 5f54 593d 1152 763d b1a1 8d3d
00000030: 9229 d3bd 8c45 35be eb32 dfbc 5a82 a7bc
00000040: 5486 f23a fd1d 203c b800 4e3c ae19 02bd
00000050: 94ac 8dbd 9a5e 483c a152 6cbd b5f8 d13b
00000060: fae7 a4bd dd6a c4bd 1799 79bd 639f e3bc
00000070: 2cea dabc 2c4e 4e3d bc8c 6d3d d642 a1bd
00000080: 7ac5 263c 4286 3e3b de48 6d3d 511c 02be
00000090: 5653 e5bd 0a5b f33c 2835 10be e36a 65bd
000000a0: 6efc 243d 9f72 22be dbd9 693d 9bd2 d93b
000000b0: 9a7e 013d 933e b6bc d2b0 e83c 4d4a f0bd
000000c0: 201c a0bd 3f01 403d 4903 0abc 32bf 84bd
000000d0: 8b06 053c 987b e73c 4a2b 81bd e9e9 5ebe
000000e0: 44ca 32be a20f a6bd 411e 9d3d 0893 c3bd
000000f0: 3269 1a3d 3d5f d6bd efbe 6abe fc24 d5bb
00000100: 3315 61bc 0d1e 81bd f49f d9bd 0e4d 09bd
00000110: 54a9 713d 55db a0bc 372f b0bd ec7e 833d
00000120: 90d9 7ebe 0c73 113b f7fe 04bd 3c89 8e3c
00000130: 067e 16be fd3e 03be 2d94 c4bc 16b2 32bd
00000140: 3114 60bd 3096 f23c 04ee a6bd 898d 47bc
00000150: ff6c d03d 25b0 29be 9c1b a4bd fcb4 e6bc
00000160: d169 debd 3e0d e43d c207 8b3d 0886 d83b
00000170: 22cb 8a3b ff99 c13a c43d b33c 0264 763d
00000180: 3f5c 35be e26c 1a3d ceb4 42bd 0934 fb3b
00000190: 2693 2ebe 237b 0b3d 0f4f 8a3c 66b1 e0bd
000001a0: 25dc 68bd 3cec 3bbd e7f4 e23c 72c9 89bd
000001b0: 2ca8 4bbe 2bb9 ee3b 7d4c bfbd a4c5 01b9
000001c0: a105 05be 5acb 9d3d 95f8 05bb 1a46 803d
000001d0: 9147 203d b6c8 6fbd 91cf 9e3b 76f5 b4bc
000001e0: 3816 41bd 2ca0 29bd 6d71 213d 073c 5bbd
000001f0: f405 893d ab58 5e3c dd7b 4dbd 5c61 8dbd
00000200: 7aaf 803c 767a 87bd 5cba f6bd b013 96bd
00000210: aa2d 3bbe 8f16 e63d dbde 12be f4b0 233e
00000220: dd99 80bb ac77 5c3d 9006 0fbd c696 88bd
00000230: 6732 86bc d3fd 1abe 0b39 e03c 939e edbd
00000240: 424e 2b3e 0152 3ebe 244e 063e dbab dc3d
00000250: c662 8dbe 9a6b 583d 8841 033b a005 df3d
00000260: f427 f6bd 82ed 96bd 78de 05bd 8b89 0bbe
00000270: 7e4c 1c3e 93de aa3d 960f d7bd 457e b3bd
00000280: a7cb 403d f60b 0abe ae4d 0cbd 20e7 fabd
00000290: af03 65bd 3b31 0bbb fd66 8dbd d796 5cbc
000002a0: a92a 4a3d 56e1 18be 080e 073e 3bfb 193d
000002b0: 58b0 8bbc f02d 70bd 1d29 3e3d 4e2f 0ebd
000002c0: ad0b 113e 69da 33bd e7eb 81bd 729d 97bc
000002d0: 06a8 27be ec6a 993d 0e68 7b3c edbf 27be
000002e0: f67b 24be b0aa 58be 8d4f 293d 3889 81bd
000002f0: e7a5 1abd 7603 24be dc0a 74bc 237c aebd
00000300: fb47 853d 42e7 3e3d 2b50 dd3c 7b94 fcbd
00000310: 3889 513d f7e3 9a3d 909d 52be 365a 1abe
00000320: ce56 f83d 0690 843d f861 e5bd 26c1 eb3c
00000330: 3ef6 a73d 2364 35be 2b3a 29bb 20bd 02be
00000340: 8fd9 3cbe 0574 dfbd 81f5 383c 9e08 d3bc
00000350: bdc7 e43d 9432 9b3b 6e85 a1bc 0dc9 b13d
00000360: 67b5 753e 4372 883d 2c93 2ebd b6f0 24be
00000370: 2537 22bd c82a 9ebd 7463 adbc 3178 f9bd
00000380: 476f 83be dad8 25be 193b 893b 6ef6 f1bd
00000390: f325 74bd 0c09 b43d 69ce f2bd d82b acbd
000003a0: 3cd1 a8bb 2c2b bd3c dcf9 a2bc fcca af3d
000003b0: 0f88 78be e360 0b3d 1298 33bd 259e 1b3e
000003c0: f946 61be bf76 163e c14d 2f3e 35b9 46bc
000003d0: bf6c 16be e888 d7bc 3598 693d 17b2 df3c
000003e0: f0eb 0dbe fef2 5d3d d776 863d 5583 a0bd
000003f0: 93e6 2dbd 1e98 dd3d 92b6 a4bd 067b d2bc
0.018093163 0.009784726 -0.032716937 -0.012513196 -0.07874226 0.020833014 -0.062821545 -0.14942288
0.003333231 0.05305898 0.06013686 0.06915606 -0.10310663 -0.17702311 -0.02724596 -0.020447899
0.0018503168 0.009772775 0.012573414 -0.03176277 -0.06917682 0.012229586 -0.05769599 0.006407822
-0.080520585 -0.09590695 -0.060937013 -0.027785962 -0.02672299 0.05036752 0.057995543 -0.07874076
0.010178918 0.0029071723 0.05793082 -0.12706114 -0.11197536 0.029706497 -0.14082778 -0.05601014
0.0402798 -0.15864037 0.05709253 0.0066474206 0.031614877 -0.022246635 0.028404627 -0.11732922
-0.078178644 0.04687619 -0.008423635 -0.0648178 0.008119236 0.028257176 -0.06307085 -0.21768917
-0.1745997 -0.081084505 0.07671786 -0.09549528 0.03769798 -0.10467384 -0.22924398 -0.006504653
-0.013737964 -0.0630456 -0.10626212 -0.03352075 0.058999375 -0.019635836 -0.086027555 0.06420693
-0.24887681 0.0022193817 -0.032469716 0.017399423 -0.14696512 -0.12816997 -0.023996437 -0.043626867
-0.054706756 0.02961263 -0.08150867 -0.012179741 0.10177039 -0.165711 -0.080130786 -0.028162472
-0.10860027 0.11135338 0.06788589 0.0066077746 0.004235641 0.0014770626 0.021880038 0.06015397
-0.1771097 0.037701495 -0.04753571 0.007666115 -0.1704832 0.03405298 0.016883401 -0.10971336
-0.05685057 -0.045879588 0.02770467 -0.06727876 -0.19888371 0.0072852573 -0.09340761 -0.00012376026
-0.12990429 0.07704802 -0.0020442356 0.06263371 0.03913075 -0.058541022 0.004846521 -0.022089701
-0.04714033 -0.041412517 0.039414812 -0.053524043 0.066905886 0.013570945 -0.050166953 -0.069033355
0.015708674 -0.066151544 -0.12047264 -0.07327974 -0.18279138 0.112347715 -0.14342825 0.15985471
-0.003924592 0.053825065 -0.034918368 -0.06669383 -0.016381456 -0.15135889 0.02737095 -0.11602511
0.16729072 -0.1858597 0.13115746 0.10774966 -0.2761442 0.05283699 0.0020028073 0.10889745
-0.12019339 -0.0736952 -0.032682866 -0.13626687 0.15263554 0.08343234 -0.1050102 -0.087643184
0.047069218 -0.13481125 -0.03425377 -0.12251115 -0.055911716 -0.002123906 -0.06904409 -0.013463697
0.04935709 -0.14929709 0.13188946 0.037593108 -0.01705186 -0.05863756 0.046425927 -0.034713082
0.1416461 -0.043909464 -0.06343823 -0.018507693 -0.1637269 0.07491097 0.015344633 -0.16381808
-0.16062912 -0.21158862 0.04133563 -0.063250005 -0.037755873 -0.16016945 -0.014895167 -0.08519771
0.0650787 0.046607263 0.027015766 -0.12333008 0.051156253 0.07563012 -0.20567918 -0.15073475
0.12125932 0.06472783 -0.11200327 0.028778624 0.08201264 -0.1771398 -0.0025822024 -0.12767458
-0.18442367 -0.10910801 0.011289001 -0.025760945 0.111709096 0.004736254 -0.019716945 0.086809255
0.23994981 0.06662419 -0.042620823 -0.16107449 -0.03960337 -0.077230036 -0.021165587 -0.12181128
-0.25670835 -0.16196004 0.004187953 -0.11814581 -0.059606504 0.08790788 -0.11855776 -0.084068
-0.005151896 0.023091875 -0.019894533 0.08583638 -0.24270652 0.034027945 -0.043846197 0.15197046
-0.2199973 0.14693736 0.17119505 -0.012129118 -0.14689921 -0.0263104 0.05702992 0.0273066
-0.13859534 0.054186814 0.06565636 -0.078375496 -0.04245622 0.1082003 -0.08042635 -0.025693428

network.2.bias f4 [64]
00000000: 9530 613d 5e3a aebd 6459 2abd f720 da3d
00000010: 811c 303d d53c 393e bec5 263e 18b3 71bd
00000020: aa30 cebd 2436 cc3d 51ec b63d 2623 b13c
00000030: 4f1a e0bd 6ad7 93bd 4bc1 b13d 876a 9d3d
00000040: ed25 d53c 53f9 b3bd f5eb 683d 7456 1a3e
00000050: 347d 0d3d e492 9dbd 3eaf be3d 4fa4 3f3e
00000060: ac6e 80bd d2a3 d7bc 24fb 433d 0b1c 31bd
00000070: 8710 94bd b652 52bb a93b 863c 79eb 0cbd
00000080: 7377 44bd a973 cabc c4b4 adbc 1966 4c3e
00000090: 9cbc 5e3d f360 a23d a55e 38bc ee7a 0b3e
000000a0: 8dce f9bd b554 093d 5d41 193d d020 88bb
000000b0: 2565 8ebd 0adf 55bd b97c 99bd f8f6 983d
000000c0: 610b 9fba 7ea7 b7bc 9a8e 2a3e e4f6 23bd
000000d0: f33c e23c d8a7 323d 547b 98bc a889 133e
000000e0: 0725 2dbd 33f0 b53d 3bc4 b73c 4e4b 8e3d
000000f0: 7060 93bd 12a6 6a3d 2957 92bd 896e 303d
0.054977972 -0.085072264 -0.041589156 0.10650819 0.042995933 0.18089612 0.1628637 -0.059008688
-0.10067876 0.09971264 0.089317925 0.021623205 -0.10942518 -0.07218821 0.08679446 0.07686334
0.026019061 -0.08787789 0.05686565 0.15072042 0.03454323 -0.07694033 0.093107685 0.18715023
-0.06271109 -0.026323233 0.04784693 -0.043239634 -0.07229715 -0.0032092757 0.01638587 -0.03440425
-0.04796548 -0.024713354 -0.02120436 0.19960822 0.05437909 0.07928648 -0.011253034 0.13621113
-0.121975996 0.03352805 0.03741585 -0.004154302 -0.069528855 -0.05221466 -0.07494492 0.074689806
-0.0012134128 -0.022418734 0.1665596 -0.040030375 0.027616953 0.0436171 -0.018613495 0.1440798
-0.04227164 0.08883705 0.022432437 0.06947957 -0.07196128 0.057287283 -0.07145531 0.043074165

network.4.weight f4 [32, 64]
00000000: 40cd 803b f781 323d ba96 233d 9fa9 843e
00000010: 1810 cdbb 8c5f 673e b286 7b3d 3adb 2a3d
00000020: 070b d4bd e8e1 923c 2801 4b3d fb98 f53d
00000030: ad72 d4bd 6ede c63d 9c3d d4bc 419d 133e
00000040: face 333c 6863 cebd a13d 0a3d 5cab d43d
00000050: 52bd 6bbd f5d9 73bd 81b6 25bd 029f 8a3e
00000060: 5333 e13c 8d6d ff3d a9b9 ba3d 661d ed3d
00000070: fdc7 913c 8c7d d03d c6ec 343e 464f 93bc
00000080: fca9 e03d fa78 dfbd 1ef7 71be 4a79 0b3e
00000090: 1d04 3b3d a592 a8bc e15d 07be 94f2 7d3e
000000a0: a5b6 45bd fac1 3a3d 6661 c0bc a831 ab3d
000000b0: def0 243d 517a b13d ac50 253e c8ed 843c
000000c0: 85ae bebe ae47 04be 9bd8 2d3d e79e dcbb
000000d0: 70ef f83d ad83 d8bd f4a2 6c3e 8a8d fe3c
000000e0: 73ee 9bbd 982e e9bd 9aa5 0a3e 4375 c6be
000000f0: 2a41 b13d 2847 013e 1e10 10bd dcb4 75bd
00000100: f636 e53c 49c0 553e 56b5 b0bd 93e6 2fbe
00000110: f4d2 a13d cf95 b2bc 6ce4 d73d ce23 203d
00000120: 23fd e5bc 7fe9 23be 19be 01be 67f7 3dbd
00000130: ec12 26be 5cc3 e2bd 14bb d03c 3361 6abe
00000140: 5cf1 a73c f796 68bd caba 88bc 12ca 49bd
00000150: af25 b3bd 51a4 4d3d 8094 8a3d 9503 8d3d
00000160: 4be5 fcbb 9cd6 81bb 1df7 85bd 0bb8 8f3d
00000170: 8599 bebd 1f57 973d 47f8 933d e799 a63d
00000180: d0f0 05bd e948 7a3c d329 0b3e 029c fb3d
00000190: d34f 70bd 21bb 873e 73fb 2abe 95e4 1a3e
000001a0: 742b 40be 2e6f 4abb c4ff 3abd c27c 783c
000001b0: 20a4 6bbe 4a55 363d f371 24be e392 e9ba
000001c0: 66a7 62bd dedb a0bc 6e78 0abe 9da4 02be
000001d0: 935b 243c 6421 f3bc b725 cd3d c30f 103b
000001e0: 9c88 16bd 46ee bdbd 93dc e6bd e209 63be
000001f0: 564e 0f3d 9f14 b3bb 44df 14bd 6834 2dbe
00000200: 51b5 e03d aaec 2fbe e2f7 be3c 539a 173e
00000210: 8dfb 04bd bbd1 e83d bbb0 3a3e 75a5 113e
00000220: 6964 953d 94b2 b23d b592 b73d f23c 873a
00000230: db48 d3bd 1ef7 fa3d ec56 6cbd cf2e 933e
00000240: 476f 78bd 07b2 cebd ccad 163e a48f 0a3e
00000250: 4047 32bd dc2d c4bd 5cde 57bd f823 2e3e
00000260: 903f 3ebd 3d66 edbc f891 bb3d 88eb 8c3c
00000270: f991 ea3d b480 1ebc 6358 fa3d 63b0 34bd
00000280: 6b7f ae3d 7e9f fb3c d507 03be 2920 6c3d
00000290: 4057 523c b9fd 1b3d 196f 06be 04c2 203e
000002a0: 051e 6cbc ea45 d9bd 7a84 a73d 883b f53d
000002b0: 99bf 96bd a6bd 7e3d ba9e 0f3e 5b24 95bd
000002c0: f774 81be bc93 c43d 1ba6 223e d0de 8ebd
000002d0: 2d3e c53d 8c64 60be dde8 a43d 0a87 5f3d
000002e0: f0b1 ec3d e612 fbbd d1aa bb3d 9f11 a1be
000002f0: 1ccc e23c f27b 893a 3682 023e 63c6 82bd
00000300: fe0a 8dbc bd89 02bc 868c dc3c f179 153e
00000310: 3edc 123e 4088 1e3e 9352 513e aa95 b83d
00000320: 9478 89bc 201f 3d3e dd57 743d 2cc9 50bd
00000330: dced 1e3d c684 a2bd 946b 093e 776e 7b3d
00000340: 2ac8 fdbd 90dc 03bd ea79 2f3d 2ebe a23d
00000350: 08fe ea3d d607 ebbd 56c5 a33d b1e0 183d
00000360: 9364 0f3e 7270 b1bd 40d0 c0bd 81da 093e
00000370: 9961 eb3c d01f c4bd 03de 453e fa37 023e
00000380: 6086 dd3c 5418 d0bd 9eb1 22be 4f40 7abc
00000390: 6d50 3ebd 7d4d 89bd 2433 0bbe 2f11 c93d
000003a0: bb36 133c 9b1f 20bc 954a 0a3e 7b4a a2bd
000003b0: e2bd 22bd a7b9 803c d190 c33d bafd 32bd
000003c0: e3fb b2be 4d33 a33d 609f da3d 12e6 95bd
000003d0: 1fcc b3bc 23ef 43be 7b58 fd3d 4d90 2b3e
000003e0: 0068 9e3d 6120 61be 34f2 6abc a6c1 57be
000003f0: 34da 033e 4507 9a3d 4cdc af3d 0df3 03be
0.0039307177 0.043580975 0.039938666 0.2591066 -0.006258022 0.22595042 0.061407752 0.041712977
-0.10353666 0.017929986 0.04956165 0.11992069 -0.10373435 0.09710394 -0.025908284 0.14415456
0.01097464 -0.10077554 0.03375018 0.10384247 -0.057553597 -0.059534032 -0.040457252 0.27074438
0.027490294 0.12472067 0.09117443 0.11577873 0.017795557 0.10180196 0.17668447 -0.017982136
0.10969922 -0.10911746 -0.23629424 0.13620487 0.04565822 -0.020577738 -0.13219406 0.24799567
-0.048269887 0.045595147 -0.023483943 0.083590806 0.04026877 0.08665908 0.16144055 0.016226664
-0.37242523 -0.12917969 0.0424429 -0.00673281 0.12155044 -0.1057199 0.23109037 0.03107335
-0.0761384 -0.1138584 0.13539734 -0.3876134 0.08655007 0.126248 -0.03517162 -0.059986934
0.027980309 0.20874132 -0.08628337 -0.17177801 0.07901564 -0.02179995 0.10541615 0.039096646
-0.028074807 -0.1600704 -0.12670173 -0.04637852 -0.16218156 -0.11072418 0.02547983 -0.22888641
0.020500831 -0.056784596 -0.01669063 -0.049264975 -0.08747422 0.050205532 0.067666054 0.06885449
-0.0077177635 -0.003962351 -0.06541274 0.07017525 -0.09306625 0.07389664 0.072250895 0.08134823
-0.03270036 0.015276172 0.13590173 0.122856155 -0.058669876 0.26509956 -0.16697483 0.1512626
-0.18766576 -0.0030889022 -0.045654073 0.015166463 -0.23011827 0.04451493 -0.16059093 -0.0017820265
-0.055335425 -0.01963609 -0.13522503 -0.12758107 0.010031599 -0.029679008 0.10016959 0.002198205
-0.036751375 -0.09273963 -0.1127254 -0.22171739 0.034986816 -0.0054651047 -0.036345735 -0.16914523
0.10972083 -0.17180124 0.02331156 0.14804964 -0.03246646 0.11368128 0.1823148 0.14223273
0.07294542 0.08725467 0.08963529 0.0010317846 -0.103166305 0.12254165 -0.057700083 0.2874665
-0.060652997 -0.1009255 0.14714736 0.13531357 -0.04352498 -0.095790595 -0.052702293 0.17005908
-0.046447337 -0.028979415 0.09158701 0.017202154 0.11453623 -0.00967424 0.1222389 -0.044113528
0.08520397 0.0307157 -0.12795956 0.057647858 0.012838185 0.038083766 -0.13128318 0.15699011
-0.014411454 -0.10609038 0.08179565 0.11974245 -0.07360763 0.06219258 0.14025393 -0.07282325
-0.2528455 0.095984906 0.15883677 -0.06976092 0.09631 -0.21913356 0.08052228 0.054572143
0.115573764 -0.12259464 0.0916344 -0.31458756 0.027685218 0.0010489209 0.12744984 -0.063854955
-0.017217156 -0.00796741 0.026922476 0.14597298 0.14341828 0.15481663 0.20441656 0.09012921
-0.016781129 0.18468904 0.059654105 -0.050973102 0.03880106 -0.07935481 0.13419944 0.061384644
-0.12391694 -0.032192767 0.042840876 0.0794643 0.11474234 -0.11476104 0.07996623 0.037323657
0.1400321 -0.08664025 -0.094147205 0.13462259 0.028733062 -0.0957638 0.19322972 0.12716666
0.027041614 -0.1016089 -0.15888068 -0.015274121 -0.04646342 -0.06704233 -0.13593727 0.09817731
0.008985217 -0.00977316 0.13505013 -0.07924362 -0.039731868 0.015713526 0.09549106 -0.043699004
-0.349578 0.07968769 0.106749296 -0.07319273 -0.021947918 -0.19134192 0.12370392 0.16754265
0.0773468 -0.21985008 -0.014339972 -0.21069965 0.12876207 0.07520918 0.0858694 -0.12885685
